final_models/Adam/NonSamplePools/15-RABBIT-FACE-train_05-05-2022_14-39-24/models/model_1000.pt (torch, 9699 bytes, 3 tensors)

update_module.0.weight f4 [32, 48, 1, 1]
000000 c8 e1 9f 3d 97 89 45 3d 8e 6e c8 bd 7b 40 b3 bd
       0.07806736 0.04822692 -0.09786712 -0.08752533
000010 cd 8b 8d bc bb d7 f5 bd bb 2d 2d be ab ee ec 3d
       -0.017278576 -0.12004038 -0.16911976 0.1156896
000020 37 fe 0d be 59 f9 bc bd b7 de c5 3d 30 4a e1 bb
       -0.13866507 -0.09227247 0.0966162 -0.006875299
000030 d1 42 1b bd be 7c 9d 3e eb 21 7d be c5 f9 55 3d
       -0.037905518 0.30759233 -0.2471997 0.052240152
000040 85 90 4d 3d e3 ef a8 bd fb 1c 93 be fc 53 bf 3e
       0.050186653 -0.0824888 -0.28733048 0.37368762
000050 a9 3b c7 be 7f dd cd bd 10 81 55 3e 4b e0 58 be
       -0.38912705 -0.10052013 0.20850015 -0.21179311
000060 44 f4 35 bd 91 77 af 3d 07 95 0a be f1 2b 0d be
       -0.044422403 0.08567727 -0.13533412 -0.13786294
000070 5c 8e 5c 3e d7 bf a1 be 26 7f c2 3d aa 40 14 3e
       0.21538681 -0.31591675 0.09496908 0.14477792
000080 48 13 9b be bf 99 42 bd 65 ca cb 3e 0a d6 9b be
       -0.30288148 -0.047509905 0.39802852 -0.30436736
000090 c9 36 b8 3d ff e5 71 3e b1 62 06 be 6b 65 7f be
       0.089948244 0.23622893 -0.13123585 -0.24941032
0000a0 cb 47 7e 3e 7c 91 95 be bc 8e f7 bc ba e4 70 3d
       0.24832074 -0.29212558 -0.030219428 0.05881188
0000b0 42 13 78 bd 6c 6f 82 bd b6 8b 98 3e 8d 22 00 be
       -0.06056524 -0.06368908 0.2979409 -0.1251318
0000c0 32 0d 18 3e c6 84 e3 bd 96 d6 94 bd 8b 2c 36 3d
       0.14848784 -0.11109309 -0.072674915 0.044476073
0000d0 e4 d6 a8 bd 35 8e 29 be 3f f7 05 3e ef 08 27 be
       -0.08244112 -0.16558154 0.13082598 -0.16312002
0000e0 0a a5 dc bd 12 5e 83 bd 93 d7 24 bd 4d 7e 11 be
       -0.10773666 -0.06414427 -0.04024465 -0.14208336
0000f0 10 46 a8 3d be 9d 81 3e 88 b5 1f 3e 41 eb 54 3d
       0.08216488 0.2531566 0.15596592 0.051982168
000100 a9 3b 87 3e d2 d9 a3 3c 2b fa 81 bc f5 b5 b0 3d
       0.26412705 0.020001326 -0.01586636 0.086284555
000110 88 0f 00 3e 9a ca 48 3d 60 df 66 bc 11 b3 2f 3d
       0.12505925 0.04902134 -0.014091343 0.04289538
000120 f9 f9 29 3d 6f 48 13 be 80 f3 63 bd ca 6c 40 be
       0.041498158 -0.143831 -0.05565214 -0.187915
000130 c5 2d b0 bd d8 04 2e 3d dc 5e 8b bd fe 31 87 bc
       -0.0860248 0.042485088 -0.06805202 -0.01650333
000140 0c 81 20 3e 9f e7 17 3e 4f be 20 3e 68 0f 7d 3e
       0.15674227 0.1483445 0.15697597 0.24712908
000150 c9 96 d7 bd ae 38 0c 3e e8 33 8d 3e 38 c4 ff bd
       -0.10526807 0.13693497 0.27578664 -0.12488598
000160 a7 00 de 3d fe 60 5f 3e 7e 3f 27 3c 5d d2 07 bd
       0.10839968 0.21814343 0.010208009 -0.033159602
000170 5a 8d 8f be 2c 31 88 3d ce bf 08 3e 6c 7b 92 3c
       -0.2803753 0.06650004 0.13354418 0.017881118
000180 66 eb a0 bd e3 4a 3b be 89 69 75 3d 30 39 20 be
       -0.07857399 -0.18290286 0.0599151 -0.15646815
000190 40 73 3a bd a2 be 86 bb 8b 61 b4 3c 9a e3 08 be
       -0.045520067 -0.0041120807 0.022019168 -0.13368073
0001a0 ff f8 c7 3c 91 6c 8c 3c a1 68 74 bd 7b 4e b2 3d
       0.024410723 0.017141612 -0.059670094 0.08706375
0001b0 93 e0 84 3d 88 a7 eb 3c 14 b8 6c 3e 4c e1 5a bd
       0.06488147 0.028766409 0.23117095 -0.053437516
0001c0 5c 8b 8b 3d 08 c2 04 3e 7c bf e8 3d 10 2e 3b 3e
       0.0681369 0.12964642 0.11364648 0.1827929
0001d0 ad 21 cc 3c 8f 73 a4 bc 04 e5 62 3d 11 86 54 3e
       0.024918402 -0.020074634 0.055394188 0.20754267
0001e0 0c 48 48 3e 1c c8 83 3e 71 d4 84 bd d6 b6 af bd
       0.19558734 0.2573861 -0.064858325 -0.08579795
0001f0 7d d6 75 3e c1 f1 2f 3e cf 98 5f 3d 50 95 33 3e
       0.24007602 0.17182066 0.05458909 0.17537427
000200 1d f5 25 3d 66 5a dc 3d 61 68 58 3e a3 10 57 be
       0.04051696 0.1075943 0.21133567 -0.2100244
000210 12 8c 52 3e d7 33 9c 3e f4 1d 6d be 63 5a 21 3e
       0.20561245 0.305083 -0.23155957 0.15757136
000220 e9 53 9e 3e be 7c 38 3d c7 6b 47 bd 25 5d e1 bd
       0.30923393 0.04504084 -0.04868677 -0.11004094
000230 43 8f 0a bd b6 34 1b 3e de 8e b0 3d 1f ce 85 3e
       -0.03382803 0.15156826 0.08621 0.2613382
000240 8f 8b a7 bc 31 4f 4f 3e 87 03 44 3e e1 ca 8e bd
       -0.020452289 0.20245053 0.1914197 -0.0697229
000250 12 9c 97 bd a9 8b db bd 25 f1 72 bd ec 9b 90 3d
       -0.07402815 -0.107199974 -0.059312005 0.0706099
000260 f6 b5 b1 3d a0 24 80 bd 3c 8e 54 3e f3 dd f5 3d
       0.086772844 -0.06256986 0.20757383 0.12005224
000270 71 82 b7 3d cb ab 94 3d 7f 62 0f 3f 94 64 22 bd
       0.089604266 0.072593294 0.5600967 -0.0396467
000280 c8 36 6a 3e ad 25 a9 3e aa 75 a6 3d ca 31 22 bd
       0.2287246 0.33036557 0.081279114 -0.039598264
000290 32 51 d8 bd a8 ec 8a 3d 7a 2a 38 3e 5b 18 13 3e
       -0.10562362 0.0678342 0.17984954 0.1436476
0002a0 f3 7f 60 3d fe 67 5b 3e c8 24 e9 3c c8 fb 5f 3d
       0.054809522 0.21426389 0.028459921 0.054683477
0002b0 c9 92 6c 3d e5 6f 04 be d1 f4 a8 bc 93 ae f3 3d
       0.057757173 -0.1293331 -0.02062455 0.11898532
0002c0 58 29 83 3e ca 23 54 be f8 7a 8b 3c 56 20 08 3f
       0.2561748 -0.20716777 0.01702641 0.5317434
0002d0 a9 81 f3 3c 32 21 c2 3d 96 52 3b 3e 99 04 7f bd
       0.029724913 0.09478988 0.18293223 -0.062260244
0002e0 21 10 5e be d5 dd 11 3e 40 5b 21 3c 5c 2b 2d 3d
       -0.2168584 0.14244778 0.009848416 0.04227768
0002f0 be 4d 8e bd 4e 81 4b be fe 17 b4 3e d3 63 98 3e
       -0.06948422 -0.19873545 0.35174555 0.2976366
000300 0d 3e 2a 3d fa 78 1d 3e 66 27 88 3d 7b e2 3b be
       0.041563082 0.1537818 0.0664814 -0.18348114
000310 28 fe 27 3c aa 33 29 be 13 46 84 3d 09 81 4e bd
       0.010253467 -0.16523615 0.06458678 -0.050416026
000320 3a f3 cc 3c 17 f4 59 3c 61 2e 6f bd 44 8e 1c be
       0.025018323 0.013302824 -0.05839384 -0.15288645
000330 ac b8 00 bc f7 ea bf bc 5f 6c 37 3d 77 de 4c bd
       -0.007856529 -0.02342747 0.044781085 -0.050016847
000340 47 74 5a be 22 5e 71 3d b7 34 cb 3d 63 63 9a be
       -0.21333419 0.058927663 0.09922164 -0.3015395
000350 dd 70 95 bd 1d 30 f5 3c b9 15 49 3b 86 9f 73 be
       -0.072969176 0.029930169 0.0030683114 -0.23791322
000360 fd 44 21 be 60 b7 52 be d2 94 23 be 63 73 64 be
       -0.15748973 -0.20577765 -0.15974739 -0.22309642
000370 0d 22 4a be 5a 39 8a be 35 ea bd 3d fb cb 59 be
       -0.19739552 -0.2699688 0.09273187 -0.21269219
000380 93 44 1e be 04 be 9c bd 30 91 60 be 7f 2f f9 3d
       -0.15455846 -0.0765343 -0.21930385 0.12167262
000390 ec a3 48 3d 3b 93 b7 be 4a 73 5c 3d d4 4c 72 bd
       0.048984453 -0.35854515 0.053820886 -0.0591553
0003a0 c2 3f 1d be a0 d7 ff bc f5 36 ce bd 6e 9c 9e bd
       -0.15356353 -0.031230748 -0.10069076 -0.0774468
0003b0 2c 55 93 be f6 5e 55 be c0 19 80 3d 92 c9 9b bd
       -0.28775918 -0.20837006 0.062549114 -0.07606806
0003c0 33 82 0d be 46 2f 02 bb 51 40 07 bb cd ce 39 bd
       -0.13819198 -0.0019864603 -0.00206377 -0.045363236
0003d0 c5 30 6a bd 3c e0 db bd 5a d0 04 3d 39 65 50 bc
       -0.057175416 -0.10736129 0.032425262 -0.012719446
0003e0 74 8f 00 be 8a 40 67 bd d2 ab dc 3d 9d d1 25 be
       -0.12554723 -0.056458034 0.107749596 -0.16193242
0003f0 36 06 4e bd a8 e5 9f 3e a4 97 bf 3d f5 75 05 be
       -0.050298892 0.312299 0.09355095 -0.13033278

update_module.0.bias f4 [32]
000000 bd ea 41 bc 2e 25 7d be 3e fb 0a 3c 0f 50 0e 3c
       -0.011835751 -0.24721214 0.008482752 0.00868608
000010 ee f8 18 3d 91 1a 33 3d 2d 18 b6 3c 19 ad af 3b
       0.037346773 0.043726508 0.022228325 0.005361211
000020 22 2a 92 3d 3b 77 26 3c 93 4d 18 be bf 8f dd bb
       0.071369424 0.010160263 -0.14873342 -0.0067615206
000030 1f 6b 16 be 26 34 7c be b4 fd 2f bd d9 17 3d ba
       -0.14689301 -0.24629268 -0.04296656 -0.00072133314
000040 d8 a3 67 be 6f c3 2b 3d 7c 6e c8 3c 66 39 8a be
       -0.22621095 0.041934427 0.024466746 -0.26996917
000050 3a 82 25 bc c6 f5 01 3d b7 9c c8 3b d3 90 cf 3d
       -0.010101849 0.03172853 0.0061221975 0.10135045
000060 8d c7 2e 3d 8c 86 59 be c7 dd 3b 3d 9b 1a 15 bc
       0.042670775 -0.21242732 0.0458658 -0.0091005815
000070 5c a7 c9 3d f4 1d 2c be 06 b7 3c 3d e7 b9 4e 3d
       0.098463744 -0.16808301 0.046072982 0.05047026

update_module.2.weight f4 [16, 32, 1, 1]
000000 01 e8 8a 3d cd 4b aa bc 50 0f c8 3c b1 39 4e 3d
       0.067825325 -0.020788098 0.024421364 0.050347988
000010 1f f9 92 3d 30 18 81 3d f2 20 ac 3d 28 10 a7 3d
       0.07176422 0.063034415 0.08404721 0.081573784
000020 18 9b 9b 3d 27 79 b3 3d 99 4d 86 bc c6 b0 a6 bc
       0.07597941 0.08763342 -0.016394423 -0.020347964
000030 27 37 bb bd 91 11 8d bd 6f 81 97 3b 7a b6 76 3b
       -0.09141379 -0.06888116 0.004623584 0.0037645386
000040 84 73 ee bd 77 4d 3a bb bc d6 9c 3d 08 9c b7 bd
       -0.116431266 -0.002842752 0.07658145 -0.089653075
000050 19 24 b8 3d 37 6f a4 3a c8 1b b9 3d ed 07 2b bd
       0.0899126 0.0012545352 0.09038502 -0.041755605
000060 8c e3 f0 3d 58 17 b8 bd d4 73 f8 3d ad ed 1d 3d
       0.11762151 -0.089888275 0.121314675 0.038556743
000070 63 d9 fa 3c ba 38 02 bd 71 44 de 3d b0 b3 5c 3d
       0.030621236 -0.03179238 0.10852898 0.0538823
000080 31 10 8f 3d 58 be 61 bc f1 9c 08 3c 7a 1f 26 3d
       0.0698551 -0.013778292 0.008338199 0.040557362
000090 c6 8a 93 3d b8 88 67 3d 12 7e a1 3d be 4f b5 3d
       0.07204203 0.05652687 0.07885374 0.088531
0000a0 d8 2e 9c 3d 52 e8 ca 3d ef c4 53 bb a0 c0 cf bc
       0.07626122 0.09907593 -0.0032313426 -0.025360405
0000b0 ba af e9 bd 9e d8 03 be 17 f7 a3 b9 a9 9b 96 3c
       -0.1141047 -0.12875602 -0.0003127388 0.018384771
0000c0 cf d6 fc bd 60 90 10 ba 7e 53 dd 3d 5a 4d b4 bd
       -0.12345659 -0.00055146776 0.108069405 -0.08803816
0000d0 00 a0 c1 3d 3c 10 39 3b 53 d7 ce 3d f1 44 26 bd
       0.09454346 0.0028238436 0.100996636 -0.04059309
0000e0 80 37 d8 3d 74 bf f9 bd d7 78 04 3e 2e 50 3e 3d
       0.10557461 -0.1219472 0.12936722 0.046463184
0000f0 b9 a6 27 3d ad ce aa bc b7 68 b7 3d b3 92 86 3d
       0.040930483 -0.020850504 0.0895552 0.065709494
000100 35 87 8f 3d d7 4b 9b bc d6 ed c8 3b b6 a5 19 3d
       0.070082106 -0.018957062 0.006131868 0.03751155
000110 6f cc 8b 3d c2 0f 6d 3d 79 d4 a9 3d 16 4f af 3d
       0.06826102 0.057876356 0.08292479 0.08560006
000120 77 f7 9e 3d 87 7f d4 3d d5 13 36 b9 d7 fc d5 bc
       0.07762044 0.103758864 -0.0001736426 -0.02612154
000130 b1 6f eb bd 15 7d 08 be 10 80 0b 3a de c3 9b 3c
       -0.11495913 -0.13328965 0.0005321512 0.019014295
000140 f6 34 04 be cb 34 85 3a cb 90 eb 3d ec 6b b1 bd
       -0.12910828 0.0010162828 0.115022264 -0.086631626
000150 09 60 c4 3d c6 e7 28 3b 45 fd d6 3d 43 87 23 bd
       0.0958863 0.0025772913 0.10497526 -0.039923918
000160 fe ff d6 3d 58 af 01 be b4 20 08 3e 9e 61 43 3d
       0.104980454 -0.12664545 0.13293725 0.047700517
000170 1a 95 32 3d b4 68 a2 bc 2c 7c b0 3d a2 9f 8b 3d
       0.043599226 -0.019825317 0.08617434 0.06817557
000180 e2 a9 e0 3d 65 87 a1 bd 34 94 85 bc e6 9a 04 3e
       0.109699026 -0.078871526 -0.01630602 0.12949714
000190 67 81 bb 3d 0a dd 7c 3d 52 e9 b4 3d 58 88 85 3d
       0.09155541 0.061734237 0.08833565 0.06520146
0001a0 71 ac a8 3d 58 90 1d 3e 03 2f cf 3b ce 31 45 3c
       0.082360156 0.15387094 0.006322743 0.0120358
0001b0 14 3b d4 bd 21 5f ed bd 7e 92 2b 3c 47 75 dc 3b
       -0.10362831 -0.1159041 0.010471938 0.0067278477
0001c0 7f 4e f8 bc 61 35 05 bc 5f 0e e7 3d 68 f8 25 be
       -0.030310867 -0.008130402 0.11282038 -0.1620804
0001d0 a1 b3 b0 3d 05 d2 52 bb ee bb bb 3d c8 7c 0a bd
       0.086280115 -0.0032168638 0.09166704 -0.033810407
0001e0 83 29 c4 3d a1 c7 05 be ee 0e 0c 3e b6 be 0c 3e
       0.0957823 -0.13064434 0.1367757 0.13744625
0001f0 1b a5 77 3d 52 f0 e9 bc 51 d9 ac 3d dd 4b e5 3d
       0.06046019 -0.028556976 0.08439887 0.111961104
000200 95 22 97 3c 12 52 bd be dd 0d b2 3d 13 eb 4f 3e
       0.018449107 -0.36976677 0.086940505 0.20304517
000210 12 bb 37 bd 4d fc 24 bd c1 b6 67 3e 40 75 8b bd
       -0.04485614 -0.040279675 0.22628309 -0.06809473
000220 c7 1f b2 bd 36 73 13 3d 23 58 5f bd a0 75 be bd
       -0.08697467 0.035998546 -0.054527413 -0.09299779
000230 03 15 3c 3e a4 0c b2 bc 94 e6 89 3d 06 46 0d be
       0.1836739 -0.021734543 0.067334324 -0.13796243
000240 88 ca d9 bc 34 ed fa bc 84 7a 3a bd 83 8c 8a bd
       -0.026585832 -0.030630685 -0.045526996 -0.06765082
000250 db 4a ed bc 74 3b e2 3b 3d a4 d2 bd c7 60 d6 3d
       -0.028966358 0.00690406 -0.10285232 0.104676776
000260 ec 29 11 3d 84 51 d1 3d 54 62 56 bd de 75 7e bd
       0.03544037 0.10220626 -0.052339867 -0.062124126
000270 7f ab 48 bd 82 f7 11 be 9b e1 57 bd a6 cf 9b bd
       -0.048991676 -0.14254573 -0.05270539 -0.07607965
000280 db 5f 13 3e 25 81 9c bd 31 08 c6 3c 79 3a da 3d
       0.14392035 -0.0764182 0.024173828 0.10655684
000290 99 5c 99 bc 72 2e c1 bc 88 96 e8 3d 55 2b 5b bd
       -0.018720912 -0.023581717 0.113568366 -0.05350812
0002a0 9e 41 fc bc 5d 30 66 3c 6e 82 92 3d 53 c2 f5 bd
       -0.030793007 0.014049617 0.07153784 -0.11999955
0002b0 2c 71 53 3b 59 f3 b4 3d be 3f c9 3d 89 42 a5 3d
       0.00322635 0.088354774 0.09826611 0.08069331
0002c0 88 c5 de 3d d5 1a c5 3c 0a 6e 05 bd 6c 42 dc 3d
       0.1087752 0.024060646 -0.032575645 0.107548565
0002d0 75 04 f4 3d d0 a4 9e 3c a3 aa 59 bd 38 26 18 3e
       0.119149126 0.019365698 -0.053141247 0.1485833
0002e0 ee 1d 11 3d f4 43 88 3d e8 28 90 bd 3f 54 dc 3d
       0.035428934 0.06653586 -0.07039052 0.10758256
0002f0 30 ee 21 bc 83 3e 33 3d 15 1b 56 3c 49 f2 13 bd
       -0.0098834485 0.043760788 0.01306798 -0.036119733
000300 15 ef 5d 3e 08 ed a1 3d d7 4f b5 3c 76 58 1a be
       0.21673234 0.07906538 0.022132797 -0.15072808
000310 d5 06 37 3d bb ed 71 ba c2 85 4d be 1d 03 a2 3d
       0.04468425 -0.0009228845 -0.20070556 0.0791075
000320 72 f1 9d 3c 99 dd 62 bc e7 00 bf bc 10 b1 9a 3d
       0.01928017 -0.013846778 -0.02331586 0.07553303
000330 03 d5 f0 bd 66 06 a2 bd b1 72 39 bc c7 93 c9 3e
       -0.11759379 -0.07911377 -0.0113188485 0.39370558
000340 11 60 20 be b5 ca d8 bc 67 37 e2 3d a6 7d 9f bd
       -0.15661646 -0.026463846 0.110457234 -0.077876374
000350 ef b6 37 3e c2 e7 b3 bd ff f1 f0 bb 06 bb b1 bd
       0.17940877 -0.08784439 -0.007353067 -0.0867825
000360 15 48 b7 bd ca 77 19 be 9a d1 82 3d 21 7a 48 3e
       -0.089492954 -0.14987102 0.063876346 0.19577838
000370 3c e3 ca 3b 8c b6 f3 bd 44 11 1c bd 8c 53 16 bd
       0.006191639 -0.119000524 -0.038102403 -0.03670077
000380 fd 31 15 3e fd 2a 17 bc 7c 21 1e 3e ff 9b ef 3b
       0.1456985 -0.009226558 0.15442461 0.0073122974
000390 9c 1a a6 bb 09 be f1 3c 23 06 82 3d 97 99 16 3e
       -0.00506909 0.029509561 0.06348827 0.14707027
0003a0 d2 c4 4b bd 13 e0 f3 bd 13 49 40 be 9e 24 5c 3d
       -0.04974825 -0.11907973 -0.18777876 0.05374586
0003b0 a0 a5 2e 3d e4 aa db bd 1d c4 24 3d c0 7f 88 3e
       0.04263842 -0.10725954 0.04022609 0.26659966
0003c0 1b 33 91 3d 22 ff 14 be 2b f7 a9 3d 71 ff 1a bc
       0.07089826 -0.1455045 0.08299097 -0.009460316
0003d0 5e 6a e8 3b db 2d ea 3d 52 54 5b 3e 43 90 bb bc
       0.007092758 0.114345275 0.21418884 -0.022895938
0003e0 bb af 5e bd 80 ac f7 bc 14 9c 9a 3c b2 57 cb bd
       -0.05436681 -0.030233622 0.018873252 -0.09928836
0003f0 7c 86 43 bd fd d9 e0 3d 22 6b a8 bd bd 3a b7 bb
       -0.047735676 0.10979078 -0.08223559 -0.005591719
