final_models/Adam/NonSamplePools/15-RABBIT-FACE-train_05-05-2022_14-39-24/models/model_15500.pt (torch, 9699 bytes, 3 tensors)

update_module.0.weight f4 [32, 48, 1, 1]
000000 fe 79 93 3d 06 1a 86 bd e0 53 f7 3c e5 20 76 bd
       0.072010025 -0.06547932 0.030191362 -0.060089964
000010 b5 0b 91 bc 12 25 ca bb a0 32 e1 bd 0a aa 0c 3e
       -0.017705778 -0.00616897 -0.10995984 0.1373674
000020 d3 ba 56 bc ee 6c d4 bd 1c 04 08 3e 1d 7b 4d be
       -0.013106066 -0.10372339 0.13282818 -0.20066495
000030 39 d9 eb bd ee 9a 83 3e 24 7e 11 bf 5e f1 6a be
       -0.11516041 0.2570414 -0.568331 -0.22943637
000040 b0 69 08 3e 19 e1 af be 9e 47 a9 be 52 db b7 3e
       0.13321567 -0.34351423 -0.33062452 0.35909516
000050 65 a5 31 bf da 97 68 bd 42 a5 25 3e 1d 5d 6d be
       -0.69393 -0.056785442 0.16176322 -0.23180051
000060 31 e7 df bd 75 ae 4f bc e6 0d 7e be 30 00 5a be
       -0.10932768 -0.012675871 -0.2480999 -0.21289134
000070 c0 57 10 3e 1d 46 98 be 49 61 3e be ae dd 64 3e
       0.14095974 -0.29740992 -0.18591799 0.22350189
000080 2c d8 1a bf d7 e9 a0 be d0 27 bf 3e 07 6a 1e bf
       -0.604861 -0.31428406 0.37335062 -0.61880535
000090 db 72 5d bb 16 41 52 3e 3b 1c d5 be 78 2a bd be
       -0.0033790383 0.20532641 -0.416231 -0.36946464
0000a0 aa a0 81 3d 5c eb fc be 70 b2 74 bd 11 cd 42 3d
       0.06329472 -0.49398315 -0.059740484 0.047558848
0000b0 ca ea fd bd 2e 73 d5 bd 0e 19 63 3e d3 fa 94 be
       -0.12398298 -0.104223594 0.22177526 -0.29097614
0000c0 e9 3c 0f 3e e2 ce 1a be 33 cd 11 be d9 cd 77 3b
       0.13988079 -0.15117982 -0.14238434 0.0037811904
0000d0 5c 91 cb bd 19 db 52 be 0f 79 a7 3d c5 c0 34 be
       -0.099398345 -0.20591392 0.08177387 -0.1765166
0000e0 96 5a 27 be 2d 02 ec bd df f5 a2 3d 8d 1c 82 bd
       -0.1634315 -0.115238525 0.079570524 -0.06353102
0000f0 22 38 6f 3e d5 db fe 3e e2 8b 7f 3e 4c 50 f6 3c
       0.23361257 0.49777094 0.24955705 0.030067585
000100 e3 0f 62 3e d8 33 9c 3e 08 47 a7 39 4c 72 12 3e
       0.22076373 0.30508304 0.00031905645 0.14301413
000110 17 b0 68 3e f5 9a 54 3d 59 30 98 3d 73 f2 15 bd
       0.22723423 0.05190559 0.074310966 -0.03660817
000120 76 01 38 3d b9 54 91 be ee 0b 58 be ce 41 ad be
       0.04492327 -0.2838495 -0.21098301 -0.33839267
000130 36 ff b6 bd 9b ae 94 be be 74 7d bd d4 d9 30 3d
       -0.089353964 -0.29039463 -0.061878912 0.043176487
000140 96 37 8f 3e 0f c5 f0 3e 91 f2 27 3e 1b 06 f8 3e
       0.27972096 0.47025344 0.16401125 0.48442158
000150 2c c9 18 be 7a 74 cb 3e aa f6 4b 3e 13 6e 92 be
       -0.14920491 0.39737302 0.19918314 -0.28599605
000160 55 21 36 bd b7 3f f1 3e db 1c 91 bc c3 46 bd be
       -0.04446538 0.47118923 -0.017713955 -0.3696805
000170 de 10 cd be 2b 53 73 bc ae 00 68 3b f1 a1 2c be
       -0.4005193 -0.014851372 0.0035400796 -0.1685865
000180 c1 d3 ad be 66 24 ca bd 7f 7d 93 bb 3a 93 c3 be
       -0.33950618 -0.09870224 -0.0045010443 -0.38198262
000190 0c 45 9e 3d e1 d3 6a bd 1f 38 62 be f3 01 c8 bb
       0.077280134 -0.05733097 -0.22091721 -0.006103748
0001a0 ef cf ba bc 00 5a be 3e 39 45 d4 bd 74 51 0f 3e
       -0.022804229 0.3717804 -0.10364766 0.13995916
0001b0 9d b4 00 3e 08 05 17 be 6b d7 94 3d 0a 59 88 be
       0.12568898 -0.14748013 0.0726765 -0.2663043
0001c0 30 cf c2 bd 5c 89 90 be 7d 4f ca 3d ba 3c 20 3e
       -0.09512174 -0.28229797 0.098784424 0.15648165
0001d0 8e 77 44 3e a5 10 e6 3c 1b 40 33 3d 46 a6 bf 3e
       0.19186231 0.028084109 0.043762308 0.37431544
0001e0 91 bb 63 3e 62 31 36 3d 5f d9 a5 3e ca ec a0 be
       0.2223952 0.04448069 0.32392403 -0.31430656
0001f0 2d bf 02 bd 94 51 f5 3c 1a ca c8 3d 09 f8 3f be
       -0.0319206 0.029946126 0.09804173 -0.18746962
000200 ff 51 6f 3e 77 be 5b 3e bc 76 6a 3e 32 97 2b 3e
       0.23371123 0.21459375 0.22896856 0.16756895
000210 2d 8b 2a 3f 70 76 d1 3d 36 1b a6 bd 66 bf 97 3d
       0.66618615 0.10227668 -0.08110659 0.07409553
000220 1a f9 80 bc 72 fd df bd 03 54 66 3d c0 60 cb be
       -0.01574378 -0.10937013 0.056232464 -0.39722252
000230 9b 14 ae bc 4e de 76 3e f4 ec 87 bc 5f 4f 9a 3d
       -0.02125006 0.2410824 -0.01659248 0.0753467
000240 9f bb 2a bc 7a ea 4a 3e c1 37 5b 3e 10 19 e5 3a
       -0.010420709 0.19816008 0.21407987 0.0017478783
000250 03 45 a6 bd 4b bc a7 bd 1b d4 a6 3c ca 38 23 3d
       -0.08118632 -0.08190211 0.020364812 0.03984908
000260 12 8c f7 3d 40 92 8c be 38 d0 3e 3e c0 45 ca 3d
       0.12087263 -0.2745533 0.18634117 0.09876585
000270 d6 6a 89 be ea d8 d1 3d b5 31 02 3f 07 fa 89 be
       -0.26839322 0.10246451 0.50857097 -0.26948568
000280 84 04 36 3d 69 7b 3d 3e 44 28 80 bc a0 49 18 3c
       0.0444379 0.18504108 -0.0156442 0.009294897
000290 9f ff ad bd 3b a1 b6 bd 76 81 9b 3d 5e 30 67 3e
       -0.084960215 -0.08917471 0.07593052 0.22577044
0002a0 75 1c 05 3d 2b 42 06 3f d2 71 20 3e f5 64 8b bb
       0.032497842 0.52444714 0.15668419 -0.0042539784
0002b0 51 0d 65 bd 5b 0c d4 3c 9a ff 1b bc e5 dd a0 3d
       -0.055920903 0.025884798 -0.009521389 0.07854823
0002c0 41 cb 02 3f 6c 09 90 be 75 6b 19 3e 05 7e 18 3f
       0.5109139 -0.28132188 0.14982398 0.5956729
0002d0 8f 0c 58 be 5b 9f 85 3e 22 5d 4e 3e a7 2d 32 3c
       -0.2109854 0.2609814 0.20152715 0.010875142
0002e0 08 18 b7 be e8 d7 0a 3f 36 ba 54 be 81 ba 05 be
       -0.35760522 0.54235697 -0.20774159 -0.13059427
0002f0 5c f2 9c 3d 42 25 c1 be e0 9b c8 3e 87 52 ea 3e
       0.07663414 -0.37723738 0.39181423 0.45766088
000300 1d 31 b6 ba b5 74 49 3e c0 b7 e8 3b 08 59 4a be
       -0.0013900135 0.19673426 0.007101983 -0.19760525
000310 98 eb 1a 3d a6 29 11 be 3f f0 93 3d a2 d1 b8 bc
       0.037822336 -0.14176044 0.07223558 -0.022560898
000320 4b bf 20 3c c9 07 40 bd 8e a0 2c bc c2 03 6b be
       0.009811233 -0.046882425 -0.010536326 -0.22950652
000330 d6 16 b1 bc 96 c3 31 be 80 3a cd 3c 19 e2 99 bd
       -0.021617334 -0.17359766 0.025052309 -0.07513828
000340 64 d8 3a 3d 8c bb e6 3d 8f cc 28 3e 62 6d 9e be
       0.045616522 0.112662405 0.16484283 -0.30942827
000350 4d f3 8e 3c 1c ed fb bd 1c bd 10 be b9 c8 15 be
       0.01745 -0.123010844 -0.1413464 -0.14627351
000360 99 e6 0f bf 81 d5 d1 bd 2f 0d df be de 5a a1 be
       -0.5621124 -0.10245801 -0.43564746 -0.3151464
000370 6e 02 4c be 6b 60 5f be 3b 14 8f 3d b5 74 b6 be
       -0.19922802 -0.21814124 0.069862805 -0.35635915
000380 12 5c 90 bd e0 3a d8 3d 66 33 49 be 08 80 e2 3b
       -0.07048811 0.105581045 -0.19648513 0.006912235
000390 8c cf 30 be 5d 54 20 be 6d 9d a8 3e 80 59 e2 bd
       -0.17266673 -0.15657182 0.32932606 -0.11052227
0003a0 5b 3e 00 bf 5f 3d f7 bc 43 7b 72 be 0a b2 a5 bd
       -0.50095147 -0.030180631 -0.23679833 -0.08090599
0003b0 54 32 a4 be 61 3a 43 be 56 08 58 bd 51 9e 9d be
       -0.32069647 -0.19065239 -0.052742325 -0.30784848
0003c0 d5 ab 65 be 34 0d 69 3d 9b f1 1e 3e f4 3f d5 3c
       -0.2242883 0.056897357 0.15521853 0.026031472
0003d0 d1 e8 d7 bc aa dd 4d 3d 22 51 16 3e 31 b6 27 3d
       -0.026356133 0.050260223 0.14679387 0.040945236
0003e0 72 8a 6f 3c d4 0e 2e be 53 3a b2 3c d0 21 ad 3d
       0.01462041 -0.16997844 0.021756327 0.08453715
0003f0 68 0f e9 3d 0c 5d f9 bc d8 81 c5 bd ea 36 74 be
       0.11379892 -0.030439876 -0.09643906 -0.23849073

update_module.0.bias f4 [32]
000000 9f 7c 86 bd 70 6e 53 be b9 50 06 3c 61 f4 ab 3b
       -0.06566738 -0.20647597 0.008197957 0.005247638
000010 f7 23 99 ba be ae d7 3c 07 d9 f9 bb 2b 17 92 3b
       -0.0011683692 0.02632844 -0.0076247486 0.0044583282
000020 11 80 8a 3c ef 8a 92 bd f0 69 62 be f6 8f 1e 3c
       0.01690677 -0.07155406 -0.22110724 0.009677878
000030 90 56 6f be 5c 28 23 bf 49 dd 0f bd 83 ac 2a bd
       -0.23372865 -0.6373346 -0.035123143 -0.041668426
000040 32 1d bc be 6b ac b4 3c 20 dd fa 39 50 e1 4c bf
       -0.36741024 0.022054872 0.00047848467 -0.800313
000050 ec b0 c0 bc 2f bf 3a 3c 90 03 b0 bc ae 70 1b 3c
       -0.023521863 0.011398121 -0.021486074 0.009487314
000060 43 4c a9 ba 27 fc 72 be 7b f7 e8 3c 29 cc 8e bb
       -0.0012916405 -0.23729001 0.02843832 -0.004357834
000070 bb b6 e7 3c 2f 2d 98 be 49 48 dd bc 74 54 60 bd
       0.028285375 -0.29721972 -0.027012007 -0.05476804

update_module.2.weight f4 [16, 32, 1, 1]
000000 90 f7 da bd ab fe e4 bd d7 6d 07 3e 61 a0 94 3d
       -0.1069175 -0.111813866 0.13225494 0.07257152
000010 80 58 1a 3e d9 51 1a 3e f2 07 4a 3e f1 f5 16 bb
       0.15072823 0.15070285 0.19729593 -0.0023034776
000020 ad dd 37 3e c4 2b ab 3e 79 80 c3 bb e1 33 55 3d
       0.17955656 0.33431828 -0.005966243 0.05205143
000030 14 c5 58 be 62 c3 87 be a8 a1 c7 bc a6 fd 2c 3c
       -0.2116893 -0.26516253 -0.024369076 0.010558521
000040 18 c8 71 be 7f db 54 bc e1 99 8e 3e 0a 74 b4 be
       -0.23611486 -0.012991785 0.27851775 -0.3524478
000050 f1 69 36 3c e3 51 3c bc ca 08 02 3e 87 cd 13 be
       0.011133657 -0.011494133 0.12698665 -0.14433871
000060 f3 27 65 3e 5d b3 51 be c9 b6 49 3e cf dc 0f bb
       0.2237852 -0.20478578 0.19698633 -0.002195168
000070 42 13 c6 3d 14 9d 21 be ed 58 53 3e 3c ea 87 3e
       0.09671642 -0.15782577 0.20639391 0.26545894
000080 c1 e8 99 bd 1e d7 05 be 1e ce 05 3e e7 8e 96 3d
       -0.075150974 -0.13070342 0.13066909 0.07351475
000090 5d ed 02 3e 13 7f 0a 3e 31 98 5c 3e ad 95 f9 bb
       0.1278586 0.13525037 0.21542431 -0.0076167197
0000a0 44 3f 5a 3e 7a e0 b8 3e 33 91 d6 3c dd 62 77 3d
       0.21313196 0.36108762 0.026192283 0.060397018
0000b0 96 26 6a be 0b ea e4 be 1f 3a 44 bd 68 09 79 3c
       -0.22866282 -0.4470981 -0.04790699 0.0151999965
0000c0 c4 c6 83 be af 38 b6 39 56 93 93 3e 40 fa c9 be
       -0.25737584 0.00034755978 0.28823346 -0.39448738
0000d0 09 0c da bb 26 40 77 bc a2 9b e6 3d 02 50 16 be
       -0.0066542667 -0.015090978 0.11260153 -0.14678958
0000e0 6c f6 63 3e 41 27 5e be 14 08 51 3e 08 43 3f bc
       0.22261971 -0.21694662 0.20413238 -0.011673696
0000f0 0c d7 eb 3d d6 82 f6 bd 71 7a 4d 3e 45 44 99 3e
       0.11515626 -0.12036674 0.20066239 0.29934898
000100 55 54 96 bd 0a ea 08 be 3e 61 05 3e 7e 1f a3 3d
       -0.07340304 -0.13370529 0.13025376 0.07964991
000110 59 d4 d8 3d 70 f6 08 3e 21 3a 61 3e 28 a4 fa bb
       0.10587377 0.13375258 0.2199483 -0.0076489635
000120 c3 84 65 3e 5d 9c bb 3e 58 d7 12 3d 39 b1 7e 3d
       0.22413926 0.36642733 0.0358499 0.06218073
000130 35 06 72 be 2a 91 f2 be ce 4a 58 bd de 3e 58 3c
       -0.2363518 -0.47376376 -0.052805714 0.013198582
000140 25 30 87 be 50 9e cd 3b bb 3e 96 3e f6 2e d4 be
       -0.2640392 0.006274976 0.29344735 -0.41442078
000150 4b 31 7a bc 3c 9b 87 bc 7b 7d e4 3d cc f9 19 be
       -0.015270541 -0.016553514 0.11156746 -0.15036696
000160 e5 d0 62 3e 53 b7 61 be e0 eb 53 3e 22 40 00 bc
       0.2215 -0.22042589 0.20695448 -0.00782779
000170 e5 80 f5 3d 6d ff f9 bd c1 40 51 3e 1b 65 9e 3e
       0.11987475 -0.12206922 0.20434858 0.30936512
000180 b9 3f 0e be 56 ce 6c be ae 0a 3f 3d e9 74 9e 3e
       -0.13891496 -0.23125586 0.046641044 0.3094857
000190 82 dd 19 3e b3 9a 3b 3e d0 74 68 3e d4 66 74 bb
       0.15025905 0.18320732 0.2270081 -0.0037292736
0001a0 ae da 71 3e 4c fd ef 3e 55 bf 8a 3d 92 4a 52 3e
       0.23618576 0.46872938 0.06774775 0.20536259
0001b0 88 cd 81 be 1b 02 00 bf 32 11 b2 bc 21 28 c2 bb
       -0.2535212 -0.5000321 -0.021736715 -0.005925194
0001c0 6c 54 b0 bc 60 a0 70 bc 18 7b b3 3e 69 a1 16 bf
       -0.02152463 -0.014686674 0.3505485 -0.5884004
0001d0 f2 fd d6 bd fb b6 9a 3b 41 47 ee 3d 2d af 36 be
       -0.10497655 0.00472152 0.11634684 -0.17840262
0001e0 49 4d 22 3e 5c a9 9b be 7b 47 4a 3e 36 fe f2 3d
       0.15849794 -0.30402648 0.1975383 0.11864893
0001f0 97 db 18 3e d9 a7 2e be 66 09 6d 3e cd 75 d9 3e
       0.14927517 -0.17056216 0.23148116 0.42472687
000200 b5 0f 99 bd 7a 1f ee be 75 88 f5 3d b5 24 68 3e
       -0.07473699 -0.4650839 0.11988918 0.22670253
000210 06 5d 09 3d 08 5e a4 bd b8 fa d0 3e 11 6f a2 bd
       0.03353598 -0.080257475 0.40816283 -0.079313405
000220 34 40 9b bd 29 39 aa 3d a9 e3 2d 3e 36 e0 0e bd
       -0.07580605 0.08311684 0.16981377 -0.034881793
000230 25 14 3f 3d 98 c3 c5 be 5a f3 61 3e 66 49 3a be
       0.04665007 -0.3862579 0.22065488 -0.18192062
000240 02 c7 0a bd 08 2a 68 bc 50 7f 4d bd 18 4a 83 3d
       -0.033881195 -0.014170177 -0.050170243 0.06410617
000250 e2 3e 9f be ab 24 26 3e b0 3f 89 bc 25 b5 9e 3d
       -0.31102663 0.16224925 -0.016754001 0.07749394
000260 0e e8 43 be 6f 88 98 3d d0 96 11 bd a0 a1 15 be
       -0.1913149 0.07447898 -0.035544217 -0.14612436
000270 0c 69 3e 3d 91 ea 7a be 74 e8 94 bd 62 23 13 bd
       0.0464869 -0.24503542 -0.072708994 -0.035922416
000280 33 25 58 3e 66 0f d1 bd 7e 04 67 3e e0 55 c4 3e
       0.2110794 -0.10208015 0.22560307 0.38346767
000290 2d e7 30 be fd 99 a5 bc 8e 32 07 3e 4c 9a 6c be
       -0.17275687 -0.020215029 0.13202879 -0.23105735
0002a0 a1 91 64 3c 21 98 87 bd f7 ad 62 3e 8b 64 6d be
       0.013950736 -0.06620813 0.22136675 -0.23182885
0002b0 81 b0 98 3c 75 bb 9f be c7 c1 a3 3e f9 5f 38 bd
       0.018638851 -0.31197706 0.31983778 -0.0450134
0002c0 31 9d 96 3e 2b 54 71 bc 1f 24 3f be 9a 33 92 3e
       0.29416803 -0.01472954 -0.18666123 0.28554994
0002d0 00 d8 fb 3e 85 20 7a bd 4d c9 23 3c 1e 74 3f 3e
       0.49188232 -0.06106617 0.009996724 0.18696639
0002e0 3d 2c fa bc b4 1a 3f b9 32 5f 19 be 2f 4c 16 3f
       -0.030538673 -0.00018225127 -0.1497772 0.58709997
0002f0 88 98 9d bd 17 5b 81 3e 7d 15 0d bd fb 1b a6 bd
       -0.07695109 0.2526481 -0.03444432 -0.081108056
000300 e7 12 cf 3e 0a f3 da 3d 43 a6 4d 3e ad 95 8b bd
       0.4044411 0.10690887 0.20082955 -0.06815658
000310 cd 9c 27 bd 46 26 f0 3b e3 2a 57 be 6b 7d 34 3e
       -0.04092102 0.0073287813 -0.21012454 0.17625968
000320 25 29 7f 3d ca b5 85 bd 8b 28 19 be a6 b5 0f 3d
       0.062295098 -0.06528814 -0.14956872 0.035085343
000330 fb 6f 1d be c2 8c 33 3d 79 bb 77 be 0e aa b4 3e
       -0.15374748 0.04383541 -0.24192609 0.3528599
000340 17 1a ee bd 38 4d 13 3e 9b b7 27 bd d2 12 91 bc
       -0.1162607 0.14384925 -0.040946584 -0.01770917
000350 47 dd 9f 3e 45 c0 13 be 7b 91 58 be ed 71 46 be
       0.3122351 -0.14428814 -0.21149246 -0.19379397
000360 9f ca 21 bd f6 6d 6b be ee 50 11 3d c6 cc 0f 3e
       -0.039499875 -0.22991166 0.03547757 0.14042959
000370 84 55 91 3d 69 9d 05 3e c0 51 16 bd 43 2c 1d bd
       0.07096389 0.13048328 -0.036699057 -0.03837229
000380 da 3c 95 3e db 78 3c 3c 0f c8 ff bb db 6e ff 3d
       0.2914799 0.011503424 -0.0078058313 0.12472316
000390 15 0d fc 3d c5 be 28 be 23 b6 0f 3d d6 bb 0c 3e
       0.12307183 -0.16479023 0.03508581 0.13743529
0003a0 0b c9 1a be a4 33 ae 3b f4 1d 14 be df 7a f9 3d
       -0.15115754 0.0053162146 -0.14464551 0.12181639
0003b0 c3 3b 53 3e 05 d9 5f be d4 e0 fe 3d 60 b3 3e 3f
       0.20628266 -0.2186013 0.12445226 0.74492455
0003c0 83 5f 90 3e ad 6e 80 be 31 fa 83 bd 42 f5 d3 be
       0.2819787 -0.2508444 -0.064442046 -0.41398054
0003d0 8b 6f 09 be bc b4 1e 3e 37 48 7e 3e 03 81 51 bc
       -0.13421457 0.15498632 0.24832235 -0.012787106
0003e0 93 fd d2 bd cb 60 d7 3d 98 50 32 3d 67 48 07 3c
       -0.10302272 0.10516509 0.04353389 0.008257008
0003f0 07 53 82 bd e2 73 8f 3e b8 90 54 bd 68 4c d8 3d
       -0.063634925 0.280181 -0.051895827 0.10561448
