automata_ex/logs/withPool/9-RABBIT-FACE-train_05-05-2022_11-43-14/models/model_17500.pt (torch, 9699 bytes, 3 tensors)

update_module.0.weight f4 [32, 48, 1, 1]
00000000: 2719 95bd 775a 0f3e f170 15be d938 c9bd
00000010: 0bd7 773e 7603 36be d366 16be 2caf 893e
00000020: 6294 fdbc 5b91 6bbd b0df bf3e f7fc 3bbe
00000030: af24 37bd 87d9 b2bd ca7f 4f3e 1200 c9bc
00000040: 6d2f 20bc 76f9 ae3d d13f a9be 2346 99bd
00000050: 2f97 273e 01ce aa3d 66a8 28bd 56dd 833e
00000060: 75fe 0fbe f423 ddbd 3e37 473e 80e3 0f3e
00000070: 7ad1 c63d bcd7 393e b809 563e 4de8 30be
00000080: 4015 1a3d 5f40 953d 06a9 093e 7015 0e3f
00000090: 67c0 c6bc 1c1d f0bd 47b2 163e 2ef7 07bf
000000a0: 109a 5cb9 3e2b a73d cdc6 afbe bb69 453e
000000b0: acff 8ebe 65d2 7bbd 955d ad3e d30f 7a3e
000000c0: 664a 99be 1e6f d83d 5279 c3bd ac4c 74be
000000d0: 7b68 fcbd dc9f dfbd 0a66 46be 14e4 1ebe
000000e0: 4220 6a3c 15f0 48be 1026 f7bc ae82 0e3e
000000f0: 0178 82be ea93 1abe 20d8 1abd 5205 a73b
00000100: e38b 82be e6ba 903c fdfa 9a3d e4d6 b43c
00000110: 26db 823e e580 933e 1ef6 a03e a7e7 2e3d
00000120: cda9 1dbe 5240 95be 6310 5ebd c5ae 243e
00000130: dca9 edbd 7aa2 98be dfca c53e 5b5f 1ebe
00000140: d151 82be 2349 3bbd 64f0 773d b152 a9be
00000150: bcce 7bbe 3a91 0dbe 5669 48be 5a3e 95be
00000160: 03f2 7bbe e7d4 363e 93de 26be d76c 433d
00000170: 2752 c1bc c4d6 1f3e add6 f7bd 2a87 bb3d
00000180: 3711 d0be 21b1 243e d373 743c b4c7 9cbe
00000190: 385a 74bc 00b2 903d c960 52be c391 a6bd
000001a0: c968 05be 1945 a6be a4f5 5dbe 14f9 10be
000001b0: 9fa3 05bd 2e88 7bbe 3802 7ebc fb79 ab3e
000001c0: 9c94 bf3c 6687 0d3e b1af 8fbe d40a 15bc
000001d0: 7f16 43be dfdb 143e eaea 86bc 6e03 ac3e
000001e0: 117a 79be 8184 3d3e 9c22 74bd 765d 4c3e
000001f0: d486 40be 70f4 1d3e 2fe7 8a3e 5bd5 543e
00000200: f9fc b5bd ad3e 39bd f915 6ebd 891e dbbd
00000210: 6826 58be a742 abbd 4cf9 8d3d 89db 99be
00000220: ecb4 8a3d 3093 61bd 6a82 80bd 7e3e 193e
00000230: 0a20 a53d beea bd3e b62e c0bd aad7 6f3e
00000240: e350 1ebd ff99 01bd e877 963d 661f 51be
00000250: 5fdc a9bd 4b3f 303e ec21 3ebd 930d 07be
00000260: 6b21 c33d 4f40 f1bd dae5 fa3d bd02 d1be
00000270: b3c9 7dbe 925f 6cbe b13c 1fbe bce3 c4bd
00000280: 635b b9bb 9baa ffbe 1d62 1c3c 55d0 67be
00000290: 2075 72be 170d 1fbb 6f57 22be 6626 fcbe
000002a0: ad63 26be d511 38be 8301 37be 8210 80be
000002b0: f6d2 2d3e ee8c ecbe 04e0 283e f778 48bd
000002c0: baec 1abe a0eb 21be 3165 91bc 4c2e ebbe
000002d0: 6664 f4bd 3593 12be a0ff d8be 087f d4be
000002e0: cc67 c2bd 10cb 08bf 67d3 2cbe 6694 4e3e
000002f0: bfb8 debe a8bf 223d 3e7f 62bc 7f9f 14bf
00000300: b1c6 95be d5e0 22be 9eb1 9e3d 1bdc 63be
00000310: e257 31bd 821e 203e 26ba 56be 94a3 063c
00000320: a341 583e a7b1 45be f98d 57be 24c9 2a3e
00000330: 972f 0abf b277 ce3e dd62 9b3e 988b d2bd
00000340: 0cdc 97bc 3699 023f ff0a 013d ec13 763e
00000350: 52fd 893e 7e47 01bc 3a3b dbbd 0bc2 ea3e
00000360: dd3e 3abe e284 8fbc c470 573e 71e7 b2bd
00000370: 2d93 b3be 00d8 323d 7258 5dbe 6a34 84be
00000380: 35f7 0b3f c0d7 0c3e 193f ae3e e2b3 843e
00000390: beac 0abe 7681 cd3b 5d23 ff3e 335d 06be
000003a0: cf1b d73e ffeb d33e 6150 12be 3490 8bbe
000003b0: 9060 c03e 7f48 0d3e 2d67 ca3e cc73 8c3e
000003c0: 2e99 56be 8c09 45be 280d 2f3d d478 4ebc
000003d0: 07b9 55bd bb87 8e3e 98a5 88bd d72c 91bd
000003e0: 7110 a13d ba6f e2be 51f4 a73e 9129 053e
000003f0: 32fd 11be 5a7e ec3e 2d67 8cbe ca61 4abd
-0.07280188 0.13999353 -0.14593865 -0.09825296 0.24203126 -0.17774758 -0.14687662 0.26891458
-0.030954544 -0.05751167 0.37475348 -0.18358217 -0.04471272 -0.08732896 0.20263591 -0.024536166
-0.009776932 0.08543675 -0.330565 -0.07484081 0.16366266 0.083400734 -0.041176222 0.25754803
-0.14061911 -0.10797873 0.19454667 0.14051628 0.09707923 0.18148702 0.20902145 -0.17276116
0.03761792 0.072876684 0.13443384 0.5550146 -0.024261666 -0.11724302 0.14716445 -0.5311154
-0.00021038228 0.08162545 -0.3433136 0.19278614 -0.27929437 -0.061479945 0.3386046 0.24420099
-0.29939574 0.10568069 -0.095446244 -0.23857373 -0.123246156 -0.10919163 -0.19374862 -0.15516692
0.014289917 -0.19622834 -0.030169517 0.13917038 -0.2548218 -0.15095487 -0.03780377 0.00509707
-0.2549735 0.017667245 0.075674035 0.022075124 0.25557822 0.28809276 0.31437773 0.04270139
-0.15396805 -0.29150635 -0.054214846 0.16082294 -0.11604664 -0.2981146 0.3863134 -0.15466063
-0.25453046 -0.045724045 0.06053199 -0.330709 -0.24590582 -0.13824931 -0.19571432 -0.29149133
-0.24604039 0.17854653 -0.16295843 0.04771122 -0.023598744 0.1560927 -0.12101493 0.0915664
-0.40638134 0.16083194 0.014920193 -0.3062111 -0.014914088 0.07065201 -0.20544733 -0.081332706
-0.13028254 -0.32474592 -0.21675736 -0.14157516 -0.032626744 -0.24563667 -0.015503459 0.334915
0.023386292 0.13821182 -0.2806373 -0.00909682 -0.1905155 0.14536999 -0.016469438 0.33596367
-0.24362971 0.18507577 -0.05960332 0.19957528 -0.18801433 0.15425277 0.27129504 0.20784514
-0.08886141 -0.045225788 -0.058126424 -0.106991835 -0.21108401 -0.08362322 0.06932315 -0.30050305
0.06772789 -0.05507201 -0.062748745 0.14965245 0.080627516 0.37093157 -0.093839094 0.23422113
-0.03865136 -0.031641003 0.07347089 -0.20422134 -0.082939856 0.17211644 -0.04641907 -0.13188772
0.09527858 -0.11779844 0.12250872 -0.40822402 -0.24783973 -0.23083332 -0.15550496 -0.096137494
-0.005656646 -0.4993485 0.009544876 -0.22638066 -0.23677492 -0.0024269277 -0.15853666 -0.49248046
-0.16248961 -0.17975552 -0.1787167 -0.25012594 0.16975006 -0.4620127 0.16491705 -0.048943486
-0.15129367 -0.1581254 -0.017748447 -0.4593376 -0.11933212 -0.14313968 -0.42382526 -0.41503167
-0.09492454 -0.5343485 -0.16877519 0.20173797 -0.43500325 0.03973356 -0.013824282 -0.5805587
-0.29253152 -0.15906079 0.077487215 -0.22251932 -0.043296702 0.15636638 -0.20969447 0.008217711
0.21118788 -0.1930605 -0.21050252 0.16678292 -0.53978866 0.40325695 0.30348864 -0.10280532
-0.018537544 0.5101503 0.031504627 0.24031037 0.2695108 -0.00789058 -0.10704656 0.45851168
-0.18188043 -0.017519418 0.2103911 -0.0873555 -0.35073224 0.043663025 -0.2161577 -0.2582124
0.54674083 0.13754177 0.34032515 0.2591849 -0.13542458 0.0062715365 0.49831668 -0.1312149
0.42013404 0.41390988 -0.14288475 -0.27258456 0.3757367 0.13797186 0.39531842 0.27432096
-0.20956871 -0.19241923 0.042737156 -0.01260205 -0.05217841 0.2783793 -0.066722095 -0.07088631
0.07864464 -0.44225866 0.32803586 0.13004138 -0.14256743 0.4619015 -0.27422467 -0.049409665

update_module.0.bias f4 [32]
00000000: 9d7b a5bd a9c4 37bd c2e4 74bb 1d64 96be
00000010: 0366 bdbd c956 eabd 5480 3cbf fc39 e63a
00000020: ff1b a53c 1d68 4abe 44e7 90be 9be4 0cba
00000030: 311f 90bc 5467 b9bd f000 dfbe 6d02 a13c
00000040: 1730 d1bc b062 fdbb 3cf1 70bf d204 6dbe
00000050: edeb 12ba 49af a0bc b8fb 9ebc 1371 d5bd
00000060: 93ad b1be 2b27 fcbe 697b 86bd c4ea b9bd
00000070: 9f32 02be 8311 53be fecf a1bb 2944 0dbe
-0.08080218 -0.044865284 -0.0037367796 -0.29373255 -0.09247973 -0.11442334 -0.73633313 0.0017564888
0.020154951 -0.19766279 -0.28301442 -0.0005374641 -0.017592998 -0.090529114 -0.43555403 0.019654477
-0.025535626 -0.0077327117 -0.94118094 -0.2314637 -0.00056046137 -0.019614832 -0.019407138 -0.10421958
-0.3470274 -0.49248633 -0.06566507 -0.09077981 -0.12714623 -0.20612149 -0.0049381247 -0.13795532

update_module.2.weight f4 [16, 32, 1, 1]
00000000: f5bb 95bb 4b7f 473e 2259 a63d 99f8 343d
00000010: a2d9 5cbd 69a6 eb3b 7780 30be 8295 013e
00000020: 264a 563d 32b4 fc3d d37b c43d 3c59 06bd
00000030: 9dfc 283e 1fb9 fd3d 35f5 7bbd f6e4 953d
00000040: 43e7 903d 6f4c 063e d6f3 90be 2f0f 7cbd
00000050: 2871 35bd c304 2d3e 244c 8a3d 157d 223e
00000060: 2add 20bd 4c9e d4bd 8db1 2e3d 45f2 bc3d
00000070: fb16 7bbc 4ba7 f93d 44ef bc3d ca34 03bd
00000080: ab91 ef39 95bb 1d3e 5ead 693d 77e6 213d
00000090: 50fb 28bd a790 52bb bdf2 3fbe 4433 0f3e
000000a0: fa29 423d 9978 803d d3a7 a13d f75e 08bd
000000b0: 4fda 123e 9502 063e b635 96bd 87c3 9e3d
000000c0: 7ce4 ab3d 3d70 023e fe38 8ebe 1d48 1abd
000000d0: dc98 25bd 0747 233e 2336 9c3d 3741 0c3e
000000e0: 6f1c 3cbd 3fff 9dbd 586d ba3d 3a04 eb3d
000000f0: d1a4 70bc f4a5 033e 2721 db3d 058f 44bd
00000100: 7b5e b8bb b385 163e 7cf3 693d c0f9 0a3d
00000110: 87ba 45bd c3e7 62bc 4c87 41be f4f1 1a3e
00000120: d05a 4c3d 65a4 613d 177a a13d fef0 12bd
00000130: 62ac 103e d67d 0c3e 47a8 95bd e454 983d
00000140: 1851 aa3d 7678 fd3d cc04 8abe 44ab 17bd
00000150: c361 27bd 5f6b 233e 5538 9e3d 2e76 083e
00000160: c1d6 1fbd 1c5c 8dbd 6906 ba3d 7e5a f53d
00000170: 9499 01bd 5581 033e d0f3 e13d fcdc 26bd
00000180: 2223 cbba 6808 2b3e f8f8 b03d d290 8e3d
00000190: 385e 7cbd beff cf3d 010a 60be f2d6 433e
000001a0: 4179 783d b7ad d23d 0285 b53d 202f 33bd
000001b0: be6b 4b3e d50f 1b3e 680c acbd 70a0 b23d
000001c0: 79a9 1e3e 6414 c83d 0da9 a9be 58ef 59bd
000001d0: f24e 59bd 8c9d 3e3e e404 d03d a6c9 6dbd
000001e0: 4d58 953d 4b7a 06be 0073 dd3d 05e3 173d
000001f0: 8b1f 0fbd f061 7b3e 44ba 2a3e 519e 24bd
00000200: 37a4 95be 26dc 9cbd e1b7 6cbd 8ee3 083f
00000210: d3c3 ff3e e547 b73e fe79 4e3d dc7b 2bbf
00000220: 8400 78be b901 683d e9e5 7f3e 5e8d 3f3d
00000230: c115 edbd 5580 72be a17e 593d 1e76 ed3c
00000240: a749 f13d 1553 003e 1a1d 2b3d 1318 dabc
00000250: 9ab5 af3c aac7 45be f5bb 21be af8f 913e
00000260: 076e febd 2f19 063f 792c 683e bdb6 05bd
00000270: 9f33 e6bd e1af bebc 626f ccbd 1b7b 4ebd
00000280: e3cb 66bc 2d0c f23d 568b 2bbe 2414 9d3d
00000290: 1e47 193f 45fc 443e a597 c6be 8ece 80bd
000002a0: c453 2cbe 175e b5bd e41d 93be 632c 013d
000002b0: ec1e af3e 4cc9 833e 2dcd 88be 5cee 8fbd
000002c0: fb37 a1bc 5b7f 293d eaed 183d 3516 5abe
000002d0: be82 593e 1984 2a3e e778 993c 0c59 4dbd
000002e0: b5ec bdbd faed a7bd 8d64 19be 0c81 b03d
000002f0: b6ea a43e 232d c5bd 3158 ba3d 7d31 93bc
00000300: dd27 ad3e fbb7 29be 160c 8d3e 711d 08bf
00000310: c7e9 33be db85 7abe 72b4 c83c bbcd a9be
00000320: 1a80 dcbe b4d6 39bd aa5e df3d 5596 933e
00000330: 5494 45be 0fb7 2b3e 9972 b0ba 6965 86bd
00000340: 7ffb 753d 63aa 67be c75d 033e 9032 8dbd
00000350: fa05 333e f0c0 f03e 883c e03e 4479 923c
00000360: dfcc d73c 7336 3ebe a3af 323e 5519 d93d
00000370: dce0 633e 666e 7fbe 5ed9 613e 0a34 0a3d
00000380: d5cb 8bbd 325d a03d ba3d 77bd f114 853e
00000390: 5f87 b9be cbcf d2bc 5541 9fbd fb8d 36be
000003a0: 5435 60be 4ee6 75be 0e16 b6be 2fa4 32be
000003b0: 6194 bf3d e59b 9e3e 2a23 16be f1b1 53bd
000003c0: 5ce4 4c3e d31b 19be 5e3d 773e bc07 1f3e
000003d0: e9c5 d4bc 0d1b 793e 30e0 d83c 80f4 75bc
000003e0: f969 623e ea6e cabe 227f a8bd 2e27 7d3f
000003f0: 6d01 85bd 0435 3e3e 6557 893d 076f 81be
-0.0045695254 0.19482152 0.081224695 0.044182394 -0.05391849 0.0071914685 -0.17236505 0.12654689
0.052316807 0.12339057 0.0959393 -0.032799944 0.16502614 0.12388825 -0.061513145 0.073190615
0.0707536 0.13115095 -0.28311032 -0.061537918 -0.044297367 0.16896348 0.06752804 0.15868028
-0.03927342 -0.10381755 0.042649794 0.09225897 -0.015325303 0.12190112 0.09225324 -0.032032765
0.00045694163 0.15403588 0.0570501 0.03952643 -0.041255295 -0.0032129677 -0.18744941 0.139844
0.047403313 0.06273002 0.07893338 -0.03329369 0.1434109 0.13086922 -0.07334463 0.07752138
0.08393189 0.12738128 -0.27777857 -0.03766643 -0.04042898 0.15945064 0.07627513 0.13696752
-0.045925554 -0.077147 0.09102887 0.114754155 -0.014687733 0.12856275 0.10699683 -0.047987957
-0.0056264973 0.1469944 0.05711697 0.033929586 -0.04827359 -0.013849202 -0.18899268 0.1513136
0.049891293 0.05508842 0.07884615 -0.03587436 0.14128259 0.13719878 -0.07307487 0.074380666
0.08316249 0.12376492 -0.26956785 -0.037028566 -0.040864717 0.15958928 0.07725588 0.13326332
-0.039023165 -0.06902334 0.09083254 0.11980151 -0.031640604 0.12842305 0.11032832 -0.04073809
-0.0015498141 0.16702425 0.08641237 0.06961216 -0.06161329 0.10156201 -0.21878816 0.19124964
0.06066251 0.1028704 0.0886326 -0.043746114 0.19865319 0.15142758 -0.08400804 0.08722007
0.15494336 0.09769514 -0.33136788 -0.05320677 -0.053053804 0.18614787 0.10157183 -0.058053635
0.07292233 -0.13132589 0.1081295 0.037081737 -0.03494219 0.24549079 0.16672617 -0.040190045
-0.29226848 -0.076591775 -0.057792548 0.5347222 0.4995409 0.3579704 0.05040931 -0.6698587
-0.24218947 0.056642268 0.24990048 0.046765678 -0.11576415 -0.23681767 0.05309928 0.028986987
0.11781626 0.12531693 0.0417758 -0.026622808 0.021448899 -0.19314447 -0.15794356 0.28429934
-0.1242333 0.5238218 0.22673215 -0.032644976 -0.11240315 -0.023277225 -0.09982182 -0.05041037
-0.014086696 0.118187286 -0.16752371 0.07669857 0.5987414 0.19236858 -0.3878757 -0.06289397
-0.16828829 -0.08855837 -0.28733742 0.03153647 0.3420328 0.25739515 -0.26719037 -0.07027885
-0.019680014 0.04138122 0.037336268 -0.21297534 0.2124128 0.16651954 0.018734409 -0.05013375
-0.09273664 -0.08199687 -0.14979763 0.08618364 0.3221032 -0.0962775 0.090988524 -0.017967934
0.33819476 -0.16574089 0.27548283 -0.53169924 -0.17569648 -0.24465124 0.024500106 -0.33164772
-0.43066484 -0.045370772 0.109067276 0.28825632 -0.19294864 0.1676905 -0.0013461887 -0.06562311
0.0600543 -0.22623591 0.12828742 -0.0689441 0.17482749 0.470222 0.43796182 0.01788009
0.026342807 -0.18575458 0.17449813 0.10600535 0.22253746 -0.24944457 0.22055575 0.033741035
-0.06825987 0.078302756 -0.0603616 0.2599254 -0.36236092 -0.025733849 -0.07776133 -0.17827599
-0.21895343 -0.24013636 -0.355637 -0.17445444 0.09354473 0.30978313 -0.14661852 -0.05168337
0.20008987 -0.1495202 0.24144503 0.15530294 -0.025973277 0.24326725 0.026474088 -0.015011907
0.22110738 -0.39537746 -0.08227374 0.9888791 -0.064944126 0.18574911 0.06706122 -0.2528002
