automata_ex/logs/withPool/9-RABBIT-FACE-train_05-05-2022_11-43-14/models/model_10000.pt (torch, 9699 bytes, 3 tensors)

update_module.0.weight f4 [32, 48, 1, 1]
0	0x3d2b8f54	0.041884735
1	0x3e392691	0.18081118
2	0xbde7062e	-0.112804756
3	0x3c01eda8	0.007930197
4	0x3e91f6e5	0.28508678
5	0xbdecec7d	-0.11568544
6	0xbd1940b9	-0.03741524
7	0x3e9e7842	0.30951124
8	0x3d46d49a	0.048542596
9	0x3da09b45	0.07842115
10	0x3eb7d3fe	0.35903925
11	0xbd8bbda4	-0.068232805
12	0xbd7ad089	-0.06123403
13	0xbd5a1daf	-0.053250965
14	0x3da1fb41	0.07909251
15	0x3e0cd1a3	0.13751845
16	0xbd98a7ae	-0.07453857
17	0xbcae61b5	-0.021286825
18	0xbea2a716	-0.317681
19	0xbd730185	-0.05932762
20	0x3e1ae805	0.15127571
21	0x3d395cba	0.045254447
22	0xbe1f0230	-0.15528178
23	0x3e7a70bc	0.24457067
24	0xbd1e8197	-0.038697805
25	0xbd4a1271	-0.049333993
26	0x3e42c04f	0.19018672
27	0x3e0cd199	0.1375183
28	0x3e045c21	0.1292577
29	0x3e649fca	0.2232658
30	0x3e27f60f	0.16402458
31	0xbe3b2fad	-0.18279906
32	0xbd162f8e	-0.036666445
33	0x3d93e3b8	0.07221168
34	0x3d9ae60c	0.07563409
35	0x3ef645f6	0.4810025
36	0x3d19ec57	0.037578907
37	0xbdff8889	-0.12477214
38	0x3d50cc02	0.050975807
39	0xbeb96e1f	-0.36216828
40	0xbcc78ee6	-0.024360131
41	0xbe1b3b46	-0.1515933
42	0xbe65e24e	-0.2244961
43	0x3dfe2a0d	0.12410364
44	0xbddd5e2e	-0.10808979
45	0xbc1d6d76	-0.009608617
46	0x3e5d7f90	0.21630692
47	0x3e712460	0.23549032
48	0xbe14dec3	-0.14538102
49	0x3d76657f	0.060155388
50	0xbe1c00a0	-0.15234613
51	0xbe111e5d	-0.14171739
52	0xbe08c6b0	-0.13357043
53	0xbe38ddd8	-0.18053377
54	0xbdc85da6	-0.09783487
55	0xbe2df3b6	-0.169875
56	0xbd48731a	-0.048937894
57	0xbe0460ff	-0.12927626
58	0xbd3990e8	-0.04530421
59	0x3daff00f	0.085907094
60	0xbe573cda	-0.21019307
61	0xbe21e2d2	-0.15809181
62	0xbde4c807	-0.11170965
63	0x3e00cc39	0.12577905
64	0xbea90c30	-0.3301711
65	0x3d50b3ce	0.050952725
66	0x3d8463f0	0.06464374
67	0x3d4196a4	0.047262803
68	0x3e923568	0.2855637
69	0x3dae53ef	0.08512103
70	0x3e24b139	0.1608323
71	0x3d6f80b1	0.05847234
72	0xbdc6cbb5	-0.09706823
73	0xbe7f9002	-0.24957278
74	0xbd62850c	-0.055302665
75	0x3da7aabd	0.081868626
76	0xbdda2fa9	-0.10653622
77	0xbeb35457	-0.35025284
78	0x3e74542b	0.23860233
79	0xbe363767	-0.17794572
80	0xbe79eb8f	-0.24406265
81	0x3d38b523	0.04509462
82	0x3da65851	0.08122314
83	0xbe4c9250	-0.19977689
84	0xbe6c5451	-0.23079039
85	0xbe3ae635	-0.1825188
86	0xbe68e027	-0.22741757
87	0xbe802372	-0.25027043
88	0xbeb4fcfc	-0.35349262
89	0x3d08e9e4	0.03342618
90	0xbe3cfb67	-0.18455277
91	0x3d49a95b	0.049233776
92	0xbd39af9a	-0.045333482
93	0x3e092925	0.13394602
94	0xbd498ed2	-0.04920847
95	0x3d835084	0.064118415
96	0xbe2b30ca	-0.1671783
97	0x3dec07a3	0.11524894
98	0xbd7c4161	-0.061585788
99	0xbdab12d4	-0.083532006
100	0xbd1ee9f9	-0.038797352
101	0x3d7cb7c9	0.06169871
102	0x3ced7078	0.028984293
103	0xbdea9c29	-0.114555664
104	0xbe0f50a6	-0.13995609
105	0xbd59be27	-0.05315986
106	0xbe50b377	-0.2038096
107	0xbdaf597e	-0.08561991
108	0xbd43bb16	-0.04778584
109	0xbe8b466f	-0.27202174
110	0x3cb3b677	0.021937592
111	0x3e85e87b	0.2615393
112	0x3e2f3287	0.17109118
113	0xbde3c44a	-0.111214235
114	0xbe23ec3a	-0.16008082
115	0x3df6dc37	0.120537214
116	0xbe2f27bc	-0.17105001
117	0xbd88246d	-0.06647573
118	0xbd87bb97	-0.06627577
119	0x3e163f77	0.14672647
120	0xbdffccb2	-0.124902144
121	0x3e47bed3	0.19506387
122	0x3d07a2cb	0.033114236
123	0x3e3d1501	0.18465044
124	0xbddd8e2c	-0.10818133
125	0x3e37d54b	0.17952459
126	0x3e954f19	0.2916191
127	0x3e03d60f	0.12874626
128	0xbd63c59a	-0.05560837
129	0x3dce4bac	0.10073027
130	0xbe287153	-0.1644948
131	0x3e92302b	0.28552374
132	0xbd3a35a3	-0.04546131
133	0xbdab86d1	-0.083753236
134	0x3d1f9cf2	0.038968034
135	0xbe1497d7	-0.14511047
136	0xbc9023f7	-0.017595274
137	0x3d99773e	0.07493447
138	0xbde1af82	-0.110198036
139	0x3de7d6fe	0.113203034
140	0x3d983c96	0.07433431
141	0x3e928618	0.2861793
142	0x3c2cb9b6	0.010542324
143	0x3e4021fb	0.18762963
144	0xbcaa500a	-0.020790119
145	0x3d0e9222	0.03480733
146	0x3e00c3b0	0.12574649
147	0xbe368928	-0.17825758
148	0xbd8dd509	-0.06925399
149	0x3e4d76d5	0.20064862
150	0xbd026fc2	-0.03184486
151	0xbdea7924	-0.11448887
152	0x3e05aa1b	0.13053171
153	0xbd3f5890	-0.04671532
154	0x3de9e698	0.114209354
155	0xbe3f2ba0	-0.18668985
156	0xbe66bd4e	-0.22533152
157	0xbe81abe2	-0.2532645
158	0xbec5a698	-0.38603663
159	0xbe089cfb	-0.13341133
160	0x3cfc9a23	0.030835217
161	0xbed3daf8	-0.41377997
162	0x3d896988	0.067095816
163	0xbe7fe50a	-0.24989715
164	0xbe7cfe5c	-0.24706405
165	0xbd139995	-0.03603514
166	0xbe9cce17	-0.30625984
167	0xbf041a89	-0.5160299
168	0xbe09f8ee	-0.13473865
169	0xbd7f4356	-0.062320076
170	0xbe2e37b3	-0.17013435
171	0xbe34afad	-0.1764514
172	0x3dd5156a	0.10404475
173	0xbed711e7	-0.42005846
174	0x3d8e2bc9	0.06941945
175	0xbd3d2e85	-0.046186943
176	0xbe95ffbb	-0.2929667
177	0xbd821e45	-0.0635343
178	0xbdc8612a	-0.097841576
179	0xbea16973	-0.31525764
180	0xbdc4ea88	-0.09615046
181	0xbdc0c69b	-0.09412881
182	0xbea5d455	-0.3238856
183	0xbea4f578	-0.32218528
184	0xbe07a19f	-0.13245247
185	0xbee05e67	-0.43822023
186	0xbdfc8092	-0.1232921
187	0x3d7c5711	0.06160647
188	0xbecc4b33	-0.39901122
189	0x3ca299ba	0.019848693
190	0xbc054b9e	-0.008135704
191	0xbf083876	-0.5321115
192	0xbe33d673	-0.17562275
193	0xbe32a731	-0.17446591
194	0xbd2b7b45	-0.041865606
195	0xbdea9412	-0.114540234
196	0xbde02b60	-0.10945773
197	0x3c92d1d7	0.017922325
198	0xbdb2e77a	-0.08735557
199	0xbd873e87	-0.06603723
200	0x3d95786f	0.072983615
201	0xbcdba78a	-0.026813287
202	0xbe89fefa	-0.26952344
203	0x3d9476d4	0.07249227
204	0xbef8b614	-0.48576415
205	0x3ebe9064	0.37219536
206	0x3e950760	0.2910719
207	0xbdd830b7	-0.105561666
208	0x3e0225b5	0.12709697
209	0x3f08521a	0.5325028
210	0x3d68088e	0.056648783
211	0x3e4b1d7e	0.19835469
212	0x3e317a98	0.17331922
213	0xbdde71f7	-0.10861581
214	0xbdba4fe9	-0.09097273
215	0x3ec6c31c	0.38820732
216	0xbde49de1	-0.111629255
217	0xbc1c4f83	-0.009540441
218	0x3e1cfdf0	0.15331244
219	0xbdd78dbb	-0.1052508
220	0xbeb829d8	-0.35969424
221	0x3db99628	0.09061843
222	0xbe3eae76	-0.18621239
223	0xbe6bf933	-0.2304428
224	0x3f0cc922	0.54994404
225	0x3dc17114	0.09445396
226	0x3eaee745	0.3416082
227	0x3e62f018	0.22161901
228	0xbdf5a6ee	-0.1199473
229	0x3d73e4c6	0.059544347
230	0x3ebda311	0.37038472
231	0xbe11521f	-0.14191483
232	0x3e8a2e6e	0.26988548
233	0x3ed149cd	0.40876618
234	0xbe00c590	-0.12575364
235	0xbe64efcf	-0.22357105
236	0x3e83d328	0.25747037
237	0x3e847e58	0.25877643
238	0x3e1ff2a6	0.15619907
239	0x3ee4937a	0.44643766
240	0xbe11a1cc	-0.14221877
241	0xbe56bc34	-0.20970231
242	0x3da2a080	0.07940769
243	0x3d60a7eb	0.05484764
244	0xbd704fe5	-0.058669943
245	0x3e960c03	0.2930604
246	0xbc26ef85	-0.010188942
247	0xbd295809	-0.041343722
248	0x3dca8149	0.098879404
249	0xbe7b0902	-0.24515155
250	0x3e836b0d	0.2566761
251	0x3de3696a	0.111040905
252	0xbe3db7e6	-0.18527183
253	0x3eda3970	0.42621946
254	0xbebba315	-0.3664786
255	0x3d05f989	0.03270868

update_module.0.bias f4 [32]
0	0xbb78c40b	-0.0037958648
1	0xbb87d7e9	-0.0041456115
2	0x3d60c5d4	0.054876164
3	0xbe49fe23	-0.19725852
4	0xbd116654	-0.03549798
5	0xbd3d2598	-0.04617843
6	0xbf0a592b	-0.5404231
7	0x3c2ce904	0.010553602
8	0x3da7ae09	0.081874914
9	0xbcc6f34d	-0.024285937
10	0xbe4fc180	-0.20288658
11	0x3db4b336	0.08823244
12	0x3979325a	0.00023765248
13	0xbcdae2da	-0.0267195
14	0xbe9406a4	-0.28911316
15	0x3db3f561	0.08787037
16	0xbceb5c48	-0.028730527
17	0x3d18ba33	0.03728695
18	0xbf435c8b	-0.76313084
19	0xbdcbd985	-0.09953598
20	0x3d49122d	0.0490896
21	0x3c902955	0.017597834
22	0x3ca011f8	0.019539818
23	0xbd0b2e80	-0.033979893
24	0xbe7fda3b	-0.24985592
25	0xbeac3bef	-0.33639476
26	0x3c2ee3c0	0.010674417
27	0xbc0142bc	-0.007889446
28	0xbdf58f86	-0.119902655
29	0xbdc49edd	-0.09600613
30	0x3c599ee9	0.013282516
31	0x3d876c53	0.06612458

update_module.2.weight f4 [16, 32, 1, 1]
0	0xbc108339	-0.008820348
1	0x3e2ba383	0.16761594
2	0x3ca4ce7a	0.020117987
3	0x3d04cbc3	0.032420885
4	0xbd6d400f	-0.05792242
5	0xbcd95fbd	-0.02653491
6	0xbd74e40c	-0.059787795
7	0x3db26084	0.08709815
8	0x3d09de85	0.033659477
9	0x3d6cd354	0.057818726
10	0x3d04b0dc	0.03239523
11	0xbc811a36	-0.015759569
12	0x3e27373d	0.16329665
13	0x3d3c1730	0.04592055
14	0xbd28f8f4	-0.041253045
15	0x3d3e3135	0.046433646
16	0x3d4f06ec	0.05054371
17	0x3db55de4	0.08855799
18	0xbe1341f8	-0.14380634
19	0xbc9a9f90	-0.018874913
20	0xbd03d206	-0.032182716
21	0x3e121dfc	0.1426925
22	0x3ce5da1b	0.028058102
23	0x3db3e1ff	0.0878334
24	0xbcc69c2b	-0.024244389
25	0xbda44f9a	-0.08022995
26	0x3c9ff426	0.019525599
27	0x3db41f3e	0.087950215
28	0x3b9a01a9	0.004699905
29	0x3d9f659a	0.07783051
30	0x3d5ed3c4	0.054401174
31	0xbcaf32e9	-0.02138658
32	0xbbf8e7e0	-0.007596001
33	0x3e055b34	0.13023072
34	0x3c5b3fe5	0.013381933
35	0x3c962174	0.018326499
36	0xbd6e6f8b	-0.058211844
37	0xbd141c8c	-0.036160037
38	0xbd958827	-0.073013596
39	0x3dd43c0d	0.10363016
40	0x3d0a9245	0.0338309
41	0x3d1a7c41	0.037716154
42	0x3d238cb1	0.039929096
43	0xbc59e3a8	-0.013298906
44	0x3df445fc	0.11927411
45	0x3d461a50	0.048364937
46	0xbd3c17d5	-0.045921165
47	0x3d604d3b	0.054761153
48	0x3d7227a2	0.059119828
49	0x3dd49ad1	0.103810914
50	0xbe23b0ef	-0.15985464
51	0xbc90d096	-0.017677587
52	0xbd0a80d1	-0.033814255
53	0x3df7cff5	0.121002115
54	0x3d0ec3f4	0.034854844
55	0x3d9fdfa3	0.07806327
56	0xbb7f1bad	-0.0038926408
57	0xbd5b8aa4	-0.053599015
58	0x3d541151	0.051774327
59	0x3dd7d86c	0.10539326
60	0xbc1cde91	-0.009574548
61	0x3d8877f3	0.066635035
62	0x3d7f38a3	0.062309872
63	0xbccd424e	-0.02505603
64	0xbc3db27c	-0.0115781985
65	0x3e0307da	0.12795964
66	0x3c47ba5f	0.01219043
67	0x3c97d2d3	0.018533146
68	0xbd7da736	-0.061927043
69	0xbd367311	-0.04454333
70	0xbda31f1e	-0.079649195
71	0x3de4acb2	0.111657515
72	0x3d1025db	0.03519235
73	0x3d113b9f	0.03545725
74	0x3d2fa7bb	0.04288457
75	0xbc4847d6	-0.012224158
76	0x3dee662c	0.116405815
77	0x3d45e20c	0.04831128
78	0xbd410049	-0.047119413
79	0x3d6fc395	0.05853613
80	0x3d7b95a0	0.06142199
81	0x3dd2e680	0.10297871
82	0xbe24ac2b	-0.16081302
83	0xbc8d076f	-0.017215459
84	0xbd12220a	-0.035676993
85	0x3dfd7c93	0.12377276
86	0x3d17676e	0.036963873
87	0x3d955941	0.072924145
88	0xbacb8e06	-0.0015529997
89	0xbd404f64	-0.046950713
90	0x3d5f99bf	0.054589983
91	0x3de88c99	0.11354942
92	0xbc820c5a	-0.01587503
93	0x3d8fa739	0.07014317
94	0x3d82f3e4	0.06394175
95	0xbcd44e9b	-0.025916388
96	0xbcc1cca8	-0.023657158
97	0x3e195dd1	0.14977194
98	0x3c9a22f6	0.018815499
99	0x3d7de2a4	0.06198372
100	0xbd9c4d65	-0.07631949
101	0x3d73841d	0.059452165
102	0xbdbf5663	-0.09342649
103	0x3e0c6fbb	0.13714497
104	0x3d22ae97	0.039717283
105	0x3d3fe45b	0.046848636
106	0x3d335934	0.043786243
107	0xbc742fad	-0.014903945
108	0x3e4cb23e	0.19989869
109	0x3d5e4657	0.0542663
110	0xbd4de42c	-0.05026643
111	0x3d880de0	0.066432714
112	0x3de0f39b	0.10983964
113	0x3da2ac4e	0.07943021
114	0xbe4ec9d7	-0.20194183
115	0xbc9f8fd1	-0.019477757
116	0xbd2f4599	-0.042790983
117	0x3e212229	0.15735687
118	0x3d3d4efd	0.046217907
119	0xbcbeab92	-0.02327517
120	0x3d949cd5	0.07256476
121	0xbdbfa3b9	-0.093573995
122	0x3d6835b9	0.05669186
123	0x3d116c30	0.035503566
124	0xbbefdc80	-0.007319987
125	0x3e0506ba	0.12990847
126	0x3ded1b03	0.11577418
127	0xbce722e3	-0.028214877
128	0xbe06ee91	-0.13176943
129	0x3d441cfa	0.047879197
130	0x3d5023ac	0.05081527
131	0x3f122bec	0.5709827
132	0x3efd6e4d	0.49498215
133	0x3eadae2e	0.3392195
134	0x3bf05630	0.007334493
135	0xbeeda643	-0.4641591
136	0xbd5f189d	-0.054466832
137	0x3d23cc1a	0.03998957
138	0x3e32f7ea	0.17477384
139	0x3da60d1e	0.08107971
140	0xbddcbf3d	-0.10778663
141	0xbe174de8	-0.14775813
142	0x3d85c1f4	0.06531134
143	0x3d035fe6	0.032073878
144	0x3db1bd2b	0.08678659
145	0x3cf49ed9	0.0298609
146	0x3d08529a	0.0332819
147	0xbc975ce2	-0.018476907
148	0x3e089b0f	0.133404
149	0xbd87d5f2	-0.06632604
150	0xbe50aadc	-0.20377678
151	0x3e6dfb02	0.23240283
152	0x3dbdd647	0.09269386
153	0x3e7d3e53	0.24730806
154	0x3dea00d4	0.11425939
155	0x3d7df242	0.061998613
156	0xbd67da7e	-0.056604855
157	0xbc362363	-0.011116835
158	0xbe2e720e	-0.17035696
159	0xbd76e7b8	-0.060279578
160	0xbd792411	-0.06082541
161	0x3dbfffa7	0.09374934
162	0xbe0e8d2a	-0.13921037
163	0x3dfc6f31	0.123258956
164	0x3ef694ce	0.48160404
165	0x3dd2dc6f	0.102959506
166	0xbe93d2c5	-0.28871742
167	0x3d3e81bf	0.046510454
168	0xbd73f486	-0.059559368
169	0xbc7f3545	-0.015576665
170	0xbe1b6139	-0.15173806
171	0xbd2db91d	-0.042412866
172	0x3e89dd29	0.26926544
173	0x3def9ec2	0.117002025
174	0xbe0a7040	-0.13519382
175	0xbd13d620	-0.036092877
176	0xbdb73db8	-0.08947319
177	0xbc0a41f7	-0.008438579
178	0x3d415905	0.047204036
179	0xbd8b4f77	-0.06802266
180	0xbd0c01e7	-0.0341815
181	0x3dc86ef3	0.09786787
182	0xbd8dc29a	-0.06921883
183	0xbd4a11f7	-0.04933354
184	0xbe627433	-0.22114639
185	0xbb2a5f85	-0.0025996875
186	0xbd990d70	-0.07473266
187	0x3d279aa3	0.040918957
188	0x3e7c5220	0.24640703
189	0xbc66602c	-0.014061015
190	0x3de78c4e	0.11306058
191	0xbd5cfdfa	-0.05395315
192	0x3ea45bd8	0.3210132
193	0xbe5116de	-0.2041888
194	0x3e4acc7f	0.19804572
195	0xbed3960d	-0.41325417
196	0xbe4316d1	-0.19051673
197	0xbe602fa4	-0.21893173
198	0x3d1ae0f1	0.037812177
199	0xbebcee76	-0.3690068
200	0xbea8e049	-0.32983616
201	0xbdfd1733	-0.123579405
202	0xbd3f3091	-0.046677176
203	0x3e5fea6e	0.21866772
204	0xbd86c1d0	-0.065799356
205	0xbc5af44a	-0.013363907
206	0x3d9591c3	0.073031925
207	0xbd8f38e2	-0.069932714
208	0x3c2342be	0.009964643
209	0xbe3dc375	-0.18531592
210	0x3c7054fb	0.014668698
211	0xbd66d260	-0.056352973
212	0x3ddb9d88	0.10723406
213	0x3ec6d889	0.38837078
214	0x3e5a8db0	0.21343112
215	0xbcb9b6bd	-0.022670144
216	0xbdb7bf0a	-0.08971985
217	0xbe20b420	-0.15693712
218	0x3de157aa	0.11003049
219	0x3db762fc	0.08954427
220	0x3e09e47c	0.13466066
221	0xbda0e521	-0.07856203
222	0x3e40de62	0.18834832
223	0xbc2383cd	-0.009980154
224	0xbdcaf5bf	-0.099101536
225	0xbbcc8925	-0.006241935
226	0xbc983855	-0.018581549
227	0x3dc51fcd	0.09625206
228	0xbcf23b6e	-0.029569354
229	0xbc91e2b0	-0.017808288
230	0x3d771d9d	0.060330976
231	0xbe0da45b	-0.13832228
232	0xbdf57a51	-0.11986221
233	0xbdcb463e	-0.09925507
234	0xbe385428	-0.18000853
235	0xbd9477db	-0.07249423
236	0x3e08af40	0.13348103
237	0x3df1619b	0.11786195
238	0x3d367b2b	0.044551056
239	0xbd1c5eb3	-0.03817625
240	0x3e69fdf5	0.22850783
241	0xbdc2dbd4	-0.09514585
242	0xbcdcbf74	-0.02694676
243	0x3dcdf813	0.10057082
244	0x3c6b5b7b	0.014365072
245	0x3e03cc23	0.1287084
246	0x3d226e62	0.03965605
247	0x3d5ff8ab	0.054680508
248	0xbc66802d	-0.014068645
249	0xbe0a47a9	-0.13503899
250	0xbc2fda9d	-0.010733274
251	0x3f2c9d96	0.6742796
252	0x3df57178	0.11984533
253	0x3c91546f	0.017740456
254	0x3d4f73eb	0.050647657
255	0xbd3ac0fc	-0.0455942
