automata_ex/logs/withPool/9-RABBIT-FACE-train_05-05-2022_11-43-14/models/model_13000.pt (torch, 9699 bytes, 3 tensors)

update_module.0.weight f4 [32, 48, 1, 1]
000000 90 99 91 bc 99 67 1f 3e 3c f2 d3 bd e5 ae 2a bd
       -0.01777342 0.15566863 -0.10348937 -0.0416707
000010 59 e7 85 3e 34 f3 ee bd 30 cc b3 bd ac 8f 94 3e
       0.26153067 -0.11667481 -0.0877918 0.29015863
000020 6e 73 27 3d 8a 43 79 3c 1d d9 be 3e 42 f6 eb bd
       0.040881567 0.0152138565 0.3727502 -0.11521579
000030 19 46 8d bd 4e da b3 bd 8c 39 0d 3e 94 d4 27 3d
       -0.06898136 -0.08781873 0.13791484 0.040974215
000040 ba 41 40 bc 63 19 44 3d e8 c3 a7 be 0b a3 1a bd
       -0.01173442 0.047875773 -0.32766652 -0.037753146
000050 c3 82 22 3e 53 a9 5e 3d 40 8f 04 be 9a 29 84 3e
       0.15870194 0.0543607 -0.1294527 0.2581299
000060 93 84 bc bd 06 92 8d bd 14 36 48 3e 33 d9 04 3e
       -0.09204974 -0.069126174 0.19551879 0.1297348
000070 ff bc a6 3d 80 5d 58 3e 0e 86 34 3e a7 30 43 be
       0.08141517 0.21129417 0.17629263 -0.19061528
000080 82 c8 06 bd f1 9e e3 3d ee db f7 3d a2 ef 07 3f
       -0.032906063 0.111143 0.12102495 0.53100026
000090 c9 ff ba bb 7d 81 0f be 40 17 e6 3d f5 f8 df be
       -0.0057067615 -0.1401424 0.11234903 -0.43744627
0000a0 e6 4e ff 3c 23 4c 2c bd 49 7a 9e be 6c 67 16 3e
       0.031165551 -0.042064797 -0.3095267 0.1468789
0000b0 6a ab 4f be 6d 87 31 bd 8f cb 8a 3e cd 80 63 3e
       -0.20280233 -0.043342043 0.27108428 0.22217102
0000c0 9e 0c 58 be db aa b9 3d 60 bf e0 bd f2 5d 36 be
       -0.21098563 0.09065791 -0.10974002 -0.17809275
0000d0 05 a0 f6 bd 8e 22 06 be 65 22 08 be ed 1b 20 be
       -0.1204224 -0.13099119 -0.1329437 -0.15635653
0000e0 84 e7 b1 ba 03 fb 1f be 1f 50 12 bd 24 ad 09 3e
       -0.0013573025 -0.15623097 -0.03572094 0.13444954
0000f0 06 29 59 be df 2e 32 be 6d 81 e3 bd 3e e6 f0 3d
       -0.21207055 -0.17400692 -0.111086704 0.11762665
000100 ac 3c 9b be 54 9e 23 3d 00 5e 3c 3d 43 b8 51 3d
       -0.30319726 0.039945915 0.045988083 0.051201116
000110 62 31 98 3e 8a 9d 5c 3e 31 09 96 3e bf 9f 3e 3d
       0.29725176 0.21544471 0.29303887 0.046539064
000120 17 64 fa bd b2 1f 93 be 1f 9d 08 bd 77 e4 be 3d
       -0.12226122 -0.2873512 -0.033352967 0.0932092
000130 87 31 c7 bd ad 91 ac be b7 e5 8e 3e 6b 5f 2e be
       -0.097262435 -0.33704892 0.27909634 -0.17028587
000140 f8 72 7a be 71 b0 b5 39 60 fd 99 3d 8d e5 8d be
       -0.2445792 0.0003465447 0.075190306 -0.27714196
000150 69 88 7e be 69 dd 1d be 95 9a 44 be 83 7a 87 be
       -0.24856724 -0.15416493 -0.19199593 -0.26460657
000160 27 2c a7 be d5 ad dc 3d ae a6 3d be 2a 22 26 3d
       -0.32650873 0.10775343 -0.18520615 0.040559925
000170 2e ae aa bd f9 18 2d 3e 78 10 81 bd c7 c6 8b 3d
       -0.083340034 0.16904058 -0.06301969 0.06825023
000180 3d 8b 88 be 85 37 1c 3e bc 10 0c bd e8 2a 2e be
       -0.2666873 0.15255554 -0.034195647 -0.17008555
000190 6b 00 4a bc 37 10 9b 3d 2d 4f 7f bd b9 a8 aa bd
       -0.012329201 0.07571452 -0.062331367 -0.083329625
0001a0 9b 92 fe bd c5 b8 3d be da d5 3e be 3c 5d d0 bd
       -0.124303065 -0.18527515 -0.18636265 -0.10174033
0001b0 59 64 ce bd 66 00 90 be 40 11 a2 bd 34 cc 83 3e
       -0.100777335 -0.28125304 -0.079134464 0.25741732
0001c0 b7 af 02 3e c3 3c 90 3b 71 57 78 be 90 d7 bb 3d
       0.12762342 0.0044017746 -0.24252106 0.09171975
0001d0 9a 14 24 be 1b 63 f0 bc e8 54 93 bd 64 11 96 3e
       -0.16023484 -0.029344132 -0.07193929 0.29310143
0001e0 56 ae 39 be cf b8 4e 3e bc a4 0b 3d 58 87 0f 3e
       -0.1813291 0.20187686 0.03409265 0.14016473
0001f0 2d ec 14 be 1b 23 4f 3e 1f dd a2 3e d3 49 02 3e
       -0.14543219 0.20228235 0.31809327 0.12723474
000200 ad f3 f4 bd 39 21 5e 3d c7 57 0b be 18 3c 75 3e
       -0.1196054 0.054230902 -0.13607703 0.23948705
000210 28 e5 0c be a0 de 04 be 09 02 cd bc d6 a7 8c be
       -0.13759291 -0.1297555 -0.025025385 -0.274718
000220 ea 62 7b 3c c3 f8 ee 3c 30 d2 ff bd ef 5e 3a 3e
       0.015343407 0.029171353 -0.12491262 0.18200277
000230 9b e7 2b 3e cb 43 a9 3e 8f 88 be bd 42 17 83 3e
       0.16787569 0.33059534 -0.0930339 0.25603682
000240 a1 62 1d bd 73 b0 2c ba cc 8a e6 3d 8f 7e 55 be
       -0.038424138 -0.0006587572 0.11256942 -0.2084906
000250 51 a3 ac bd 5c 67 44 3e 61 b3 61 bd 0a a6 07 be
       -0.08429588 0.19180053 -0.05510271 -0.13246933
000260 5f 5c f3 3d 76 2a c5 bd a7 03 eb 3d d3 53 8e be
       0.11882853 -0.096272394 0.11475306 -0.27798328
000270 17 72 82 be 1c b4 8b be 56 64 a4 be a6 23 da bd
       -0.2547767 -0.2728585 -0.321078 -0.10651331
000280 5f 17 67 bd 4b 80 d1 be d0 23 20 3d 63 f0 72 be
       -0.056418773 -0.40918192 0.039096653 -0.23724513
000290 5b d9 7a be ff 24 43 bd e1 18 90 be 51 e5 10 bf
       -0.24496977 -0.047642704 -0.2814398 -0.5659991
0002a0 e1 42 09 be fe a0 c2 bd a1 28 43 be b5 6d 6f be
       -0.13404419 -0.09503363 -0.19058467 -0.23381694
0002b0 8d 41 d6 3d 0d 7c e3 be bf 8b f2 3d 91 40 24 bd
       0.104617216 -0.4443058 0.11843061 -0.040100638
0002c0 db 06 65 be 83 97 c8 bd 7c c0 93 bd 54 d3 a5 be
       -0.22365896 -0.097945236 -0.07214448 -0.32387793
0002d0 8c ef c0 bd ed dc 01 be 02 cc b3 be 8c db ce be
       -0.0942069 -0.12681933 -0.35116583 -0.40401876
0002e0 87 d7 1b be ee f0 01 bf 22 11 1b be 5f 58 ed 3d
       -0.15218936 -0.50758255 -0.15143254 0.11589121
0002f0 36 31 d8 be fd 6e 3c bc 70 cb 82 bc e1 6c 17 bf
       -0.42225045 -0.011501071 -0.015966147 -0.5915051
000300 47 89 81 be 67 89 1d be aa 35 1a bb 5d 44 3f be
       -0.25300047 -0.15384446 -0.0023530521 -0.18678422
000310 0a e2 51 bd c0 1b 8d 3d 74 d7 22 be 14 35 7c b9
       -0.05124096 0.068900585 -0.15902501 -0.00024052366
000320 be 2d 01 3e e4 17 dd bd 55 d3 57 be 92 61 d2 3d
       0.12615106 -0.107955724 -0.2107671 0.10272516
000330 6b 64 06 bf df 49 cb 3e ee a8 90 3e 5e ca b3 bd
       -0.52496976 0.39704797 0.28253883 -0.08778833
000340 bc 71 af 3d d6 f1 0a 3f 5e e6 0a 3d 3b 71 71 3e
       0.08566615 0.5427526 0.0339111 0.2357835
000350 c0 07 56 3e 26 27 78 bd 9b a2 9f bd d0 b2 dc 3e
       0.20901394 -0.06058421 -0.077946864 0.43105173
000360 3a c4 15 be f8 63 ed bc 62 38 35 3e 0a af d5 bd
       -0.14625636 -0.028978333 0.1769729 -0.10433777
000370 5b 70 b9 be 0e d3 d0 3c b6 25 59 be 6c bc 78 be
       -0.36218533 0.025491264 -0.21205792 -0.24290627
000380 45 9e 04 3f b6 83 0b 3e e4 f6 b5 3e 24 d7 72 3e
       0.51804 0.13624462 0.35539925 0.23714882
000390 35 ae 01 be 10 4f 0a 3d 1a 86 e7 3e df cc 19 be
       -0.12664111 0.033766806 0.452195 -0.15019558
0003a0 7c 07 af 3e 50 38 db 3e bc af 19 be d0 f6 62 be
       0.34185398 0.428164 -0.15008444 -0.22164464
0003b0 0a 1d 9a 3e 41 e6 6f 3e 5a 7a 74 3e e7 17 cd 3e
       0.3010028 0.23427679 0.23874798 0.400573
0003c0 76 ac 2e be 0e 1c 4a be 25 c5 27 3d 51 0b b4 3c
       -0.17057976 -0.19737265 0.040959496 0.021978052
0003d0 3e bd 43 bd 35 c7 8d 3e a8 59 14 bd 6d a7 3d bd
       -0.047787897 0.27691045 -0.036218315 -0.046302248
0003e0 5d 6e a2 3d f7 be ac be 76 ca 9f 3e b2 02 e9 3d
       0.079312064 -0.33739445 0.31209153 0.11377467
0003f0 26 4f 12 be ef 9c eb 3e 97 18 a3 be bc 05 f9 b9
       -0.14288005 0.46018168 -0.31854698 -0.00047497253

update_module.0.bias f4 [32]
000000 56 39 6c bd 58 eb 15 bd e6 b9 a8 3c de 89 64 be
       -0.057671867 -0.036601394 0.020596456 -0.22318217
000010 da 03 9a bd 79 dd c4 bd 98 0b 20 bf fe de cc ba
       -0.07520266 -0.09612555 -0.6251769 -0.0015630422
000020 2a 7f 4d 3d ab d2 dc bd 0a 9e 63 be 7e fe 2b 3d
       0.0501701 -0.10782369 -0.22228256 0.04199075
000030 91 7f e2 bc 83 f1 9d bd 82 eb bc be 3c 0c 75 3d
       -0.027648719 -0.0771208 -0.36898428 0.05982612
000040 0b 47 30 bd db d1 cf 3b c4 4c 57 bf 70 f5 1c be
       -0.0430365 0.0063421554 -0.8410151 -0.15328002
000050 4b 28 af 3c 2e 99 39 3b 27 42 60 bc d8 d5 5e bd
       0.021381518 0.0028320062 -0.013687647 -0.054403156
000060 3a a1 9a be 1c 8d d4 be 46 73 89 bd ea 01 67 bd
       -0.3020113 -0.41513908 -0.0671144 -0.05639831
000070 58 e0 03 be ec ca 0d be de a7 ab 3b 4c 5c 36 bd
       -0.12878549 -0.1384694 0.005238517 -0.044521615

update_module.2.weight f4 [16, 32, 1, 1]
000000 f5 e0 07 bc 0d d7 2b 3e ba 8a 34 3d 50 02 3a 3d
       -0.00829338 0.16781254 0.044077612 0.04541236
000010 6b e0 71 bd e0 e7 fe bb 9a d9 ca bd 74 0d ea 3d
       -0.059051912 -0.0077791065 -0.099047855 0.11428347
000020 25 49 2a 3d 92 38 97 3d 9e 33 4f 3d fc df b6 bc
       0.041573662 0.07383837 0.050586335 -0.022323601
000030 20 40 2e 3e 09 b1 90 3d 13 e5 33 bd b4 6d 76 3d
       0.17016649 0.07065017 -0.043919634 0.060163215
000040 57 9d 97 3d ec 8f dd 3d 8a 25 51 be 25 37 b4 bc
       0.07403057 0.108184665 -0.20424476 -0.021998951
000050 e8 b9 34 bd 7d c5 1c 3e b3 c9 28 3d d3 7b ea 3d
       -0.044122607 0.15309711 0.04120798 0.11449399
000060 eb 92 41 bd 71 a4 a8 bd 2f 09 18 3d 80 fb c7 3d
       -0.047259253 -0.0823449 0.037118133 0.09764767
000070 8d 7d c8 3b a5 98 d9 3d d9 36 9b 3d 45 0c a0 bc
       0.0061184824 0.10624818 0.07578821 -0.0195371
000080 2f 2e 0a bc 64 45 07 3e 6c de e2 3c e9 7f 14 3d
       -0.008433863 0.13210064 0.02769395 0.036254797
000090 12 d4 4a bd 35 23 6f bc c4 04 e5 bd da 1c 03 3e
       -0.049518652 -0.014595796 -0.111825496 0.12803975
0000a0 b7 fe 1f 3d 48 9d 2c 3d 25 30 48 3d 13 00 a6 bc
       0.039061274 0.042142183 0.04887404 -0.020263707
0000b0 48 11 10 3e 3e 97 9d 3d 45 66 68 bd 98 ba 86 3d
       0.14069092 0.07694863 -0.056738157 0.06578559
0000c0 9c 37 a4 3d bd b6 e6 3d ed 10 58 be b8 b9 00 bc
       0.08018419 0.11265323 -0.21100207 -0.007856779
0000d0 02 d4 2b bd 62 de 0f 3e 0e 3d 4d 3d c0 16 cf 3d
       -0.041950233 0.14049676 0.050107054 0.10111761
0000e0 e4 4f fb bc 64 46 47 bd 86 2c 9e 3d c5 14 e1 3d
       -0.030677743 -0.048651114 0.07723336 0.109902896
0000f0 d4 86 dc bb 28 64 c3 3d c1 3a b0 3d 4c 8f e2 bc
       -0.00672994 0.09540588 0.086049564 -0.02765622
000100 15 44 5f bc 5f 04 05 3e 2b b1 e3 3c c8 84 1d 3d
       -0.013627072 0.12989949 0.027794441 0.03845671
000110 00 42 5f bd 32 46 c0 bc b9 37 f2 bd e4 96 0c 3e
       -0.054506302 -0.023470972 -0.118270345 0.13729435
000120 9e 10 27 3d 83 0c 28 3d b0 a1 58 3d d6 c1 9a bc
       0.04078733 0.041027557 0.052888572 -0.018891256
000130 74 e2 0f 3e 64 9a a1 3d 9f ea 5a bd a6 97 86 3d
       0.14051229 0.07890776 -0.05344641 0.065718934
000140 55 b6 a9 3d 17 c3 e2 3d ea 3b 51 be e5 96 ce bb
       0.0828673 0.11072367 -0.20433012 -0.006304609
000150 6d e5 2d bd 05 42 13 3e 22 6f 59 3d 99 74 c2 3d
       -0.042455126 0.14380653 0.0530845 0.094948955
000160 ef 11 d0 bc fd 59 20 bd e1 08 a6 3d 8a 48 ec 3d
       -0.025399176 -0.03914832 0.08107162 0.11537273
000170 3e 16 8a bc b8 69 c5 3d a0 d1 b5 3d 5e f6 c9 bc
       -0.016856309 0.09639305 0.088778734 -0.02465361
000180 e4 37 9d bc 64 c8 26 3e 31 b1 3c 3d 43 6e 9b 3d
       -0.01919169 0.1628738 0.04606742 0.0758939
000190 40 e2 8c bd 92 80 db 3d 2f 96 10 be 88 f2 33 3e
       -0.06879091 0.10717882 -0.1411979 0.17572987
0001a0 73 2d 44 3d 51 9a 8b 3d ac 20 64 3d b3 33 c8 bc
       0.047894906 0.06816543 0.05569522 -0.024438715
0001b0 b5 f9 52 3e 10 64 c1 3d db 52 77 bd 7c 87 98 3d
       0.20603068 0.094429135 -0.06038175 0.074477166
0001c0 92 f5 16 3e 7b 47 b6 3d 05 16 80 be 79 4a 35 bc
       0.14742115 0.089003526 -0.250168 -0.011065119
0001d0 02 22 5e bd ee 8e 30 3e 8f bc 73 3d e5 bc 26 bd
       -0.05423165 0.17242023 0.059505995 -0.040707488
0001e0 16 d8 9e 3d fb fe dc bd b8 1a ae 3d 6a a5 25 3c
       0.07756059 -0.10790821 0.0850119 0.010110239
0001f0 09 28 ad bc 91 db 49 3e 81 37 20 3e ef a4 87 bc
       -0.021137254 0.19712664 0.15646173 -0.016558139
000200 f8 74 46 be e9 30 1d bb 43 5a aa 3c 7f cf 14 3f
       -0.19380558 -0.0023985452 0.020794993 0.58129114
000210 e1 b1 00 3f 5b 49 c4 3e 40 c6 a6 3b cf 09 0d bf
       0.5027142 0.38337216 0.005089551 -0.5509309
000220 f4 0d 17 be b9 d9 1b bb de 9f 3c 3e 04 38 73 3d
       -0.14751416 -0.0023780896 0.1842036 0.059379593
000230 be bd 29 be 4b 51 02 be ab e1 3f 3d 5c bd 76 3c
       -0.16576287 -0.12726323 0.046846073 0.015059795
000240 4a 45 a6 3d 28 cf 9d 3d b1 e6 73 3c 61 35 83 bc
       0.081186846 0.077055275 0.014886544 -0.016016664
000250 25 56 f2 3d 6b 97 c9 bd 76 dc 79 be 64 91 80 3e
       0.11832837 -0.09843334 -0.24400505 0.25110924
000260 71 79 d5 3b 94 53 d1 3e c7 60 e3 3d 53 00 63 3d
       0.006514721 0.40884078 0.11102443 0.05542023
000270 0d c7 c3 bd c1 e7 69 bd 57 3f f4 bd c3 22 95 bd
       -0.0955945 -0.057105783 -0.119261436 -0.07282021
000280 30 3c 0d bd 52 18 13 3e 73 62 31 be 65 52 15 3e
       -0.034481227 0.14364746 -0.17322712 0.14582212
000290 4e ab 06 3f 15 55 36 3e 60 37 a9 be e2 bf 0d bd
       0.5260514 0.17805894 -0.3305006 -0.03460682
0002a0 5c fa f1 bd aa d9 13 bd 9f 57 5a be 29 93 64 bd
       -0.118153304 -0.036096253 -0.21322487 -0.055804405
0002b0 6b 2d 90 3e 62 e9 f9 3d 55 78 3f be d1 7a 22 bd
       0.2815965 0.12202717 -0.18698247 -0.039667908
0002c0 81 e6 d6 bd a9 af 32 3c 8c 31 7d 3d 22 b9 17 be
       -0.10493184 0.010906138 0.06181483 -0.14816716
0002d0 3a e5 bd 3c 40 64 8a 3d 41 83 d2 bd 33 c0 a5 bd
       0.023180593 0.067574024 -0.10278941 -0.080933
0002e0 3f 76 39 be 8d 0c ab 3c 40 b1 b6 bd 1a 38 c3 3c
       -0.18111514 0.020880008 -0.089205265 0.023830462
0002f0 6b e8 89 3e 98 ec 74 bc 16 6f 01 3e a1 15 d8 bb
       0.26935133 -0.0149489865 0.12640032 -0.0065943752
000300 73 ac af 3e 27 48 3c be b5 9d 78 3e bb 22 f1 be
       0.34311256 -0.18386899 0.2427891 -0.4709681
000310 02 fc 66 be d0 fa 57 be 9a a5 78 3d 38 9b b2 be
       -0.22557071 -0.21091771 0.060704805 -0.34884048
000320 2f 2b c9 be e2 18 f4 bd b0 67 25 bc 67 45 65 3e
       -0.3929076 -0.119188085 -0.010095522 0.22389756
000330 e9 ac ea bd 8d 92 89 3d 19 5c b6 3c c6 79 79 bd
       -0.11458761 0.067174055 0.022260712 -0.060907148
000340 37 2b bb 3a ac e9 60 be 8d 70 bf 3c ec cb 94 bd
       0.0014279847 -0.21964139 0.023369098 -0.072654575
000350 d3 4a 3e 3e 2c 3a d1 3e 27 bb 9e 3e 12 06 f4 bb
       0.1858323 0.40864694 0.3100216 -0.0074470127
000360 68 c3 38 bd 56 4c 21 be aa 7b a3 3d 32 d9 c2 3d
       -0.04510823 -0.15751776 0.079825714 0.09514083
000370 4f 77 06 3e 80 ab d8 bd 68 63 52 3e 18 56 10 bd
       0.1313145 -0.10579586 0.20545733 -0.035238355
000380 cb ae 99 bd 8b 27 01 3d fd 53 14 bd 68 8b 30 3e
       -0.07504042 0.03153185 -0.03621291 0.1724068
000390 71 3c 02 be 32 f9 7a bd 44 62 df 3c 4d 6a 31 be
       -0.12718369 -0.061272807 0.027268536 -0.17325707
0003a0 76 ba 16 be 9b 47 40 be 19 74 a5 be 8d bc 18 be
       -0.14719567 -0.18777315 -0.32315138 -0.14915676
0003b0 ea d1 04 3e 45 89 37 3e a1 e7 71 bd 88 08 48 bd
       0.12970701 0.17923458 -0.05905879 -0.04883626
0003c0 fa 58 4b 3e 29 f3 26 be e7 7c ca 3d 69 67 03 3e
       0.1985816 -0.16303696 0.098871045 0.12832417
0003d0 12 a6 38 bc f6 d7 2e 3e 31 60 a5 3c ae a5 42 3c
       -0.011270063 0.1707457 0.02018747 0.011880321
0003e0 bb 9b 9c 3d 3d 41 75 be c9 7e 4c bd 35 fc 4e 3f
       0.07646891 -0.23950668 -0.0499256 0.8085359
0003f0 56 25 27 3d 70 6d 85 3d 9e 5c 27 3d d2 96 07 be
       0.04080709 0.06515014 0.04085981 -0.13241127
