automata_ex/logs/withPool/9-CARROT-train_05-05-2022_17-04-48/models/model_15000.pt (torch, 9699 bytes, 3 tensors)

update_module.0.weight f4 [32, 48, 1, 1]
000000 89 a4 a7 bd 89 04 1a 3e b6 05 f9 3c 51 87 35 be
       -0.081856795 0.15040793 0.030398231 -0.177274
000010 42 db ed bb a7 ec 86 3d 14 2a da bc 5b d7 15 bd
       -0.0072588036 0.065881066 -0.026631393 -0.036582332
000020 25 48 1b 3c 3a 6e 67 be d9 fa b4 3e f3 4e cb bd
       0.00947765 -0.22600642 0.35347632 -0.09927168
000030 83 88 14 3d 46 99 20 3e 44 a1 2e 3d 66 36 28 be
       0.036263 0.15683469 0.042634264 -0.16427001
000040 a8 d4 58 bd ba 4e b7 3d c9 42 60 be 93 97 32 3e
       -0.05293718 0.08950563 -0.21900477 0.17440633
000050 b2 ca 28 3e 5a b8 99 bd b8 3c 8c 3d d1 72 07 be
       0.16483572 -0.075058654 0.06847519 -0.13227393
000060 84 0b 66 be 9e 0f 62 3e 3e 94 8f bd f8 04 9a bd
       -0.2246533 0.2207627 -0.07010697 -0.07520479
000070 8e ad c4 3e 30 a9 86 3c d0 02 e2 bd 54 1d 50 3e
       0.38413662 0.016438097 -0.11035693 0.20323688
000080 de 94 86 be bf 8b 69 be 46 f9 63 3e fe 19 97 bd
       -0.26285452 -0.22807215 0.22263059 -0.073780045
000090 20 c4 87 be 45 2c 94 bd 1d a6 9b be 3d 32 b1 bd
       -0.2651682 -0.07235006 -0.30400172 -0.0865216
0000a0 36 e3 a6 bc 34 10 6f be c1 d6 1e be c5 5e 42 3e
       -0.020372014 -0.23346025 -0.1551161 0.18981464
0000b0 a2 c6 85 be f9 32 1f 3d 55 a8 86 3e 6a 47 af bc
       -0.26128107 0.03886697 0.26300302 -0.021396358
0000c0 35 5a 0e be 00 ea 1e be 6e a4 20 be d9 39 27 bd
       -0.13901599 -0.15518951 -0.15687725 -0.040826652
0000d0 89 cb b6 be 6b a4 4d 3c 88 d9 2e be e7 c1 60 bd
       -0.3570216 0.012551407 -0.17075169 -0.05487242
0000e0 cb 1e c6 3d 2c e7 85 be af 96 89 3b 7d 26 92 3d
       0.09673842 -0.26152933 0.004198871 0.07136247
0000f0 ce a0 96 3e 74 88 fc 3d 46 41 30 bd ef c3 8e 3d
       0.2941956 0.12330714 -0.043031 0.06970965
000100 6c 5a 0b 3d 8a 9d b6 3d 9b a8 5b be 6c 0b 3d 3e
       0.03402178 0.08916767 -0.21451037 0.18461388
000110 f5 8e d0 bd 61 ca 96 3d f5 bb d4 bc 6b 2f 3a 3e
       -0.10183517 0.073628195 -0.025968531 0.18182151
000120 97 4f c0 bc d7 9f f5 3e d6 b4 81 be 52 7f a9 be
       -0.023475451 0.4797351 -0.2533328 -0.3310495
000130 ea 2a fc bd 99 9f be 3e 77 8a a7 3d 94 1c ce 3e
       -0.12312873 0.37231138 0.08180707 0.40256178
000140 3c dc 5b bd 88 e7 41 3d 63 0a 7c 3e 40 32 60 3d
       -0.05367683 0.047339946 0.24613337 0.054735422
000150 9b 41 b1 bd a5 55 e9 3d ad c4 93 3e e4 4e cd be
       -0.086550914 0.113932885 0.2886099 -0.4009925
000160 85 66 96 bd 98 bf 14 3e 79 bd d8 bd 4e b1 92 3e
       -0.07343773 0.14526212 -0.10583014 0.28650898
000170 84 51 79 be 5e d9 a7 3e 42 90 b4 3e c0 06 29 3e
       -0.24347502 0.32783026 0.3526631 0.16506481
000180 97 14 74 3e 60 d8 e4 bd 89 74 c9 be 42 ba 0b 3e
       0.2383598 -0.11174083 -0.39346722 0.1364527
000190 8b a3 9d be 59 9e 58 be ae 32 56 bd 31 6b d4 bd
       -0.30788836 -0.21154155 -0.052294426 -0.10372008
0001a0 c2 fe e6 3c 03 cb 2c bd c9 33 a9 3d 6a 51 47 be
       0.02819765 -0.042185795 0.0826183 -0.19464651
0001b0 06 8f ad 3d 0a c9 77 bd 5a 90 88 be b8 7b f4 bd
       0.08474545 -0.06049446 -0.26672632 -0.1193766
0001c0 e0 49 a4 3e d8 3c be bd 54 14 d6 3d 01 16 7c 3e
       0.32087612 -0.09288949 0.10453096 0.24617769
0001d0 cf 53 7f 3d 7a 05 33 3e 8c b6 97 bc 31 e5 e7 bd
       0.062335785 0.17482558 -0.018519662 -0.11323012
0001e0 9d 62 03 3e ec d4 0d 3e 4f d9 03 be 5a 72 3b 3c
       0.12830587 0.13850754 -0.12875865 0.011440838
0001f0 38 87 01 3e 0e f8 87 3e 37 aa a0 3d df 84 a0 3e
       0.12649238 0.26556438 0.07844966 0.31351373
000200 cb 27 3f 3d bb 02 c6 bd 17 75 3c 3e 4e 59 76 3d
       0.04666881 -0.096684895 0.18404041 0.06014376
000210 35 b1 01 bc f4 be cf 3d 49 85 df 3d f1 90 25 be
       -0.007915785 0.10143843 0.10914094 -0.16168572
000220 31 44 07 3e 9c 32 16 be d8 db d9 bc 54 bc ab 3d
       0.13209607 -0.14667743 -0.026594087 0.0838553
000230 f7 32 28 bd 3d fb 26 3d 66 37 d1 bc 01 aa 0f 3e
       -0.04106423 0.040766943 -0.025539111 0.14029695
000240 47 f5 38 be 4b 49 01 be 8d dc 08 bd f1 c5 0d 3d
       -0.18062316 -0.12625615 -0.03341346 0.0346126
000250 86 27 d3 bd dd b2 d7 bc 68 df 9e bc 64 9f fa bc
       -0.10310273 -0.026330406 -0.019393638 -0.030593581
000260 f5 59 3d bd 99 29 b5 bd 01 60 f5 bc f8 07 d5 bd
       -0.046228368 -0.08845825 -0.029953005 -0.104019105
000270 58 53 38 3e 0a 8c 1c bd b9 79 16 bf bb d0 ee bd
       0.18000543 -0.03821949 -0.58779484 -0.11660906
000280 c6 d1 2d 3e 7b 9e e0 bd 7d f9 17 be e1 26 11 3e
       0.16974553 -0.10967728 -0.14841266 0.14174987
000290 98 45 8c bd 30 f8 8e 3e c5 e4 8c bd 54 cd 9d bd
       -0.068492115 0.27923727 -0.06879572 -0.07705179
0002a0 ed 08 8e be 76 0d 31 bd 8c ad d8 bc a0 9a 35 be
       -0.27741185 -0.043225728 -0.026449941 -0.17734766
0002b0 a3 c8 bc 3d d3 92 b3 3d 95 d2 89 3d ce 66 24 be
       0.09217956 0.08768239 0.067296185 -0.16054842
0002c0 b1 de 14 bd 28 c0 90 be 9a 06 2d 3e 7d 50 02 3e
       -0.036345188 -0.28271604 0.1689705 0.12726016
0002d0 95 37 23 3e 75 20 fc bc eb ec f0 3b 72 67 61 bb
       0.15939172 -0.030777195 0.0073524616 -0.0034393934
0002e0 0b 46 3d bd 07 0d 92 bd 51 79 b7 bc 40 fb ac bd
       -0.046209376 -0.07131391 -0.022396715 -0.0844636
0002f0 11 07 4d be bc 0e a3 3d b4 99 8c 3e f2 5b d3 bd
       -0.20022227 0.07961795 0.27461016 -0.103202716
000300 06 55 a7 be 37 7a aa 3e c0 90 c3 bd 4b 69 30 be
       -0.32682055 0.33296368 -0.09549093 -0.17227666
000310 f9 c6 83 ba 6d ed 15 be 95 3c f1 3d 5a 19 95 3b
       -0.0010053805 -0.14641352 0.11779133 0.0045501413
000320 4c 01 7c 3e f8 a2 e3 3d 1f 12 fd 3b 5d ea 1e bc
       0.2460987 0.11115068 0.0077231075 -0.009699431
000330 4d 45 cb 3e fb 32 0e bd 67 95 25 3e 7d 95 29 3e
       0.3970131 -0.034716588 0.16170274 0.16560932
000340 36 a3 a2 bd 8d 25 48 bd 36 b5 8a be e9 ff 96 3d
       -0.07941286 -0.048863936 -0.27091378 0.0737303
000350 f3 43 5d 3a ca de 41 be d7 93 43 be 1f 8b c8 bc
       0.0008440606 -0.18932644 -0.19099365 -0.0244804
000360 c4 f8 5e 3d ae e5 af 3e ba 92 93 be 8f a4 a5 be
       0.05443646 0.3435492 -0.2882288 -0.3235211
000370 70 72 9e 3e 9b 1c 5a be 1f 3f a1 3d 39 a4 43 3e
       0.30946684 -0.21299975 0.078733675 0.19105615
000380 b9 ff a0 be 33 10 db bd 73 4a 2e bd 98 59 88 3d
       -0.314451 -0.10696449 -0.04255147 0.06657714
000390 df c7 05 be 1d c3 01 bc f8 c1 3c be 53 30 d6 bd
       -0.13064526 -0.007920054 -0.18433368 -0.10458436
0003a0 69 cf 18 3e ac 21 91 be f0 6a 10 be 19 4c c8 3e
       0.1492287 -0.28346002 -0.14103293 0.39120558
0003b0 8d 77 64 be f3 f6 87 3e 89 3b c9 bd a5 51 a7 3d
       -0.2231123 0.26555595 -0.098258086 0.08169869
0003c0 b7 75 22 3d ff 51 1b 3e b4 c4 89 3d 5f 5c 3f 3d
       0.039663043 0.15167998 0.06726971 0.04671895
0003d0 18 2c 6b bd e3 a7 49 bc 64 9c 63 be 13 55 87 be
       -0.057415098 -0.012308094 -0.22227627 -0.26432094
0003e0 d8 96 6f bd bd 9c 23 3e 72 63 11 bd 71 93 d4 ba
       -0.058493465 0.1597776 -0.03549523 -0.0016218257
0003f0 50 ba 9e bd e2 84 fb be bd 22 57 bd 76 0a 2f be
       -0.0775038 -0.4912482 -0.052523363 -0.17093834

update_module.0.bias f4 [32]
000000 e7 18 6b bd 3a 89 a2 3d d9 4a 0e bf 2e e1 79 3c
       -0.057396796 0.0793633 -0.5558296 0.015251441
000010 d0 ff e9 bd 72 30 91 be 1c cc 31 bd 1c ad 19 be
       -0.114257455 -0.28357273 -0.043407544 -0.15007442
000020 73 44 0d bd 4c d3 6f bd e4 d2 e2 3c 70 9a 50 bc
       -0.034489106 -0.058551118 0.027688451 -0.012732133
000030 fd 8a 16 bd 34 e0 1e bd 54 88 38 bc ef 94 e9 bd
       -0.036753643 -0.038788036 -0.011262972 -0.1140536
000040 e9 eb bf bd 54 65 2a bd 2f d2 a0 bd f2 fb 98 be
       -0.09371168 -0.04160054 -0.07852589 -0.2987972
000050 ed 52 06 3d ac 66 4c be 3f bd f9 be 57 f3 1a bf
       0.032793928 -0.19961041 -0.48777196 -0.6052756
000060 71 00 cc bd bf 36 81 bc b0 3b 76 bd ac 91 61 bc
       -0.09961022 -0.015773175 -0.060115516 -0.013767641
000070 37 59 01 3d 28 99 9a 3a d6 30 f0 bd 8d 6c 75 bd
       0.031579223 0.0011794912 -0.11728065 -0.059917975

update_module.2.weight f4 [16, 32, 1, 1]
000000 2f e7 4e 3e 1b de 43 bb 63 8f 3b be 43 90 b4 bc
       0.20205377 -0.0029887024 -0.18316416 -0.022041446
000010 2b 44 ae 3d e3 84 1c bc 4d 8d 43 bd d6 3d 14 3d
       0.08509096 -0.009553167 -0.047742177 0.036191784
000020 da f0 4a 3d 21 95 91 bd 0d 2a 89 3e 78 aa 1d 3e
       0.0495461 -0.07108522 0.26789895 0.1539706
000030 61 86 37 3d 01 3e 21 3e 86 5b 36 3d 01 32 43 bd
       0.044805888 0.15746309 0.044520877 -0.04765511
000040 0c ea 1d 3e 01 9e 3b bd 0a 0e 1f 3e 42 cd 85 bd
       0.15421313 -0.04580498 0.15532699 -0.065332904
000050 81 ab 32 bc a4 4b 22 3d c7 fc 1e be 49 9c 1e be
       -0.0109051475 0.039622918 -0.15526114 -0.15489306
000060 0d ae 84 3d 0c 85 5e 3c 74 a3 99 3d e1 07 75 3e
       0.0647851 0.013581526 0.07501879 0.23928787
000070 4e 74 e0 bb d5 94 67 3e c5 fc 9e 3d 48 9e 8e 3e
       -0.006849802 0.22615369 0.07763056 0.27855134
000080 58 bc ff 3d 1a 11 d5 3b 5c 85 99 bd 80 2e 09 bd
       0.124870956 0.006502283 -0.074961394 -0.03349161
000090 1f 85 17 3d 52 cb 88 bc a3 98 5a bd d8 53 8a 3d
       0.03699219 -0.016698513 -0.053368222 0.06754273
0000a0 01 a8 bd 3c f6 44 87 bd 01 e8 32 3e 7c 51 08 3e
       0.0231514 -0.0660495 0.17471315 0.13312334
0000b0 7d 39 28 3c f9 24 03 3e 98 35 3b 3d a6 50 d3 bc
       0.0102676125 0.12807073 0.045705408 -0.025795292
0000c0 68 b7 c8 3d 09 45 00 3c fa 58 5c 3e e3 a8 96 bd
       0.09800607 0.007828959 0.21518317 -0.07356431
0000d0 ee 4f ba ba a6 db 53 b9 9e 68 93 bd c1 09 1f be
       -0.0014214495 -0.00020204353 -0.071976885 -0.15531065
0000e0 d2 d5 86 3d 3e ac 63 3d 40 ed 14 3e 6e 2f 1c 3d
       0.06583752 0.055584185 0.14543629 0.03813117
0000f0 db e8 b8 3d 7e 15 ac 3d a7 23 e9 3d b9 c9 e8 3d
       0.09028789 0.08402537 0.11383753 0.113666005
000100 b1 1c f6 3c 90 86 cc 39 da 8b b7 bc 0f 40 bb bb
       0.030042978 0.0003901017 -0.022405554 -0.0057144235
000110 23 3c 78 bc 2d 0b 2b bb 2b 87 81 bc ea 27 c0 3c
       -0.015151056 -0.002609919 -0.015811523 0.023456533
000120 38 13 f2 3b 85 9d 79 bc 60 b5 0f 3d de 3f 66 3c
       0.007387545 -0.0152353095 0.035085082 0.014053313
000130 9b c5 95 bb 88 55 c2 3c d3 2a d0 3c 88 b8 dd 3a
       -0.0045706755 0.023722425 0.025411045 0.0016915957
000140 8d 2e ce 3b c1 ed 99 3c ea 4f 29 3d 26 e0 17 bc
       0.0062921704 0.018790128 0.041335978 -0.00926975
000150 e2 7d ab 3b 1e 8d 9f bc 64 d6 4d bd fd b1 45 bd
       0.0052335123 -0.01947647 -0.050253287 -0.048265446
000160 c5 c9 db 3b 52 38 1c 3d 81 b0 32 3d ce 2f 58 3d
       0.0067074024 0.03813965 0.04362536 0.052779965
000170 75 eb 20 3d 6b c1 09 bd 3b bc 09 3d ed 75 51 3b
       0.03928705 -0.033631723 0.033626776 0.0031961158
000180 82 f4 62 3e 36 95 b6 3c 3b cb 1a be bd 62 80 bd
       0.22163585 0.022287946 -0.15116589 -0.06268833
000190 44 99 f3 bc 73 25 11 bd 50 93 ba bd 50 a9 e7 3d
       -0.029736169 -0.035436105 -0.09110129 0.11311591
0001a0 04 09 70 3d 15 b8 fa bd eb 22 4d 3d 4a e6 76 3e
       0.058602348 -0.12242142 0.05008213 0.24111286
0001b0 0d 13 3b 3c b1 3d 6d 3e 53 e4 cc 3d 11 03 e5 bc
       0.011418116 0.23168065 0.10004487 -0.027955564
0001c0 f3 92 1a 3e 73 c3 76 3d d6 6c b3 3e 50 56 e6 bd
       0.15095119 0.06024499 0.35043973 -0.112469316
0001d0 6b 83 d7 3c cf 52 ce 3b d3 49 8e be 52 1b 97 be
       0.026307782 0.0062964926 -0.27790698 -0.2951303
0001e0 a8 90 bd 3d cd 7f 9d 3d 9b 38 88 3e 04 3c 3a 3e
       0.092561066 0.07690392 0.26605687 0.18186957
0001f0 50 1f 49 3e 72 f3 c7 3d 3d a5 51 3e fa 37 7c 3e
       0.19640851 0.097632304 0.2047319 0.24630728
000200 e4 4d 40 3e 80 f0 ac be 84 ef 71 bd 1c 5e 8d be
       0.18779713 -0.33777237 -0.05906631 -0.27610862
000210 1f 50 c1 be 41 f1 20 3e 0c 2d ce bd 01 56 87 be
       -0.3775644 0.15717031 -0.10067186 -0.26432803
000220 90 19 ff bd 65 c3 a4 be 01 7b 3c 3d df e9 8e 3d
       -0.124560475 -0.32180324 0.046015743 0.06978201
000230 4f cb 09 be 00 e2 ba 3e 45 1c 28 be b2 ec 5c 3e
       -0.13456462 0.3650055 -0.16417034 0.21574667
000240 87 74 33 be 39 68 ac bd 86 6c a8 3d a8 89 a0 bd
       -0.1752492 -0.084183164 0.08223824 -0.07838756
000250 fe d3 5b be f2 28 ba 3e 41 bd ab 3d 08 5b b9 3b
       -0.21467587 0.36359364 0.08385707 0.0056566037
000260 a2 d9 d7 be 6e 65 f5 3d 11 94 18 3e a1 cd e9 3b
       -0.42158228 0.11982237 0.14900233 0.0071351086
000270 c2 ce 40 3d 8d 7c 7f bd a0 8f 17 3e 65 fd 85 3e
       0.04707218 -0.06237464 0.14800882 0.26169887
000280 e5 7d 0b 3d 26 5b 54 be 53 d5 50 3e 80 2d ba bd
       0.03405561 -0.20737895 0.20393877 -0.0909071
000290 aa 70 73 bd c6 ca a3 3e 1f 49 49 3e 1c 6d 19 be
       -0.059433617 0.3199064 0.196568 -0.14983028
0002a0 28 06 b6 be 91 82 95 3e 86 6b 22 3e 0a 5d 59 3e
       -0.35551572 0.29201177 0.1586133 0.21226898
0002b0 ed 99 ba 3e d6 35 9a 3e 9c bc 35 bd 44 8b 7e 3e
       0.3644556 0.301192 -0.044369325 0.24857813
0002c0 5d 3a 8a 3e dc 65 bf bd 38 37 03 3e c2 2c 0b be
       0.26997653 -0.093456 0.12814033 -0.13591293
0002d0 b4 9d 35 bd 8a 16 e1 3d 1b f1 57 3e b0 ae bf bd
       -0.04433985 0.10990627 0.21088068 -0.09359491
0002e0 4c b4 bd 3e 07 bf 6c 3d b8 77 06 3f 30 84 92 be
       0.37051618 0.057799365 0.52526426 -0.28616476
0002f0 3c 32 f0 bd 32 ae eb bd 1b d1 cd 3e ef 6e 89 bd
       -0.117283314 -0.115078345 0.40198597 -0.06710612
000300 cb 57 06 bd 3f 50 ef bc 16 c2 d4 be 7b 3c bf 3c
       -0.03279857 -0.029213069 -0.41554326 0.023344269
000310 dc cb b1 3d c9 af 83 3e 67 0e 27 3f 52 e1 ba 3d
       0.08681461 0.2572005 0.6525635 0.09125008
000320 dc 62 87 be 15 5e bf 3d 27 3f e9 3d be 8a 53 bd
       -0.2644261 0.093441166 0.113889985 -0.051645987
000330 02 65 80 bc 5a 43 1c bc 36 77 36 3d 41 7d b0 bd
       -0.015673164 -0.009537542 0.044547282 -0.0861764
000340 f5 ba 3f be c4 3d f5 bd ef 82 0d bc 65 e6 9f 3d
       -0.18723662 -0.119746715 -0.008637174 0.07807616
000350 25 78 f1 bd 35 e3 83 3d 2a f9 95 3e 23 73 d0 3e
       -0.11790494 0.06439821 0.2929166 0.40712842
000360 5b 5d 3a be 89 f7 ca bc af d5 d8 bb 19 a2 97 3e
       -0.18199675 -0.024776237 -0.00661727 0.29615858
000370 6e e5 ef bd dc 19 12 3d f5 92 fd 3d ca 05 05 be
       -0.11713682 0.035669193 0.123815455 -0.1299049
000380 09 fe 25 3e e4 79 06 3e cc f5 41 be 1e 9c ac bc
       0.16210188 0.13132435 -0.1894142 -0.021070536
000390 5e c0 f3 3e 5c b2 69 be 7c 47 fe be fe da 81 be
       0.47607702 -0.22821945 -0.49663913 -0.2536239
0003a0 f0 e0 44 be 34 fa e0 3d 6f 34 5b 3d 0a 97 5a 3e
       -0.19226432 0.109852225 0.0535168 0.2134668
0003b0 15 ed 3c 3e 40 1b 74 be a4 85 31 bd d6 fd 9d be
       0.18449815 -0.2383852 -0.04334034 -0.30857724
0003c0 d8 5f ba 3b ae 30 a3 be 0e 54 8d 3c ec 91 bf 3e
       0.005687695 -0.31873077 0.017251994 0.37416017
0003d0 c7 86 1a be d0 68 bc bd fe 5e 9a 3d 9d 6c 1b be
       -0.15090476 -0.09199679 0.075376496 -0.15178151
0003e0 da 52 34 bc d7 89 9b be 17 5b 4b be 56 e7 d4 3d
       -0.0110060815 -0.303786 -0.19858967 0.10395686
0003f0 e7 38 9a be 48 d7 8c 3d 41 9a f2 3c 10 7f 2c 3e
       -0.30121538 0.06876999 0.02961457 0.16845345
