automata_ex/logs/withPool/9-CARROT-train_05-05-2022_17-04-48/models/model_8500.pt (torch, 9699 bytes, 3 tensors)

update_module.0.weight f4 [32, 48, 1, 1]
000000 a1 4c 11 bd fe 57 16 3e 5a 79 97 3d d7 0a 0d be
       -0.03547347 0.14682004 0.07396193 -0.13773666
000010 bc 9c e2 bc dd 80 de 3d 80 f8 15 3d e6 f0 ca bc
       -0.027662627 0.108644225 0.03661394 -0.024773072
000020 c5 9f 7d ba 1f 9d 3f be 1d 71 ad 3e 8f d4 8e bd
       -0.00096749916 -0.1871228 0.3387536 -0.06974136
000030 b1 f5 6a bc e4 0c bb 3d e2 11 56 3d cf e2 85 bd
       -0.014340804 0.09133318 0.052263148 -0.06537401
000040 92 4c ae bd 8d 61 8f 3d b2 c2 17 be ac fb 3d 3e
       -0.085106984 0.07001028 -0.14820364 0.18553036
000050 99 d8 ee 3c c1 d1 f7 bd a9 20 a9 3d 9f e4 19 be
       0.029156016 -0.12100554 0.082581826 -0.15028618
000060 d7 9c 2d be 93 bb 5d 3e bc a4 86 bd 2c 85 64 bd
       -0.16954361 0.21653585 -0.06574389 -0.055791065
000070 0c bc 9f 3e 85 1c 76 bc d6 72 18 bc f6 81 80 3e
       0.31198156 -0.015021448 -0.009304723 0.25099152
000080 63 5a 79 be 3f ff 65 be f2 85 02 3e 8e e7 17 be
       -0.24350886 -0.2246065 0.12746409 -0.14834425
000090 f4 11 2b be 29 6a f3 3c ac bb 91 be f8 24 08 bd
       -0.16706067 0.029713707 -0.28463495 -0.03323838
0000a0 23 de 4d 3c 44 fd 5e be 01 b0 cf bd 87 d0 3f 3e
       0.012565169 -0.217763 -0.10140992 0.1873189
0000b0 51 93 5b be 20 44 a7 bc 35 95 6e 3e 3a c1 88 bd
       -0.21442915 -0.020418227 0.23299105 -0.0667748
0000c0 37 f5 a1 bd 2e 25 fa bd 20 6e d7 bd 60 fc b8 3c
       -0.07908099 -0.12214123 -0.105190516 0.02258128
0000d0 51 c3 ad be d8 cf 86 3c ab 8e cb bd 86 a9 95 bc
       -0.33938077 0.01645653 -0.09939321 -0.018269312
0000e0 d8 e8 bc 3d 25 b9 2c be 12 39 39 3d 2f 95 23 3d
       0.09224099 -0.16867502 0.045220442 0.039937194
0000f0 56 52 35 3e 5f 3d e4 3d b7 88 17 3c 55 ad c2 3d
       0.1770719 0.11144518 0.009248904 0.09505717
000100 f4 fb 23 3c 21 f5 01 3e 11 37 de bd 66 7c 0a 3e
       0.010008801 0.12691166 -0.10850347 0.13524017
000110 8d 6e 8a bd ab 3c 8c 3d c4 c5 ef 3d 07 a5 bf 3d
       -0.06759367 0.06847509 0.11707643 0.09357648
000120 a7 fd d5 bc e5 87 dd 3e 7d ed 80 be 3b 5e 4a be
       -0.026121927 0.43267742 -0.2518119 -0.19762509
000130 3e 21 9c bd 0d 64 4e 3e f1 25 7e 3d 1d 67 c4 3e
       -0.07623528 0.20155354 0.062047902 0.3835992
000140 56 fa d3 bd c6 d7 e8 bc 58 6d 56 3e 12 69 0d 3d
       -0.10350482 -0.028423201 0.20940149 0.03452403
000150 81 f7 29 be dd 5f 9c 3d a7 d1 53 3e da ed 7a be
       -0.16598321 0.07635472 0.20685445 -0.24504796
000160 c2 0b c5 3c 25 77 f4 3d ae 89 22 be e5 81 30 3e
       0.024053458 0.119367875 -0.15872833 0.17237051
000170 60 87 eb bd 42 be 92 3e 76 41 b6 3e d8 3d 98 3d
       -0.1150043 0.2866078 0.35596818 0.07433671
000180 2b eb 45 3e 75 2c 8a bc 83 2e c6 be 37 ff 2b 3e
       0.1932799 -0.016866902 -0.3870736 0.16796575
000190 ec 12 4b be e7 9f 6a be f6 16 f4 3c 0f e3 bd bd
       -0.19831437 -0.2291256 0.029796105 -0.092718236
0001a0 b7 1c 05 be 78 26 fc bc 43 d3 f0 3d 4b 6c 52 be
       -0.12999235 -0.030780062 0.11759045 -0.20549123
0001b0 43 62 60 3d 4d ee 3f be ec 5c 25 be f8 2d a4 bc
       0.05478121 -0.18743248 -0.16148728 -0.02004145
0001c0 b6 4d 26 3e da 8b 19 be 4f ba df 3d d8 18 1c 3e
       0.16240582 -0.14994755 0.109242074 0.15243852
0001d0 77 06 c1 bb 6b 9e 32 3e 85 ea 3f bc ff 5f 82 bc
       -0.0058906632 0.17443244 -0.011713629 -0.015914915
0001e0 e5 75 4a 3e f1 3d 77 3c 7d c2 2f be c6 1f 9c bc
       0.19771536 0.015090452 -0.17164035 -0.01905812
0001f0 ad 59 00 3e 39 ef eb 3d db c9 79 3d 7e 17 8a 3d
       0.12534209 0.115202375 0.06098352 0.06742762
000200 1a ea 97 38 23 9e e8 bd 26 8e 39 3e 53 58 9d 3c
       7.243846e-05 -0.11358287 0.18120632 0.019207155
000210 21 e0 38 bc 5d c3 64 3d 4e 40 c7 3d 14 1d be bd
       -0.011283905 0.055850375 0.09729062 -0.0928289
000220 23 4e ac 3d 1b 90 06 be e9 8f ac bc 58 1d 8d 3d
       0.08413341 -0.1314091 -0.021064715 0.068903625
000230 29 a1 ab bd db 65 2b 3d 40 33 64 be 33 dd 0b 3d
       -0.08380348 0.041845184 -0.22285175 0.0341465
000240 6e b1 ce bd 39 f8 14 be 9f 7f 5d bd 55 69 a1 3d
       -0.10092436 -0.14547814 -0.054076787 0.078814186
000250 24 ae 37 be 80 b6 a4 bd 3d 17 33 3d bf 0f d8 bd
       -0.17937523 -0.080426216 0.043723334 -0.10549878
000260 ef 24 a6 bd 18 0b 9f 39 46 ce 83 bd d3 2c 19 be
       -0.08112513 0.0003033511 -0.06435828 -0.14958505
000270 d2 b0 79 bc 39 9c 12 be f3 46 b6 be 32 99 b5 3c
       -0.015239911 -0.14317407 -0.35601005 0.022167776
000280 0c 86 9b 3d 27 9e 0d be f7 99 10 be cf 31 f4 3d
       0.07593927 -0.13829862 -0.14121233 0.11923563
000290 ca e8 8f bd d3 78 1c 3e f6 2b 38 bd b2 08 c7 bc
       -0.07026823 0.15280466 -0.0449638 -0.024296138
0002a0 e7 8f de bd c1 ce f2 3c 59 45 a7 bd 9f aa 2d be
       -0.10867291 0.029639604 -0.08167524 -0.16959618
0002b0 5c 7f 73 3d e5 f0 ae 3c 4b 51 1b 3e 49 f8 28 be
       0.05944763 0.021355102 0.1516773 -0.16500963
0002c0 fe c9 77 bd 2d 84 80 be 30 8d ec 3d a3 0b 12 3c
       -0.06049537 -0.25100842 0.11550367 0.008913907
0002d0 56 19 3f 3d e5 7b 42 bd f8 69 1c bd ab 82 26 bd
       0.04665502 -0.047481436 -0.038186997 -0.04065196
0002e0 d4 ff 39 bc 63 e4 cc bd 3d c4 dd 3d 92 b5 55 bd
       -0.011352498 -0.10004499 0.10828445 -0.052175112
0002f0 a5 a3 68 be ce 9d d9 3d ec 0a 4d 3e f1 f3 52 bd
       -0.22718675 0.10625802 0.20023698 -0.051502172
000300 ad fe 5c be f4 10 91 3e 42 06 94 bd 19 23 06 be
       -0.21581526 0.28333247 -0.07227756 -0.13099326
000310 93 d2 40 bd 21 e9 39 be e3 e7 82 3d 34 ce 70 bd
       -0.04707582 -0.18155338 0.06391885 -0.0587904
000320 0a cd 60 3e fd 13 fc 3d 7c f0 47 bd cb 0f 88 bd
       0.21953216 0.123085 -0.04881333 -0.06643637
000330 06 c6 8e 3e 63 bd 88 3d 42 46 f2 3d 5b 31 3a 3e
       0.27885455 0.06676748 0.11829807 0.1818289
000340 c8 14 5c bd a0 8a b4 bd 2e 0b 73 be 87 eb 88 3d
       -0.053730756 -0.08815503 -0.23734733 0.06685548
000350 d4 96 1c 3d b5 a3 fb bd 7a 8b da bd 2f c0 89 bc
       0.03822978 -0.12287084 -0.10671134 -0.016815273
000360 21 bd a3 3d ac e8 95 3e f0 a1 a7 be d2 10 89 be
       0.07995058 0.29279077 -0.32740736 -0.26770645
000370 0d c0 7c 3e b3 76 54 be 8b ba 84 3c d8 e9 c7 3d
       0.24682637 -0.20748405 0.016202232 0.09761399
000380 e8 c5 95 be ef b0 cd bd 5b b1 9b 3c 3e ca 9f bc
       -0.29252553 -0.10043513 0.019005468 -0.019505616
000390 79 89 39 bd be 2f a8 3d 67 55 5e be 50 11 e1 bd
       -0.04529712 0.08212231 -0.21712266 -0.1098963
0003a0 0e 91 2d 3d 1e 7b 5c be 96 47 77 bd f2 5b ad 3e
       0.042374663 -0.2153134 -0.060371004 0.3385921
0003b0 dd c5 55 be 30 90 72 3e 3d 53 7b bd 0d 96 20 bd
       -0.2087626 0.23687816 -0.06135868 -0.0392056
0003c0 9a 4f c3 3c ab f2 09 bd cf d2 00 3d ac e1 8a 3c
       0.023841668 -0.03367869 0.031451043 0.016953312
0003d0 83 23 1d be 73 4f e9 3c 0d ed 49 be 31 ca 3b be
       -0.15345578 0.028480267 -0.19719334 -0.18338849
0003e0 be e3 51 bb ab 2a 12 3e 0f e5 f2 bd 42 53 13 3d
       -0.0032026614 0.14274089 -0.11860096 0.035968073
0003f0 a8 92 ca bd 7b 17 c4 be c6 77 c1 bd 11 e2 2e be
       -0.09891254 -0.38299164 -0.09446673 -0.17078425

update_module.0.bias f4 [32]
000000 49 9f b1 bc b4 a1 fe 3d 29 6d cf be 79 0d 93 3d
       -0.021682398 0.12433186 -0.4051297 0.07180304
000010 0b 0a f1 bc 5f 53 5b be d2 3c 35 bd 1a 49 69 bd
       -0.029423734 -0.21418522 -0.044247456 -0.05695448
000020 75 f4 c5 ba a9 dc 60 bc 0a 34 88 3d 81 5b 8f 3c
       -0.0015102761 -0.0137244845 0.06650551 0.017499687
000030 62 19 26 bc a5 62 c9 bc 3f 04 45 3d c9 9e 45 bd
       -0.010137888 -0.02458317 0.048099753 -0.048247132
000040 63 2f c6 bc 53 70 b0 bd a7 04 5a bc 69 1c 67 be
       -0.024192518 -0.08615174 -0.013306773 -0.22569431
000050 d8 07 8d 3d 19 14 b1 bd d8 cb bc be 9a 7c da be
       0.06886262 -0.086464114 -0.3687427 -0.42673188
000060 4f a3 9c bd 80 fe 89 3c b8 3f 09 bc 56 b8 47 3d
       -0.07648336 0.016844988 -0.008377008 0.04875978
000070 dd af b4 3d cb 66 a6 3c 46 28 bb bd ed 34 e2 bc
       0.08822606 0.020312687 -0.09138541 -0.027613128

update_module.2.weight f4 [16, 32, 1, 1]
000000 0a 12 06 3e 3e 30 91 bc 12 a7 88 bd fd 8c ce bc
       0.13092819 -0.017723199 -0.06672491 -0.025213713
000010 33 ba 7e 3d a6 91 21 bc 57 f8 8c bd 8e ff e8 3c
       0.062189292 -0.009861385 -0.068833046 0.02844217
000020 75 40 f9 3c d2 9f 60 bd 32 2d 26 3e ce fd bd 3d
       0.030426243 -0.054839917 0.16228178 0.09276925
000030 2a 00 84 3c ed 30 e8 3d 41 ae cb 3c 1f ba 0f bd
       0.01611336 0.11337457 0.024863364 -0.03508961
000040 36 55 7d 3d 8d 09 01 bd 56 76 de 3d d4 40 b1 bc
       0.06184884 -0.03150325 0.108624145 -0.021637358
000050 4f 13 87 bc 93 7a 18 3c aa 82 85 bd 2d d6 4e bd
       -0.0164887 0.009306568 -0.06519063 -0.050497223
000060 a6 e5 9a 3d 77 2e 94 3c 99 23 21 3d 9d 12 02 3e
       0.07563333 0.018088562 0.03934059 0.12702413
000070 9c 9f b7 3b 5f 48 19 3e 22 51 2f 3d 3c 51 5e 3e
       0.0056037437 0.14969014 0.042801984 0.21710676
000080 3e 9b 88 3d a5 a2 10 bc 17 90 0e bd 92 3b d6 bc
       0.06670235 -0.00882784 -0.034805384 -0.026151452
000090 81 3b 07 3d f7 21 6f bc 94 b1 7c bd e9 30 de 3c
       0.03301573 -0.0145955 -0.06169279 0.027122932
0000a0 e5 fc b6 3c e8 be 2d bd 2c 67 b0 3d 4c 9b db 3d
       0.022337386 -0.04241839 0.086134285 0.1072298
0000b0 03 ab 85 bb 12 0b b3 3d 17 a0 ef 3c e6 b4 f7 bb
       -0.004079224 0.08742346 0.029251141 -0.0075594066
0000c0 34 9e 15 3d c8 b9 54 bc 18 c9 0b 3e 28 64 bd bc
       0.036527827 -0.012983747 0.1365093 -0.023119047
0000d0 ab 67 53 bc 48 b4 c8 3b 6f 3b 10 bc a7 ec 2e bd
       -0.012903134 0.006125007 -0.008803233 -0.042706158
0000e0 89 37 69 3d 5a 43 e7 3c 92 3c da 3d 23 4b d8 3c
       0.056937728 0.028230358 0.10656084 0.026403015
0000f0 b7 d1 7d 3d 00 18 39 3d ce dd 1f 3d b0 98 98 3d
       0.061967578 0.045188904 0.03902989 0.07450998
000100 17 9a 43 3c 25 4a 73 bb d8 f1 a1 bb 1f 5d b4 bb
       0.011938593 -0.003712305 -0.00494216 -0.005504265
000110 a8 c7 3f bc 5f 63 16 3a 09 75 74 bc 88 7b 03 3c
       -0.011705317 0.00057368533 -0.0149204815 0.008025058
000120 99 c2 98 3b 36 a6 10 bc 08 f0 a3 3c 1c 87 3f 3c
       0.0046618697 -0.00882869 0.020011917 0.011689927
000130 b0 a0 f0 ba a0 b3 6f 3c 06 7a 1b 3c 6d 11 8a 3b
       -0.0018358435 0.014630228 0.009489542 0.004213503
000140 a3 37 34 3a a0 f0 93 3b 39 34 d1 3c 3d 75 8e bb
       0.00068747456 0.0045147687 0.025537597 -0.004347472
000150 87 b6 ef bb 1f 18 f5 bb 33 60 5d bc 4a f2 cb bb
       -0.00731546 -0.007479682 -0.013511705 -0.0062239515
000160 96 3d 86 bb f2 74 fe 3c a7 df fb 3c e2 dc f9 3c
       -0.004096697 0.031061623 0.030746294 0.030500833
000170 5c fe f9 3c 17 b3 d2 bc 6d f9 b8 3b 30 71 8c 3b
       0.030516796 -0.025720162 0.0056449682 0.004285954
000180 2a 54 24 3e 57 1c 6a bc b7 47 44 bd cf dd 45 bd
       0.16047731 -0.014288983 -0.047919955 -0.048307236
000190 fd 23 01 bc a2 60 cf bc cd d1 de bd c7 2d 39 3d
       -0.007882115 -0.025314633 -0.1087986 0.045209672
0001a0 5c 10 15 3d 93 90 a0 bd d4 1a 6d 3d 73 97 2e 3e
       0.036392555 -0.07840075 0.057886913 0.17049961
0001b0 46 6e 10 3c f3 0c 26 3e 50 2c 45 3d e2 d8 f1 3b
       0.008815354 0.16215877 0.048137963 0.007380591
0001c0 b6 2b b6 3d 59 a1 c6 3b 1f 2b 79 3e ea 09 14 bd
       0.08895056 0.0060617146 0.24332856 -0.036142267
0001d0 92 09 cc bb a9 ee b8 bb ab 54 08 be 43 fe bf bd
       -0.006226727 -0.005643685 -0.13313548 -0.093746684
0001e0 57 9a ca 3d e7 e1 55 3d f2 47 31 3e 25 34 f2 3d
       0.09892719 0.05221739 0.17312601 0.11826352
0001f0 d8 7e 0f 3e aa 96 a6 3c 7d 91 9b 3d 7f 84 40 3e
       0.14013231 0.020335514 0.07596109 0.18800543
000200 e9 25 12 3e 9a 9b 99 be 4f 67 cb bd 51 59 4f bd
       0.14272274 -0.30001527 -0.09931814 -0.05062229
000210 1f 43 43 be fa c3 12 3e 5e 3e 86 3d cc 1c 40 be
       -0.19068573 0.14332572 0.06554864 -0.18760985
000220 2a 7f c3 3c 7c 7c 33 be a1 22 cb bb fd 11 bc 3c
       0.023864347 -0.17527956 -0.0061991964 0.022957796
000230 c6 5a 33 bd c7 21 be 3e 7c 0e 76 bd 39 b3 84 3e
       -0.04378774 0.37135145 -0.060072407 0.25917986
000240 cb b0 bd 3c 93 89 a0 bd 0b a1 e7 3c 4c a7 af bd
       0.02315559 -0.0783874 0.028275033 -0.08576831
000250 1c af 08 be 81 78 8d 3e b0 1f ee 3d 85 a5 9d bd
       -0.13348049 0.27631 0.11627138 -0.07697586
000260 5f 61 80 be d2 9c 05 3d 31 c1 ab 3d 97 a3 90 3d
       -0.25074288 0.03262026 0.08386458 0.07062452
000270 19 ed a1 3d f2 92 e9 bb 86 f6 8a 3d cc 98 3f 3e
       0.07906551 -0.007128113 0.06785302 0.18710631
000280 7b 41 d8 3c f4 46 b2 bd c7 c6 2a 3d 07 9f 0e be
       0.026398411 -0.087049395 0.041693475 -0.13927852
000290 53 75 97 bd 93 a4 6d 3e a2 93 41 3e ed 82 28 be
       -0.07395425 0.23207311 0.18903974 -0.16456194
0002a0 b6 0b 65 be 43 ed 13 3e ce 7c c8 3d 3e 43 f2 3d
       -0.22367749 0.14445977 0.097894296 0.11829232
0002b0 7f 13 5d 3e 66 da 71 3e 78 ab 1d bd ef 7b 46 3e
       0.21589468 0.23618469 -0.038493603 0.19383214
0002c0 6a db 6a 3e a3 e7 e9 bc 1e cb 01 3e 8e f7 c2 bd
       0.22935262 -0.028552836 0.1267514 -0.095198736
0002d0 d9 6b ee bc db 98 8a 3d 88 ae 39 3e 9a 6c 53 bd
       -0.02910416 0.06767436 0.18132985 -0.051617242
0002e0 a0 cc 76 3e 5b 69 d1 3d bc ca b6 3e b0 28 87 be
       0.24101496 0.10225173 0.3570155 -0.2639823
0002f0 c6 b7 07 be e2 72 89 bd ff b1 98 3e 6e 7f 5d bc
       -0.13253698 -0.06711365 0.298233 -0.013519151
000300 bb 2e ca ba 58 e4 69 bd 1b ba 2b be 8c d1 de 3b
       -0.0015425304 -0.05710253 -0.16770212 0.0067998823
000310 32 23 5b 3d ce a6 29 3e 65 5c e4 3e fd f0 c5 3d
       0.05350036 0.16567537 0.4460174 0.096651055
000320 3c c1 f8 bd 15 a4 c2 3c 9d 6a 8c 3d ab 9c dc bc
       -0.121462315 0.023759881 0.06856272 -0.026930174
000330 b8 3f 37 3d 70 47 a4 3d 7b 5b eb 3d 73 4a a2 3d
       0.0447385 0.08021438 0.11492058 0.07924356
000340 6d da c5 bd 8f 55 fa bd 1a c9 2b 3b 05 8d ba 3d
       -0.09660802 -0.1222335 0.0026212395 0.091089286
000350 11 a2 a3 bd be 33 aa 3d 03 90 a2 3e b4 a3 45 3e
       -0.07989896 0.0831065 0.31750497 0.19300729
000360 f2 a4 2a bd ea 9e 7c bc ab 22 57 ba 39 56 80 3e
       -0.04166121 -0.015418747 -0.0008206765 0.25065783
000370 22 e4 7b bc b6 1d f8 3d c9 67 bb 3d cd 3b f4 bc
       -0.015374215 0.12115042 0.09150655 -0.029813671
000380 91 76 4b 3e 2c d9 1b 3e d1 f7 87 be 46 f0 23 bd
       0.19869448 0.15219563 -0.26556256 -0.040024064
000390 d7 bf 8d 3e d7 06 fc bd 92 f8 c6 be cc fe 28 be
       0.27685425 -0.12305992 -0.3886152 -0.16503447
0003a0 b2 1e 3d be eb 3a 51 3c ec fe 69 3c a0 16 be 3c
       -0.1846874 0.012770395 0.0142819695 0.023204148
0003b0 33 4d 44 3e f0 da 87 be 7d fc 80 bd 50 bf 52 be
       0.19170074 -0.26534224 -0.06298158 -0.20580792
0003c0 d8 0c bd bd d6 5b 64 be ec 5a 8f bc 81 09 48 3e
       -0.092309654 -0.22300658 -0.01749941 0.19534875
0003d0 fc 27 2c be d8 f8 11 3d a9 a3 c6 3d 55 87 c5 3c
       -0.16812128 0.035637707 0.096991844 0.024112383
0003e0 fb ff bf bd a4 91 20 be 00 f7 d2 bd df ea f3 3d
       -0.09374996 -0.15680557 -0.10301018 0.119100325
0003f0 77 cf 90 be f3 34 5a 3d a7 98 71 bd 9d 06 2c 3d
       -0.28283283 0.053273153 -0.05898347 0.041998494
