automata_ex/logs/withPool/9-CARROT-train_05-05-2022_17-04-48/models/model_14500.pt (torch, 9699 bytes, 3 tensors)

update_module.0.weight f4 [32, 48, 1, 1]
00000000: bad2 97bd 259c 1f3e 6efa dd3c f070 2cbe
00000010: 538a adbb d0db 853d be3a a2bc 80b1 18bd
00000020: 8657 9e3b 97ab 5dbe 0bbb b43e 62f2 d2bd
00000030: 5a25 253d 8334 233e b9aa 373d deed 24be
00000040: a663 83bd 0b3d c53d dc8b 5cbe 96d2 3a3e
00000050: fea6 283e e679 a4bd 9431 8a3d 58fc 0abe
00000060: 2b8f 68be ef05 693e af78 9cbd dfe6 96bd
00000070: cdaf c63e 8cc0 1e3c 7d88 dabd d0b9 563e
00000080: 4ba3 8ebe dffe 71be 17a5 5b3e 1595 92bd
00000090: 83fe 84be 4956 91bd c058 9abe a508 a2bd
000000a0: ee08 8fbc c986 74be c529 1abe d3e4 413e
000000b0: eba2 85be c517 273d aabf 863e e450 87bc
000000c0: a1cc 01be 4130 17be fdff 18be 510f f9bc
000000d0: 46e7 b4be 7d68 303c b525 26be 1f18 49bd
000000e0: ef2c c23d d825 7bbe fe5f 243c 242b 863d
000000f0: 6700 9b3e 9c2e 093e 3435 35bd b9b2 b03d
00000100: 7845 0b3d 27ea b53d fbb7 4ebe 7e3f 4a3e
00000110: 41a6 c2bd 94d6 ad3d 3432 c4bc aaf8 3c3e
00000120: 84c3 c0bc 2ace f73e 7333 84be 6861 aabe
00000130: fc4f f9bd 9bc3 b93e 6fd3 a83d 1c73 d03e
00000140: 3b15 78bd 23c4 383d c176 743e aa6b 673d
00000150: 6290 b2bd d8f7 e13d d1b1 933e 4739 c4be
00000160: 0126 84bd 63a1 133e b619 c6bd 012d 993e
00000170: 03e4 80be 67e5 aa3e 27a5 b73e 93b0 1e3e
00000180: 2eda 6f3e 7915 e1bd ad6f c9be 1b36 0a3e
00000190: ac6f 9dbe 0d5c 59be f06d 39bd ac79 06be
000001a0: 3c91 b83b 89dd 2dbd fff5 a33d c86c 49be
000001b0: 75ee af3d 457d 93bd 333b 85be f695 f5bd
000001c0: d02b a43e 1fad ccbd a4d9 d63d 3244 793e
000001d0: 3120 803d 5cc5 303e c3a9 d1bc f067 e4bd
000001e0: d221 073e 06a3 023e 413a 04be 959f 2b3c
000001f0: 6377 003e 3fc9 883e 6106 a13d a21d 9c3e
00000200: 5e85 2c3d d619 cfbd 7572 3d3e 6f03 883d
00000210: 1e6c 1abc 5ce4 cb3d d321 e33d 04d9 21be
00000220: e281 073e d130 19be 96f6 afbc d6b2 a53d
00000230: 28cb 2fbd 3793 253d a403 1abd 7fa8 093e
00000240: 5420 2fbe b239 11be 62cd 1cbd ad3e 373d
00000250: eca4 debd e50a fdbc c24f d6bb 7c5a dfbc
00000260: a699 50bd b798 a4bd d03f eabc a75b ddbd
00000270: ee44 2a3e 4088 00bd a6d5 16bf 50d8 d4bd
00000280: 366e 273e 2497 e2bd b47b 29be d28f 143e
00000290: 15b8 a3bd d7b5 8b3e 7df2 86bd 2b53 95bd
000002a0: 1b69 87be 80e3 22bd 66e8 e5bc c57e 33be
000002b0: d81c cc3d 10a8 9e3d 894c aa3d 5435 23be
000002c0: cb6d 42bd 5416 8bbe 784a 2c3e 63f9 f63d
000002d0: 70b2 213e 1a23 06bd 29d3 74bb 3c6c c9bb
000002e0: 7e51 07bd 89a5 adbd 6bb6 c4bb 166f b1bd
000002f0: f5d3 4ebe 66ab d13d d2b1 8f3e 4de9 e3bd
00000300: b71e a4be e85b ab3e ec96 9ebd d79c 2cbe
00000310: 4beb ab39 ae5f 14be 9b1e ed3d d4c2 1d3c
00000320: 669e 723e 115b e83d 0271 103c 85be 38bc
00000330: c38b cf3e 4eed c2bb 2453 2a3e a301 2d3e
00000340: 1599 a4bd af28 55bd 89a2 87be bce9 8e3d
00000350: f15f a73c a886 3ebe 28d8 40be e704 9abb
00000360: 2c94 533d 3b02 b13e fb50 8fbe 08b0 a4be
00000370: 9c44 9b3e 900b 47be 7c97 9a3d 0f02 3d3e
00000380: c65c 9cbe 56fd edbd 1f67 58bd 1359 a63d
00000390: 19c6 0abe 242d 9ebc 3268 3bbe 1c61 d5bd
000003a0: 0c02 153e a9b4 8ebe ba43 09be 2d66 ce3e
000003b0: f787 5bbe 5f79 8b3e 9952 d8bd 1aab 973d
000003c0: 92b0 203d 9fc3 0a3e c15e 7e3d d1e9 333d
000003d0: ec2d 9bbd 3f75 85bc e919 62be bbaf 8dbe
000003e0: 0146 7cbd 1d5d 213e a054 5dbd a55b fabb
000003f0: fd09 90bd 9d64 febe c4c3 5abd e5c7 30be
-0.0741324 0.15586908 0.027096953 -0.16839957 -0.0052960305 0.065360665 -0.019803401 -0.037278652
0.004832211 -0.21647488 0.35298952 -0.10300137 0.040318824 0.15938 0.04484055 -0.16106364
-0.06415491 0.09630784 -0.21537727 0.18244395 0.16469952 -0.08031063 0.067477375 -0.13572824
-0.22710864 0.2275617 -0.07640206 -0.07368254 0.38806 0.009689461 -0.10670564 0.2096932
-0.27858958 -0.23632382 0.21449696 -0.071573414 -0.25975427 -0.07096536 -0.30145836 -0.07911805
-0.017460313 -0.23879541 -0.15054996 0.18934946 -0.2610086 0.040794153 0.26318103 -0.016518064
-0.12675716 -0.14764501 -0.14941402 -0.030402811 -0.35332698 0.010767099 -0.16225322 -0.04909527
0.09481227 -0.24526155 0.010032652 0.06551197 0.30273744 0.13396686 -0.04424019 0.08627839
0.034001797 0.08882552 -0.2018737 0.19750783 -0.09504367 0.08488193 -0.02394972 0.18454233
-0.02353073 0.48399478 -0.25820503 -0.3327744 -0.12173459 0.36282048 0.08243453 0.4071282
-0.060567122 0.045108926 0.23873426 0.05649916 -0.08718945 0.110336006 0.288466 -0.3832495
-0.06452561 0.14417033 -0.09672873 0.29917148 -0.2517396 0.33378145 0.3586819 0.15497045
0.23423073 -0.10990424 -0.39343014 0.13497202 -0.3074926 -0.21226521 -0.04527086 -0.13132352
0.0056325477 -0.0424476 0.080059044 -0.19670403 0.08590404 -0.07201628 -0.26021728 -0.119914934
0.32064676 -0.09993958 0.104907304 0.2434242 0.0625614 0.17262787 -0.025593644 -0.11152637
0.13196495 0.12757501 -0.12912847 0.010475059 0.12545542 0.2671604 0.07862545 0.30491358
0.042119376 -0.1011235 0.18500693 0.0664128 -0.009425191 0.099556655 0.11090436 -0.15805441
0.1323314 -0.14960028 -0.021479886 0.08090751 -0.042918354 0.0404236 -0.03760113 0.13443182
-0.17102176 -0.14182165 -0.038281806 0.044737507 -0.108713 -0.030888984 -0.0065402696 -0.027264826
-0.05092778 -0.080369405 -0.028594881 -0.10808497 0.16627857 -0.031379938 -0.5891975 -0.10392821
0.16350636 -0.11063984 -0.16551095 0.14507988 -0.07994095 0.2728717 -0.0658922 -0.07291254
-0.26447377 -0.039767742 -0.028064918 -0.17528827 0.09966439 0.07746899 0.08315379 -0.15938312
-0.047467988 -0.27165473 0.16825283 0.120592855 0.15790725 -0.03274832 -0.0037357307 -0.0061469357
-0.0330367 -0.08478839 -0.006003191 -0.08663766 -0.20198043 0.1023777 0.28065354 -0.11128483
-0.32054684 0.33468556 -0.0774363 -0.16856705 0.00032790969 -0.14489624 0.11578103 0.00962897
0.23693237 0.113454945 0.008816006 -0.011275892 0.40536317 -0.005948699 0.16633278 0.16895156
-0.080370106 -0.052040752 -0.26491192 0.06978175 0.02043149 -0.18606055 -0.18832457 -0.0047002914
0.05165498 0.34572014 -0.2799147 -0.3216555 0.30325782 -0.19438004 0.075484246 0.18457817
-0.3053953 -0.116205856 -0.05283272 0.08122458 -0.13552131 -0.019308634 -0.18301466 -0.10418913
0.14551562 -0.27872208 -0.13404742 0.4031233 -0.21438585 0.27241036 -0.10562629 0.07405682
0.03923089 0.13551186 0.062102083 0.043924157 -0.07577118 -0.016291259 -0.22080196 -0.27673134
-0.0615902 0.15758176 -0.054035783 -0.0076403194 -0.07033155 -0.49686137 -0.053409353 -0.17263754

update_module.0.bias f4 [32]
00000000: b56c 56bd e91e b03d fe01 0cbf 122a 803c
00000010: 2e46 ebbd fe97 8ebe 93f4 2bbd 9a1a 08be
00000020: 1a09 07bd af45 5cbd 42a0 033d 9a84 7dbc
00000030: 9e00 33bd f9e5 0fbd d147 e0bb 36c5 e7bd
00000040: 7eab b0bd 5b6d 28bd ec56 8ebd 487c 96be
00000050: c40b 083d 2002 46be 7ef6 f5be 9a82 18bf
00000060: 70fb c9bd 8c54 42bc 4753 69bd 8add 53bc
00000070: 6435 0a3d cf34 0b3b 9b1c ecbd 9251 62bd
-0.052349765 0.08599646 -0.5469054 0.01564506 -0.11487995 -0.27850336 -0.04198129 -0.13291398
-0.032967664 -0.053777393 0.032135256 -0.015473509 -0.04370176 -0.03513143 -0.0068444987 -0.11316912
-0.086264595 -0.041119915 -0.06950173 -0.29391694 0.033214346 -0.19336748 -0.4803962 -0.5957428
-0.09862411 -0.011860978 -0.056964185 -0.012931237 0.033742324 0.0021241193 -0.115288936 -0.055253573

update_module.2.weight f4 [16, 32, 1, 1]
00000000: f846 4e3e c058 26bc 77aa 33be 3e42 acbc
00000010: 16d4 993d cdf0 64bc 5aea 50bd 9975 f83c
00000020: 8321 4e3d dd04 8dbd d07c 843e da74 223e
00000030: 9371 4a3d d098 1d3e aff5 243d 77ef 39bd
00000040: 0030 223e e995 24bd d7e8 223e dc91 82bd
00000050: 778f fdbb b701 263d bba4 1cbe c520 1cbe
00000060: 7600 863d b755 823c 6453 983d d2af 623e
00000070: adb9 91bb 020b 5d3e c889 9d3d 874c 8f3e
00000080: 9257 f33d 637e f13a 682b a2bd eee3 ebbc
00000090: 97e6 1e3d ffae bbbc 0dac 47bd 313e 803d
000000a0: 9990 af3c 1a67 83bd 9dac 243e fcec 0a3e
000000b0: bd85 453c a9cb 043e ba02 3f3d d25c b1bc
000000c0: 3201 d03d ec80 153b ef43 623e 5320 82bd
000000d0: 78b0 5539 0249 ac3a a7eb 82bd 72f8 16be
000000e0: 4fe8 8c3d 2eba 5f3d 837e 133e b0fd 0c3d
000000f0: 25bf b53d 03f0 b53d e989 e33d 10b4 e73d
00000100: b900 e03c 9efc 01bb 89b1 70bc d1dd cfbb
00000110: 5608 36bc cbae 80bb 5a50 7fbc b9b7 b03c
00000120: d053 063c 5218 8cbc 73ee 143d 5217 673c
00000130: 6b37 62bb a175 bf3c 7d6b c63c 425f b83a
00000140: efe2 e13b 21af 5a3c f5d0 2d3d 8681 d0bb
00000150: ca19 953b b3ae c6bc c673 4abd 0e38 3abd
00000160: e9c6 c03b c00d 193d 4000 2b3d afd5 453d
00000170: 44ea 273d cfe9 05bd 90c6 ed3c d903 a23a
00000180: b05e 613e 7bb3 9c3c c270 14be 9712 83bd
00000190: 2fcf cabc 74f3 1bbd 2f63 bdbd f7be d43d
000001a0: 9e7b 743d 0613 f3bd db25 6b3d 017d 7b3e
000001b0: 4133 233c fa3f 643e 80ea b63d 8f07 c8bc
000001c0: 3d77 113e df75 5e3d cf34 b33e d19d bfbd
000001d0: db59 d93c 355b 343c c88d 87be 39d4 88be
000001e0: c8ec af3d 7f03 993d 82bc 843e 8fd0 353e
000001f0: 50b1 4b3e 44a0 bf3d fb94 433e 2a6d 783e
00000200: 2dc2 3f3e 1f27 b0be 0613 6ebd 69c2 87be
00000210: ef4c babe b2a4 213e 612d a6bd 57d9 8bbe
00000220: 7ef9 e8bd 732a a0be 55c3 3e3d fd6e 9f3d
00000230: ccf4 08be 0baf b83e ccd2 1abe 3f0e 553e
00000240: e1ac 3abe aa62 aebd a068 9a3d 4feb afbd
00000250: ef16 55be 2771 b83e 6f96 bc3d 5d8b 90bc
00000260: ebc1 cfbe 03bc ec3d 8279 123e 8b14 9c3c
00000270: b801 333d fc92 63bd 2b06 163e b49b 863e
00000280: f9c2 243d 971c 49be 3d4a 403e 3337 c5bd
00000290: 4d34 74bd fa6c 9a3e 1bd3 433e 8bf0 17be
000002a0: 4ea7 b4be 5210 893e 9c2e 143e d6ba 513e
000002b0: 2bba b83e 630d 8b3e 359c 39bd 786c 7a3e
000002c0: cd94 833e 82e5 b7bd 4c53 ee3d df1f 1abe
000002d0: 6c2f 22bd 3881 e43d 0a0e 563e b869 c5bd
000002e0: 88e2 c13e d9b8 773d 43a5 053f 489e 98be
000002f0: f27c 0cbe d194 febd fa57 ca3e 1743 69bd
00000300: 7898 f1bc c92b eabc 330a cdbe 313b c83c
00000310: 7fb2 a83d 8165 763e cd9a 273f 5f58 ba3d
00000320: 2cbe 84be 5433 b83d 745f fc3d 9f86 4abd
00000330: ac75 c2bb 5f5d 2bbb ff09 593d b440 a5bd
00000340: efa3 3fbe 73d9 fabd 8e61 1bbc 5886 b03d
00000350: 1c79 ebbd 0a5c 8e3d 7ae1 9a3e 1de1 cd3e
00000360: 8f23 32be de1b b7bc f9d3 8cbb 4745 943e
00000370: 1fcd e7bd 437f ee3c 4795 fc3d 6c3a f8bd
00000380: cc20 233e c9de 083e 1863 3fbe d83c 06bd
00000390: 585c f13e 5568 75be 21cf 00bf f8de 85be
000003a0: 6fc2 4abe 2fb5 f53d f6cc 213d 89b5 503e
000003b0: fc37 3d3e 88ae 75be 8b34 42bd ddbb 9cbe
000003c0: 65eb dbbb f128 9abe a44b a23b 5cd5 bf3e
000003d0: 7583 20be df07 a0bd f2da a43d 9767 00be
000003e0: fbda 86bc 297b 99be 0d2b 50be e6c7 da3d
000003f0: 6612 9bbe 134a 833d 92d3 c93c 08e7 203e
0.2014426 -0.010152996 -0.17545496 -0.02102768 0.07511155 -0.013973427 -0.051004745 0.030329512
0.050324928 -0.06885693 0.25876474 0.15864888 0.04942472 0.15390325 0.040273365 -0.045394387
0.15838623 -0.040182028 0.15909134 -0.06375477 -0.0077380496 0.04052898 -0.15297215 -0.15246876
0.06543057 0.015910013 0.074377805 0.22137383 -0.004447183 0.2158623 0.07692295 0.27988073
0.11881937 0.0018424507 -0.07918435 -0.028795209 0.038794126 -0.022910593 -0.048748065 0.06261862
0.021431254 -0.064161494 0.16081472 0.13566965 0.0120558115 0.12968315 0.04663346 -0.021650705
0.10156478 0.002281244 0.22096227 -0.063538216 0.00020379003 0.0013144317 -0.06392603 -0.14743212
0.06880247 0.054620914 0.14403729 0.034421623 0.088743486 0.08883669 0.11110289 0.11313641
0.027344095 -0.001983441 -0.014690765 -0.0063435812 -0.011110386 -0.003927087 -0.015583122 0.02157198
0.008198693 -0.01710144 0.036360215 0.014104681 -0.0034517895 0.02337152 0.024221176 0.0014066475
0.0068935077 0.013347418 0.042435605 -0.0063630966 0.0045501934 -0.024253225 -0.049426816 -0.045463614
0.005883087 0.03736663 0.041748285 0.048299488 0.040994897 -0.03269368 0.029025346 0.0012360766
0.22008777 0.019128552 -0.14496139 -0.0640003 -0.024756996 -0.038073972 -0.092474334 0.10387986
0.059688203 -0.11868863 0.05740915 0.24559404 0.00996095 0.2229003 0.08931446 -0.024417667
0.14205642 0.05431163 0.35001227 -0.09356273 0.026532104 0.011008074 -0.26475358 -0.26724413
0.08590084 0.0747137 0.2592507 0.1775534 0.19891858 0.0935674 0.190998 0.24260393
0.18726416 -0.34404847 -0.05812361 -0.2651551 -0.3638682 0.15785483 -0.08114124 -0.27314255
-0.11375712 -0.31282386 0.046573002 0.07784841 -0.13374633 0.36071047 -0.15119475 0.20806216
-0.1823001 -0.085149124 0.07539487 -0.085898034 -0.2080953 0.36023828 0.092083804 -0.017644579
-0.40577635 0.11559298 0.14304164 0.019052764 0.04370281 -0.055560097 0.1465079 0.26290667
0.040225003 -0.19639812 0.1877832 -0.09629669 -0.05962019 0.30161268 0.19123499 -0.14837854
-0.35283893 0.26770264 0.14470905 0.20481429 0.36079535 0.2715865 -0.045314986 0.2445544
0.25699463 -0.08979322 0.11636981 -0.1505122 -0.039596006 0.11157459 0.20903793 -0.09639305
0.37868142 0.06047902 0.52205294 -0.2980826 -0.13719538 -0.12430728 0.39520246 -0.056948747
-0.029491648 -0.028585332 -0.40046844 0.024442287 0.082371704 0.24062158 0.6547058 0.09098887
-0.2592634 0.08994165 0.12322894 -0.04944479 -0.0059344377 -0.0026148183 0.05298805 -0.08068982
-0.1871488 -0.122485064 -0.009483708 0.08619374 -0.11497709 0.06951149 0.3025015 0.4021081
-0.17396377 -0.022352155 -0.00429773 0.28959104 -0.113184206 0.029113417 0.1233316 -0.12120518
0.1593048 0.13366236 -0.18690145 -0.03277287 0.47140765 -0.23965581 -0.50316054 -0.26146674
-0.19800733 0.11997449 0.039502107 0.2038175 0.18478388 -0.2399236 -0.04741339 -0.30612078
-0.006711411 -0.3010936 0.0049528647 0.37467468 -0.15675147 -0.07814001 0.08049573 -0.12539516
-0.01646184 -0.29976776 -0.20328923 0.10682659 -0.30287474 0.06410613 0.024637017 0.15713131
