automata_ex/logs/withPool/9-CARROT-train_05-05-2022_17-04-48/models/model_5000.pt (torch, 9699 bytes, 3 tensors)

update_module.0.weight f4 [32, 48, 1, 1]
-0.03489789 0.100943096 0.09614764 -0.13001005 -0.04015044 0.14644733 0.016808609 0.0019419403
0.01827051 -0.17309698 0.33183533 -0.046495702 -0.018912116 0.08922538 0.011903422 -0.022466289
0.022700142 0.05345119 -0.119946435 0.17415187 -0.030456843 -0.13960665 0.0888624 -0.12698805
-0.12748674 0.17226608 -0.09807111 -0.042007893 0.22302026 -0.012573581 0.04947577 0.25014672
-0.24917524 -0.16805631 0.15125823 -0.17392354 -0.12634163 0.03818069 -0.25647742 -0.023999512
-0.022565385 -0.19267413 -0.06428537 0.18406746 -0.18387231 -0.050072294 0.24469781 -0.0481649
-0.025964435 -0.07495249 -0.10414877 0.05527692 -0.32875088 0.043523356 -0.08202875 -0.002109331
0.12280661 -0.13120227 0.065728866 0.04373536 0.12825254 0.102116115 0.017778512 0.09275377
-0.020328153 0.09827018 -0.0881223 0.12239045 -0.023774121 0.045719206 0.14661625 0.006195143
-0.0012247562 0.3874767 -0.19378173 -0.1608204 -0.030883605 0.16907103 0.07038586 0.3842094
-0.16070081 -0.058582637 0.16605467 0.07189164 -0.13941 0.048462495 0.11747805 -0.15841287
0.026842518 0.061328307 -0.13723806 0.101068355 -0.14857376 0.26527414 0.3075845 -0.039049763
0.16714585 0.03654141 -0.3183484 0.15665382 -0.13698733 -0.16638026 0.07522796 0.007892513
-0.020157328 -0.033455912 0.12741134 -0.12583551 0.019604944 -0.16830647 -0.15172811 -0.022345874
0.097047076 -0.121203326 0.106908195 0.11737057 -0.050136976 0.14953716 0.004175745 -0.026030421
0.18938737 -0.030966941 -0.18517756 -0.012256736 0.0530991 9.893192e-05 0.09550154 -0.011927865
0.016521448 -0.11003759 0.10475425 -0.055366684 0.011772466 0.0059541264 0.07755934 -0.08105417
0.04312284 -0.12175272 -0.03784733 0.034078352 -0.069453605 0.049015462 -0.2884745 -0.008500762
-0.081139185 -0.09824806 -0.015094014 0.068427205 -0.16410477 -0.048563667 0.041000817 -0.07069479
-0.061474953 0.025077742 -0.0686649 -0.14336427 -0.059969507 -0.10077613 -0.2564241 0.019794423
-0.0024915682 -0.14898257 -0.10632332 0.13843645 -0.055144463 0.091727704 0.0009784249 0.018452724
0.0072934814 0.13265574 -0.10543853 -0.11894136 -0.016363636 0.030640762 0.16418433 -0.13062266
-0.012529357 -0.2113671 0.060083687 -0.0011605881 -0.016233256 -0.060514193 -0.027618703 -0.037843596
0.02382127 -0.08966769 0.08806473 -0.040342074 -0.18138728 0.0971609 0.19831142 0.007809964
-0.15819709 0.30534247 -0.12909944 -0.10686219 -0.06203098 -0.16868475 0.024879217 -0.062010862
0.21460769 0.13927753 -0.031124933 -0.072961286 0.22635484 0.08320748 0.06299162 0.16770129
-0.07447935 -0.07010605 -0.19642228 0.074706405 0.018226946 -0.113222584 -0.06495774 -0.08076035
0.09643744 0.26628253 -0.29248667 -0.15534216 0.22887942 -0.21477467 -0.010214781 0.11821417
-0.26932186 -0.09390911 -0.012053907 0.0019976893 -0.05448446 0.061023336 -0.16742693 -0.11554369
0.0299395 -0.17397694 -0.055665202 0.3053786 -0.23557451 0.24600114 -0.06448173 -0.04737345
0.024550762 -0.09657635 0.060216654 -0.009259519 -0.19128978 0.024527311 -0.19719942 -0.101773225
-0.015507919 0.13550472 -0.17820737 0.032483313 -0.0314156 -0.31245822 -0.07761179 -0.17480877
00000000: 17f1 0ebd 41bb ce3d 0ee9 c43d 5b21 05be
00000010: ca74 24bd 4af6 153e 35b2 893c b488 fe3a
00000020: 09ac 953c 5640 31be 52e6 a93e 4772 3ebd
00000030: 95ed 9abc ccbb b63d 9206 433c 390b b8bc
00000040: a6f5 b93c a3ef 5a3d 7aa6 f5bd de54 323e
00000050: a180 f9bc 0cf5 0ebe 7dfd b53d 2809 02be
00000060: e28b 02be 8566 303e 82d9 c8bd 7810 2cbd
00000070: 6c5f 643e 6c01 4ebc 1ba7 4a3d 3b13 803e
00000080: cb27 7fbe f416 2cbe 70e3 1a3e 0319 32be
00000090: b35f 01be 5b63 1c3d 0251 83be a09a c4bc
000000a0: 0bdb b8bc 5e4c 45be 0ca8 83bd 2e7c 3c3e
000000b0: 0649 3cbe 9b18 4dbd 1092 7a3e 8f48 45bd
000000c0: 5eb3 d4bc b180 99bd f34b d5bd 0d6a 623d
000000d0: 0952 a8be 8c45 323d b0fe a7bd b43c 0abb
000000e0: 0882 fb3d e359 06be db9c 863d d923 333d
000000f0: a254 033e 4122 d13d 3ea4 913c b0f5 bd3d
00000100: 3a87 a6bc e041 c93d 7779 b4bd d8a7 fa3d
00000110: f2c1 c2bc 1044 3b3d 9222 163e a000 cb3b
00000120: 0088 a0ba 5963 c63e b86e 46be 1aae 24be
00000130: 9dff fcbc f520 2d3e 7626 903d 18b7 c43e
00000140: c18e 24be 59f4 6fbd 3c0a 2a3e ed3b 933d
00000150: 7fc1 0ebe 9c80 463d 5598 f03d fc36 22be
00000160: d7e4 db3c 6433 7b3d 2288 0cbe edfc ce3d
00000170: b823 18be 03d2 873e b77b 9d3e a5f2 1fbd
00000180: 4828 2b3e 72ac 153d 90fe a2be dc69 203e
00000190: 6846 0cbe 965f 2abe 1e11 9a3d 994f 013c
000001a0: fb20 a5bc 1109 09bd 1e78 023e 06db 00be
000001b0: 8c9a a03c 8858 2cbe 9d5e 1bbe b20e b7bc
000001c0: 9ec0 c63d 7339 f8bd aff2 da3d fb5f f03d
000001d0: 6e5c 4dbd 4520 193e b0d4 883b c03d d5bc
000001e0: c3ee 413e 62ae fdbc 309f 3dbe 7ad0 48bc
000001f0: 717e 593d ac79 cf38 5096 c33d 186d 43bc
00000200: fd57 873c 635b e1bd 6589 d63d 2dc8 62bd
00000210: 4de1 403c d51a c33b 6ed7 9e3d bbff a5bd
00000220: 93a1 303d 7d59 f9bd cd05 1bbd be95 0b3d
00000230: b13d 8ebd 70c4 483d eeb2 93be c846 0bbc
00000240: 4d2c a6bd 4736 c9bd e24c 77bc 9023 8c3d
00000250: 150b 28be b2ea 46bd 79f0 273d 6ec8 90bd
00000260: 29cd 7bbd d66f cd3c 2fa0 8cbd 15ce 12be
00000270: 96a2 75bd b763 cebd 054a 83be ea27 a23c
00000280: 9449 23bb e38e 18be 0ac0 d9bd 49c2 0d3e
00000290: 29df 61bd bcdb bb3d 7e3e 803a 2b2a 973c
000002a0: 28fe ee3b e8d6 073e 28f0 d7bd 8797 f3bd
000002b0: 080d 86bc 5602 fb3c f01f 283e f2c1 05be
000002c0: ef47 4dbc 9e70 58be 501a 763d e01e 98ba
000002d0: 9bfb 84bc bbdd 77bd 9e40 e2bc e301 1bbd
000002e0: d324 c33c b2a3 b7bd 485b b43d bb3d 25bd
000002f0: 96bd 39be 4bfc c63d 2612 4b3e baea ff3b
00000300: 6bfe 21be d955 9c3e a532 04be 90da dabd
00000310: 3214 7ebd b2bb 2cbe 80cf cb3c 1aff 7dbd
00000320: 1ec2 5b3e c59e 0e3e b7f9 febc ba6c 95bd
00000330: 90c9 673e af68 aa3d c001 813d e3b9 2b3e
00000340: a188 98bd c393 8fbd ec22 49be acff 983d
00000350: ad50 953c 3ee1 e7bd 9008 85bd af65 a5bd
00000360: fe80 c53d 2f56 883e d0c0 95be 0412 1fbe
00000370: 5e5f 6a3e e4ed 5bbe e65b 27bc 451a f23d
00000380: 8ee4 89be 6b53 c0bd c07d 45bc aaeb 023b
00000390: 192b 5fbd 9bf3 793d f771 2bbe 2ca2 ecbd
000003a0: af43 f53c 0327 32be 3201 64bd 955a 9c3e
000003b0: 723a 71be b9e7 7b3e ff0e 84bd aa0a 42bd
000003c0: ae1e c93c d2c9 c5bd bda5 763d 3db5 17bc
000003d0: 78e1 43be 80ed c83c a5ee 49be 7b6e d0bd
000003e0: ed14 7ebc c0c1 0a3e fe7b 36be 390d 053d
000003f0: a5ad 00bd 86fa 9fbe eef2 9ebd 1201 33be

update_module.0.bias f4 [32]
-0.005904601 0.11727751 -0.34662563 0.10341731 -0.020165982 -0.14831059 -0.059121378 -0.037116427
-0.005426884 0.0010618055 0.058381315 0.058610722 -0.015975242 -0.035082277 0.08481981 -0.03180335
-0.0051893573 -0.11132195 -0.007995911 -0.17756528 0.09883727 -0.03785935 -0.3345317 -0.2924859
-0.04908055 0.056985404 0.029567583 0.07545701 0.09734817 0.0431974 -0.06725292 -0.0066905934
00000000: 627b c1bb 312f f03d ea78 b1be 74cc d33d
00000010: 2133 a5bc bbde 17be 4229 72bd 6507 18bd
00000020: 01d4 b1bb 482c 8b3a 3f21 6f3d cc11 703d
00000030: 83de 82bc 6fb2 0fbd 02b6 ad3d 3b44 02bd
00000040: 7c0b aabb c3fc e3bd 4801 03bc acd3 35be
00000050: 326b ca3d 6812 1bbd bd47 abbe b6c0 95be
00000060: b008 49bd 8769 693d b737 f23c 3489 9a3d
00000070: 7a5e c73d c2ef 303d e6bb 89bd c43c dbbb

update_module.2.weight f4 [16, 32, 1, 1]
0.07507674 -0.010920691 -0.035143618 -0.01762186 0.06174487 -0.0102130445 -0.062786095 0.027994566
0.027092064 -0.040448066 0.11328309 0.072503805 0.012610516 0.08285205 0.013494022 0.0009342462
0.041826878 -0.021128764 0.07344007 -0.020139435 -0.010616142 0.00839237 -0.03494728 -0.025530914
0.06286985 0.018482639 0.014767935 0.076586835 -0.0034374706 0.10705906 0.023132632 0.1621743
0.047776043 -0.0041786404 -0.021497441 -0.018256785 0.016194714 -0.0103101665 -0.048016742 0.020398244
0.022515303 -0.030604865 0.06286989 0.07473031 0.004977866 0.064834274 0.012228306 0.0069865147
0.02353093 -0.008893438 0.086037375 -0.016656745 -0.006719099 0.006941679 0.003866205 -0.022029137
0.044580944 0.009724955 0.072006576 0.034030758 0.04178915 0.021197276 0.02012206 0.051024485
0.0048360205 -0.0047764243 -0.0022759587 -0.0050197723 -0.007741181 0.0020192643 -0.009240526 0.004745599
0.0039962516 -0.006022339 0.018453294 0.008693822 0.00095999293 0.010576275 0.0034889844 0.0031772852
0.00014016381 0.0013195126 0.018452048 -0.0017802267 -0.0043004327 0.0055911983 -0.0086399205 -0.0016819189
-0.002659128 0.026084075 0.01519936 0.024791477 0.021541074 -0.020743864 0.0033301082 -0.0028387422
0.10024433 -0.007038989 -0.028352465 -0.034487892 -0.00791341 -0.021287264 -0.09117406 0.03807367
0.03748449 -0.053813066 0.047244303 0.11002883 0.013719847 0.10888797 0.026778726 0.0215111
0.0478192 -0.0053616804 0.16291027 -0.029241525 -0.008085789 -0.00012756546 -0.086626224 -0.04389817
0.07197468 0.037513927 0.10941066 0.0920267 0.11491759 -0.0032662847 0.03626478 0.12850639
0.14918084 -0.2531461 -0.07687233 -0.041494917 -0.12257992 0.1516419 0.09947755 -0.112355284
0.024590358 -0.12337992 -0.009235786 -0.01728874 -0.047977015 0.3401164 -0.037906535 0.24222437
0.040084165 -0.09023858 0.035153855 -0.04383144 -0.12449712 0.19586876 0.09087362 -0.029584898
0.015829423 0.009104307 0.08162929 0.04228247 0.04391271 -0.005166781 0.0723867 0.13778678
-0.0075109825 -0.050307557 0.027490597 -0.11040718 -0.06739155 0.16077176 0.13985208 -0.09339133
-0.1264175 0.08801166 0.09844081 0.07524978 0.114611514 0.2266085 -0.024084715 0.16981973
0.2177465 -0.07119157 0.09301298 -0.0733487 -0.04222848 0.021201242 0.20105593 -0.012557791
0.17097771 0.09019306 0.2651577 -0.17084837 -0.11903151 0.0046356814 0.23266426 -0.0018743619
0.0066939285 -0.057930604 -0.10556516 0.038961962 0.03624137 0.13974324 0.27442172 0.07362562
-0.06586619 -0.014357665 0.06840325 -0.03158878 0.03723359 0.08450454 0.11914618 0.090542406
-0.069137566 -0.08893528 -0.00862797 0.09474489 -0.08065468 0.06522327 0.27890012 0.106338695
0.018943671 -0.014472995 -0.012574346 0.17276055 0.0021532704 0.122280754 0.06836409 -0.0049733585
0.15762295 0.15727197 -0.19655629 -0.0017370825 0.20261891 -0.036921196 -0.27003726 -0.1270961
-0.11604134 0.012767783 0.053915296 -0.019262047 0.17769611 -0.17908342 -0.0022822898 -0.14505398
-0.10534295 -0.1875289 0.03292209 0.1250678 -0.12393431 0.029541105 0.09065479 0.04346754
-0.050611217 -0.117755376 -0.11347506 0.13568017 -0.209839 0.083539814 -0.059596706 0.01496665
00000000: d5c1 993d b3ec 32bc c1f2 0fbd b85b 90bc
00000010: 30e8 7c3d 9d54 27bc ff95 80bd dc54 e53c
00000020: 2df0 dd3c dfac 25bd f700 e83d e07c 943d
00000030: 569c 4e3c 56ae a93d 0816 5d3c 34e8 743a
00000040: a952 2b3d 3b16 adbc bf67 963d 75fb a4bc
00000050: 54ef 2dbc 2780 093c e124 0fbd 3526 d1bc
00000060: e8c1 803d e768 973c 35f5 713c 8fd9 9c3d
00000070: 3047 61bb c841 db3d a580 bd3c 0511 263e
00000080: d0b0 433d faec 88bb 671b b0bc 418f 95bc
00000090: c7aa 843c f9eb 28bc 34ad 44bd 381a a73c
000000a0: 0372 b83c 0eb7 fabc eec1 803d 340c 993d
000000b0: 5e1d a33b d5c7 843d 3c59 483c 22ef e43b
000000c0: f0c3 c03c c8b5 11bc 5d34 b03d ba73 88bc
000000d0: e32b dcbb 0677 e33b 2860 7d3b 7376 b4bc
000000e0: 829a 363d 6b55 1f3c 2f78 933d d663 0b3d
000000f0: 1a2b 2b3d e9a5 ad3c 05d7 a43c 0dff 503d
00000100: 7b77 9e3b 8d83 9cbb 4028 15bb e77c a4bb
00000110: bca9 fdbb a255 043b 9365 17bc f880 9b3b
00000120: fdf2 823b 0b57 c5bb 5d2b 973c 8870 0e3c
00000130: 09a8 7b3a 1d48 2d3c 72a7 643b 003a 503b
00000140: f0f8 1239 7ff3 ac3a c028 973c 7f56 e9ba
00000150: a5ea 8cbb 5f36 b73b 748e 0dbc d573 dcba
00000160: c444 2ebb 45ae d53c bd06 793c 7f17 cb3c
00000170: e876 b03c 09ef a9bc f23d 5a3b 310a 3abb
00000180: e64c cd3d 52a7 e6bb 6e43 e8bc 2d43 0dbd
00000190: 3fa7 01bc a162 aebc 77b9 babd 23f3 1b3d
000001a0: 5689 193d 176b 5cbd 3e83 413d cc56 e13d
000001b0: 36c9 603c a800 df3d 0f5f db3c 0c38 b03c
000001c0: 11de 433d 09b1 afbb f3d1 263e ec8b efbc
000001d0: 427a 04bc 18c3 05b9 1769 b1bd 91ce 33bd
000001e0: 7667 933d 34a8 193d b212 e03d 7f78 bc3d
000001f0: ea59 eb3d 2a0f 56bb 618a 143d 2e97 033e
00000200: ddc2 183e 5e9c 81be 3d6f 9dbd 93f6 29bd
00000210: 2e0b fbbd 0448 1b3e e3ba cb3d 871a e6bd
00000220: b871 c93c 9dae fcbd b251 17bc 1ea1 8dbc
00000230: 8c83 44bd bd23 ae3e e243 1bbd aa09 783e
00000240: 4b2f 243d 01cf b8bd 7dfd 0f3d 9988 33bd
00000250: 59f8 febd d291 483e f31b ba3d 075c f2bc
00000260: b5ac 813c 3b2a 153c 422d a73d 6230 2d3d
00000270: d0dd 333d 1a4e a9bb 7a3f 943d fa17 0d3e
00000280: b01e f6bb 4c0f 4ebd f633 e13c 291d e2bd
00000290: 9504 8abd 5aa1 243e 6235 0f3e f443 bfbd
000002a0: 9773 01be 753f b43d 569b c93d 8f1c 9a3d
000002b0: 71b9 ea3d 0f0c 683e 4f4d c5bc 39e5 2d3e
000002c0: f0f8 5e3e e3cc 91bd 977d be3d d837 96bd
000002d0: c5f7 2cbd 3aae ad3c 9be1 4d3e 31bf 4dbc
000002e0: c814 2f3e 24b7 b83d c0c2 873e e0f2 2ebe
000002f0: cbc6 f3bd eae6 973b 8a3f 6e3e 26ad f5ba
00000300: be58 db3b a448 6dbd 8c32 d8bd 9496 1f3d
00000310: d571 143d da18 0f3e 0181 8c3e 07c9 963d
00000320: dae4 86bd 693c 6bbc 0117 8c3d 3d63 01bd
00000330: 4082 183d b710 ad3d ea02 f43d 4c6e b93d
00000340: ff97 8dbd b323 b6bd 545c 0dbc 9c09 c23d
00000350: 482e a5bd c793 853d ffcb 8e3e 1ac8 d93d
00000360: c22f 9b3c 2420 6dbc a104 4ebc 24e8 303e
00000370: e21d 0d3b 556e fa3d 7902 8c3d 8ef7 a2bb
00000380: e967 213e e70b 213e 0d46 49be d1ae e3ba
00000390: 557b 4f3e ae3a 17bd 5342 8abe 7b25 02be
000003a0: 15a7 edbd f72f 513c 49d6 5c3d 71cb 9dbc
000003b0: f8f5 353e a561 37be 7892 15bb 0889 14be
000003c0: 0bbe d7bd 9307 40be 50d9 063d c611 003e
000003d0: 46d1 fdbd 3000 f23c 38a9 b93d 050b 323d
000003e0: b54d 4fbd bb29 f1bd 9d65 e8bd beef 0a3e
000003f0: 09e0 56be ec16 ab3d ad1b 74bd ae36 753c
