automata_ex/logs/withoutPool/15-CARROT-train_05-05-2022_17-31-03/models/model_16500.pt (torch, 9699 bytes, 3 tensors)

update_module.0.weight f4 [32, 48, 1, 1]
0	0xbcebdf2f	-0.028792946
1	0x3ce4cbf6	0.027929287
2	0x3dd25874	0.10270777
3	0x3d2f4ee4	0.042799845
4	0xbdae780e	-0.08518992
5	0xbb8fc04e	-0.004386938
6	0x3d1d17b4	0.038352683
7	0xbe14b592	-0.14522389
8	0xbdaa5cd3	-0.08318486
9	0x3e3d289d	0.18472524
10	0x3db660fc	0.08905217
11	0xbdf68bca	-0.120383814
12	0x3db37953	0.08763375
13	0xbf42ba2d	-0.7606533
14	0xbe8215db	-0.254073
15	0xbe520746	-0.20510587
16	0xbcd49584	-0.0259502
17	0xbeb87d08	-0.3603289
18	0x3d1b7a61	0.037958506
19	0x3da86da7	0.082240395
20	0x3d83f7b8	0.06443733
21	0x3edb0814	0.427796
22	0x3e3a0b2c	0.18168324
23	0xbf14eec7	-0.58176845
24	0xbe63db92	-0.22251728
25	0xbe96a124	-0.29419816
26	0x3ecacb23	0.39608106
27	0xbeb350e0	-0.3502264
28	0x3e9133d1	0.28359845
29	0xbdcceb04	-0.10005763
30	0x3e1deb02	0.1542168
31	0xbe3b633b	-0.18299572
32	0x3baa292f	0.0051928977
33	0xbd199c91	-0.03750283
34	0xbedd6960	-0.43244457
35	0x3e92e1a6	0.2868778
36	0xbe5594b0	-0.20857501
37	0x3e093e85	0.13402756
38	0xbe3d2e1b	-0.18474619
39	0x3d175c1a	0.03695307
40	0xbe7c3640	-0.2463007
41	0x3e8ce3bd	0.275175
42	0x3d2dcc3c	0.0424311
43	0x3dccc3e5	0.099983014
44	0xbeecb786	-0.46233767
45	0xbea8f691	-0.33000615
46	0xbe8a60a9	-0.2702687
47	0x3e58064f	0.21096157
48	0x3c2bfa75	0.010496725
49	0xbe142e49	-0.14470781
50	0xbde9930f	-0.11405002
51	0xbdc97fd5	-0.09838835
52	0xbc4fe1d3	-0.012688118
53	0xbcd85871	-0.02640936
54	0x3e74dfab	0.23913448
55	0xbe4665a1	-0.19374706
56	0x3ee899ef	0.45429942
57	0xba680ba6	-0.00088518334
58	0xbd5ebcc3	-0.054379236
59	0xbd5ffe96	-0.05468615
60	0x3e6f4bdc	0.23368782
61	0x3ecdaa7d	0.40169135
62	0x3debec9d	0.1151974
63	0xbe9d8274	-0.3076359
64	0xbda2dfb0	-0.07952821
65	0x3edfaef4	0.43688166
66	0xbe41657d	-0.18886371
67	0xbbd7d519	-0.0065866825
68	0xbd87c432	-0.06629218
69	0x3cdf8378	0.027284369
70	0x3d95cb31	0.07314146
71	0x3f3e8cb1	0.7443343
72	0xbc8d19a6	-0.017224144
73	0x3e2fb3e1	0.17158462
74	0xbc47059d	-0.012147334
75	0x3dc23cf3	0.094842814
76	0xbe306b1f	-0.17228363
77	0x3e481115	0.19537766
78	0x3e88db07	0.26729605
79	0xbe8bc60f	-0.27299544
80	0xbee7efd7	-0.4530017
81	0xbe3d6bde	-0.1849818
82	0xbe0c413f	-0.13696764
83	0xbda04ce1	-0.078271635
84	0xbd52af79	-0.051436875
85	0xbe9a1cab	-0.30099997
86	0x3e92f824	0.2870494
87	0x3e02d71c	0.1277737
88	0x3d515ec3	0.051115762
89	0xbf1492ff	-0.580368
90	0xbe4f0eb3	-0.20220451
91	0xbefd3220	-0.49452305
92	0xbd307b01	-0.043086056
93	0xbc88d47c	-0.016702883
94	0x3dae96e2	0.08524872
95	0xbf0644a2	-0.52448475
96	0x3da315fa	0.07963176
97	0xbe6fb6e9	-0.23409618
98	0x3d70ab62	0.058757193
99	0x3cb71f20	0.022353709
100	0xbe343782	-0.175993
101	0x3ce2c58d	0.02768209
102	0xbea4eb03	-0.3221055
103	0x3d6f272a	0.05838696
104	0xbe592406	-0.21205148
105	0xbe62f269	-0.22162785
106	0x3e019b9b	0.12657015
107	0xbe69ab64	-0.22819287
108	0xbeffbc8d	-0.4994854
109	0x3e32daa7	0.17466222
110	0x3eb959b9	0.36201265
111	0xbe004ab5	-0.12528498
112	0x3de1f126	0.110323235
113	0xbe51c5b7	-0.20485578
114	0xbe3f2881	-0.18667795
115	0x3ec6ae36	0.38804787
116	0xbe4f3017	-0.20233189
117	0x3dafb445	0.085793056
118	0x3d8475de	0.06467794
119	0xbcdaddfa	-0.026717175
120	0xbdc4209e	-0.09576534
121	0x3f5419df	0.82851976
122	0xbe2979e1	-0.165504
123	0xbe53f893	-0.20700292
124	0x3e9bb953	0.3041483
125	0xbe281b2d	-0.16416617
126	0xbd852c84	-0.06502631
127	0x3e39da2c	0.18149632
128	0xbe813e06	-0.25242633
129	0xbe16e860	-0.14737082
130	0x3df4fcad	0.119622566
131	0xbdd768e0	-0.1051805
132	0xbe96fda3	-0.29490384
133	0x3e8c3935	0.27387396
134	0xbd1d4aeb	-0.038401525
135	0xbe5b0467	-0.21388398
136	0x3e3aab12	0.1822932
137	0xbe4bb7d5	-0.19894345
138	0xbe3919ab	-0.18076198
139	0xbcaf13de	-0.021371778
140	0xbef6522e	-0.48109573
141	0xbe733c4c	-0.2375347
142	0x3dd71fb8	0.10504097
143	0xbda7962d	-0.08182941
144	0xbd239b15	-0.03994282
145	0xbe4e4a7c	-0.20145601
146	0x3dc53e8a	0.09631069
147	0xbdf7c66d	-0.120983936
148	0xbe12595e	-0.14291903
149	0x3dffd691	0.12492097
150	0x3d2435c8	0.040090352
151	0xbdba2f1d	-0.090910174
152	0xbe63a60d	-0.22231312
153	0xbd600c46	-0.054699205
154	0xbe25bbe8	-0.16184962
155	0x3e309ccb	0.17247312
156	0x3dd89209	0.10574729
157	0x3e0e4e84	0.13897139
158	0x3e14b255	0.14521153
159	0xbe4e5455	-0.20149358
160	0xbebcd96a	-0.36884624
161	0x3ea19fd5	0.31567255
162	0xbdab1bc7	-0.083549075
163	0x3e52ef92	0.20599201
164	0xbe46950f	-0.19392799
165	0xbd41c862	-0.04731024
166	0xbe47c6c3	-0.19509415
167	0x3e74468a	0.23855034
168	0xbe5bc653	-0.21462373
169	0xbe1406d8	-0.14455736
170	0x3e8261c7	0.25465223
171	0xbd4bfdab	-0.049802464
172	0xbf286a8f	-0.65787596
173	0x3f4d126f	0.8010625
174	0x3e0f8e98	0.14019239
175	0xbeab6cba	-0.3348139
176	0x3ced4e5d	0.02896803
177	0xbe937c15	-0.28805605
178	0xbdbdb636	-0.092632696
179	0x3caa8516	0.020815413
180	0xbe8441aa	-0.25831348
181	0xbe8bd8c2	-0.2731381
182	0x3eb4f5b4	0.35343707
183	0xbe3989ad	-0.18118925
184	0xbe17cc77	-0.14824091
185	0x3d9346c2	0.0719123
186	0xbdf91972	-0.121630564
187	0xbe6e0e56	-0.23247656
188	0x3cc5d0b1	0.024147363
189	0x3db73c7f	0.089470856
190	0xbeb61ac1	-0.35567287
191	0x3e8ac6c9	0.27104786
192	0xbe6c2a3d	-0.23062988
193	0x3db4963a	0.08817716
194	0xbd90dff9	-0.070739694
195	0x3e0b9fab	0.13635127
196	0xbd5a4179	-0.053285096
197	0xbe02dd08	-0.12779629
198	0xbe1d64d3	-0.15370493
199	0xbcbfac42	-0.023397569
200	0xbe120e60	-0.14263296
201	0xbdbf2808	-0.09333807
202	0x3de92538	0.11384052
203	0xbdded18a	-0.1087981
204	0x3d723803	0.05913545
205	0x3e08f2a8	0.13373816
206	0x3eaf2dff	0.3421478
207	0xbf1b80b5	-0.60743266
208	0xbe01ab6f	-0.12663053
209	0x3e1d95b6	0.15389141
210	0xbe7d9793	-0.24764852
211	0x3e28b10b	0.16473787
212	0xbda07c63	-0.07836225
213	0x3c51a21c	0.012794998
214	0x3c38fce2	0.011290761
215	0x3e807722	0.2509089
216	0xbe834aa2	-0.25642878
217	0x3eae2953	0.34015903
218	0xbe441081	-0.1914692
219	0xbe5c82db	-0.21534292
220	0x3e292a97	0.16520153
221	0x3d3273d5	0.043567497
222	0x3e0d4fad	0.13799925
223	0xbe0a8e03	-0.13530736
224	0xbd6f2ccd	-0.058392335
225	0x3d26e2f8	0.040743798
226	0x3e573589	0.21016516
227	0xbd00db9f	-0.031459447
228	0xbe3b42d5	-0.18287213
229	0x3e53a19e	0.20667121
230	0xbe515f75	-0.2044657
231	0xbe89ed4d	-0.2693886
232	0xbe308754	-0.17239124
233	0xbe8bedd6	-0.27329892
234	0xbe7b4636	-0.24538502
235	0x3e8a8e44	0.27061665
236	0xbe1906f4	-0.14944059
237	0xbde53dd7	-0.11193436
238	0xbe9e7d4e	-0.30954975
239	0xbea00aa4	-0.31258118
240	0xbe00bb12	-0.12571362
241	0x3e07cbff	0.13261412
242	0x3e800a08	0.25007653
243	0x3cea1149	0.028572695
244	0x3e0ee711	0.13955332
245	0x3e79e044	0.24401957
246	0x3dbcc628	0.09217483
247	0xbdfa152e	-0.12211071
248	0x3ddec238	0.10876888
249	0xbd27dad0	-0.04098016
250	0xbdc821b6	-0.09772055
251	0x3d4e285a	0.05033145
252	0xbe4bfc8d	-0.19920559
253	0x3ec0f240	0.37684822
254	0x3c967e52	0.018370781
255	0xbe5a263c	-0.21303648

update_module.0.bias f4 [32]
0	0x3ce4e3b1	0.027940603
1	0x3c754769	0.014970639
2	0x3b16f10f	0.0023031866
3	0xbba775ed	-0.0051104934
4	0xbc2823a2	-0.010262402
5	0xbd291a22	-0.041284688
6	0x3c1461dd	0.009056536
7	0xbd59b082	-0.053146847
8	0xbea20b15	-0.3164908
9	0xbecec516	-0.4038474
10	0x3c528c91	0.012850896
11	0x3cdf8da3	0.027289217
12	0x3b4cccc3	0.0031249977
13	0xbcb71bbc	-0.022352092
14	0xbf0e69d3	-0.55630225
15	0xbe08bbf7	-0.13352953
16	0xbc3779a6	-0.011198437
17	0xbc604cb3	-0.0136901615
18	0xbd0fd6c8	-0.03511694
19	0xb927f424	-0.0001601731
20	0xbd3e8281	-0.046511177
21	0xbeb02a13	-0.344071
22	0xbc8ed61b	-0.017436078
23	0x393ac06a	0.00017810022
24	0xbc4475e6	-0.011991
25	0xbe03f3d0	-0.12885976
26	0xbc046c3f	-0.0080824485
27	0xbec42b18	-0.38314128
28	0xba565cca	-0.0008177279
29	0xbc4ab3af	-0.0123719415
30	0xbe9848a9	-0.29742935
31	0x3ba14c10	0.0049223974

update_module.2.weight f4 [16, 32, 1, 1]
0	0xbe4318bf	-0.19052409
1	0x3e34ac9e	0.17643973
2	0xbbd092e9	-0.0063651693
3	0xbcd82519	-0.026384877
4	0x3ead1f52	0.33812958
5	0xbd75bd8b	-0.059995215
6	0x3e4a214b	0.19739263
7	0x3d4985f9	0.049200032
8	0xbe900510	-0.28128862
9	0xbe10eddb	-0.14153235
10	0x3da0e943	0.07856991
11	0x3e3ce772	0.18447664
12	0x3e1aa6b7	0.15102659
13	0x3ea065ad	0.31327572
14	0xbe8b5cc9	-0.27219227
15	0xbe830006	-0.25585955
16	0x3e8bd4aa	0.27310687
17	0x3d669ae6	0.056300066
18	0x3d963264	0.0733383
19	0x3c92b877	0.017910225
20	0x3dc71074	0.09719935
21	0xbe86c129	-0.26319245
22	0x3e738c2c	0.2378394
23	0x3e25ee2d	0.16204138
24	0x3e19aa52	0.15006378
25	0x3ec700be	0.38867754
26	0xbbb1ceb9	-0.0054262546
27	0xbd3fe5ba	-0.046849944
28	0x3e827f8f	0.25487944
29	0x3d0b4769	0.03400365
30	0xbd707f87	-0.05871537
31	0x3e809340	0.25112343
32	0xbe3cd96f	-0.1844232
33	0x3e36ce96	0.17852244
34	0x3c87a302	0.01655722
35	0x3d6787a8	0.056525856
36	0xbb8a2e06	-0.004216912
37	0xbb036ca0	-0.002005376
38	0x3d3e9af9	0.046534512
39	0x3d4141ed	0.047182012
40	0xbe93d8b2	-0.28876263
41	0xbdd48e45	-0.10378698
42	0x3d87a8fd	0.06624029
43	0x3e4234df	0.18965481
44	0x3df8f8cb	0.121568285
45	0x3e235993	0.15952139
46	0xbe83e2d5	-0.25758997
47	0xbe601dcf	-0.21886371
48	0x3e3e0a85	0.185587
49	0x3dd3bfab	0.10339292
50	0x3dbd680e	0.092483625
51	0x3bf8f021	0.007596985
52	0x3c991c80	0.018690348
53	0xbe49eeab	-0.19719951
54	0x3e3d825f	0.18506764
55	0x3e3701ff	0.17871855
56	0x3ea7bfa5	0.327634
57	0x3e51e7ca	0.20498577
58	0xbd10d42a	-0.035358585
59	0xbdb374af	-0.0876249
60	0x3df3abe2	0.118980184
61	0x3e181a8d	0.14853878
62	0xbe3599ee	-0.17734501
63	0x3e7f9c19	0.2496189
64	0xbd19d650	-0.0375579
65	0x3d246bfa	0.040142037
66	0x3d0830be	0.03324961
67	0x3c9890a4	0.018623658
68	0x3d94eb33	0.07271423
69	0x3ca2f48e	0.019892003
70	0xbca225ff	-0.019793509
71	0x3d43fc7b	0.047848206
72	0xbdb4b97b	-0.0882444
73	0x3d470637	0.04858991
74	0x3c267a3e	0.010160981
75	0x3d218826	0.039436482
76	0x3b7b447b	0.0038340378
77	0x3c412f03	0.011790994
78	0xbd593cad	-0.05303638
79	0xbdb0d8d0	-0.08635104
80	0x3cb45f4b	0.022018095
81	0x3d1cb07d	0.03825425
82	0x3c9d9bfd	0.01923942
83	0xbc7ace0a	-0.015307913
84	0x3ce356bc	0.02775132
85	0xbd97f921	-0.074205644
86	0xbaff95de	-0.001949962
87	0x3d1b0f4f	0.037856396
88	0x3dc9ff70	0.09863174
89	0x3c288e8a	0.01028789
90	0x3c834763	0.01602525
91	0xbd8c5aee	-0.06853281
92	0x3d06cf2d	0.032912422
93	0x3d57d8d2	0.05269701
94	0xbd4b9a35	-0.04970761
95	0x3c06ba93	0.008223194
96	0xbe9775a8	-0.29581952
97	0x3e9047e0	0.28179836
98	0x3deff4ae	0.11716591
99	0x3d989928	0.07451087
100	0x3e2b79e6	0.1674572
101	0xbc7278c9	-0.014799305
102	0x3db9f60b	0.09080132
103	0x3e0e1028	0.1387335
104	0xbefcbfc9	-0.4936507
105	0xbe7d4d02	-0.24736407
106	0x3dee6a52	0.11641373
107	0x3e94450e	0.28958935
108	0x3e3f287a	0.18667784
109	0x3e99fe36	0.3007676
110	0xbecbe118	-0.3982017
111	0xbede7bc9	-0.43453816
112	0x3e9efc06	0.31051654
113	0x3e45e3db	0.19325201
114	0x3de895fe	0.11356734
115	0x3d549dce	0.051908307
116	0x3d99b5a5	0.07505349
117	0xbebdad08	-0.37046075
118	0x3e81961f	0.25309846
119	0x3e908c6a	0.28232127
120	0x3f0a7c2a	0.5409571
121	0x3e9038b6	0.28168267
122	0x3b600dc9	0.0034187904
123	0xbec374a9	-0.38174942
124	0x3e776659	0.24160136
125	0x3e933cc3	0.28757295
126	0xbe935526	-0.287759
127	0x3eb5f6a2	0.35539728
128	0x3d22f0aa	0.039780296
129	0x3d3dd952	0.04634983
130	0x3ede6469	0.43435982
131	0xbeb83008	-0.35974145
132	0xbe14221c	-0.14466137
133	0x3e0e6d69	0.13908924
134	0xbe0211a4	-0.12702042
135	0x3ede5026	0.43420523
136	0xbeb3c411	-0.35110524
137	0x3e33bce2	0.17552522
138	0xbe37f3aa	-0.17964044
139	0x390f1158	0.00013644004
140	0xbe9351e7	-0.28773424
141	0x3c7d367f	0.015454887
142	0x3e606c06	0.21916208
143	0x3de2f6d9	0.11082239
144	0xbe617c1c	-0.2202
145	0xbd7c8946	-0.06165435
146	0x3de48786	0.111586615
147	0xbe145cde	-0.14488551
148	0xbe95cd2e	-0.29258102
149	0xbe89faba	-0.26949102
150	0x3df43d7e	0.11925791
151	0x3e3e34b3	0.1857479
152	0xbdbc8a63	-0.09206083
153	0x3e3d0b77	0.18461405
154	0xbe928613	-0.28617916
155	0x3dcc4145	0.09973387
156	0x3d03b758	0.032157272
157	0xbe5a1ce4	-0.21300083
158	0x3eae1828	0.34002805
159	0x3dd79408	0.105262816
160	0x3e0953ec	0.1341092
161	0xbdcab95b	-0.09898635
162	0xbdedf922	-0.11619784
163	0x3ed4c457	0.41556045
164	0x3e9d3293	0.30702648
165	0x3dc30f86	0.09524445
166	0xbe9f06e6	-0.3105995
167	0xbc23934d	-0.00998385
168	0x3e769b47	0.24082671
169	0x3ea57daa	0.32322437
170	0x3d6ee31e	0.058322065
171	0xbdd56b6c	-0.1042088
172	0x3eca84df	0.39554498
173	0xbd6f01a5	-0.058351178
174	0x3e49c547	0.19704162
175	0x3f68753a	0.90803874
176	0xbe8532e0	-0.26015377
177	0xbdffac17	-0.124839954
178	0xbdd8f8a0	-0.105942965
179	0xbd543896	-0.051811777
180	0x3eaa7955	0.33295694
181	0x3dae489a	0.085099414
182	0xbed5d0ef	-0.41760966
183	0xbd827f5a	-0.06371947
184	0x3d8d66bc	0.06904361
185	0xbd7c3163	-0.061570536
186	0x3e820ccd	0.2540039
187	0x3ed5d0b3	0.41760787
188	0xbe7e33c4	-0.24824435
189	0x3e176812	0.14785793
190	0xbe6670b1	-0.22503926
191	0xbdc8c2e3	-0.09802797
192	0x3d976790	0.073928
193	0xbd250e79	-0.040297005
194	0xbd3d4d30	-0.04621619
195	0xbddb7366	-0.1071537
196	0x3e99b7e3	0.30023107
197	0xbe09f469	-0.13472141
198	0x3dd23714	0.102644116
199	0xbe5cb39d	-0.21552892
200	0x3e7b2e33	0.24529342
201	0x3e1e5378	0.15461528
202	0xbe06d952	-0.13168839
203	0xbd2a61b2	-0.041597076
204	0xbe547169	-0.20746388
205	0x3cd38bf3	0.025823569
206	0x3e4af544	0.19820124
207	0x3ee04f90	0.438107
208	0xbb871a88	-0.004123036
209	0x3ca50a27	0.020146443
210	0xbd5dfe4a	-0.054197587
211	0x3e945d3c	0.28977382
212	0x3e00ca85	0.12577255
213	0xbdc0f8a9	-0.09422428
214	0x3e19d031	0.15020825
215	0xbc81398a	-0.015774507
216	0xbd635980	-0.055505276
217	0xbd8e9622	-0.06962229
218	0x3f1ffed0	0.6249819
219	0xbd774fb3	-0.06037874
220	0x3d73bd42	0.059506662
221	0xbe70d723	-0.23519568
222	0x3e0119bb	0.12607472
223	0xbd0173e0	-0.031604648
224	0xbe806ef0	-0.2508464
225	0x3e0d9866	0.13827667
226	0xbe805f44	-0.25072682
227	0x3e03c006	0.1286622
228	0x3e05fc40	0.13084507
229	0x3eff6dce	0.49888462
230	0x3b8c63cf	0.004284359
231	0x3e829412	0.25503594
232	0xbd17fd9b	-0.03710709
233	0xbde59b80	-0.112113
234	0xbe4a3bc4	-0.19749361
235	0xbde17f14	-0.11010566
236	0x3e1567dc	0.145904
237	0xbe164087	-0.14673053
238	0xbe0a5d51	-0.1351216
239	0x3f0c409d	0.5478609
240	0xbeaf499b	-0.34235844
241	0xbddfb6e6	-0.10923557
242	0xbed7a94f	-0.4212136
243	0x3e574764	0.21023327
244	0x3d608638	0.0548155
245	0xbe00cc8c	-0.12578028
246	0xbc81e0d8	-0.015854284
247	0x3dff21cf	0.1245762
248	0xbd72944d	-0.059223462
249	0xbe934512	-0.28763634
250	0x3e9801b3	0.29688796
251	0xbd937613	-0.07200255
252	0xbdb7c1a6	-0.089724824
253	0x3e1a7cab	0.1508662
254	0xbe542a27	-0.20719205
255	0xbdb18335	-0.08667604
