final_models/Adam/NonSamplePools/9-CARROT-train_05-05-2022_17-55-17/models/model_2000.pt (torch, 9699 bytes, 3 tensors)

update_module.0.weight f4 [32, 48, 1, 1]
0.13871895 0.03309609 0.018365001 0.20472962 -0.018037116 -0.093760535 0.061826866 -0.121115044
0.2376542 0.13594253 -0.06498177 0.07673373 -0.009261502 -0.06674217 0.009698843 0.05001529
-0.10627285 -0.00055554823 0.07495723 -0.0005614926 -0.017059986 -0.05276814 -0.085197724 -0.057334755
-0.014013496 -0.12863675 0.2101287 0.08599497 0.099015646 0.19096845 0.08693236 0.1567841
-0.0856286 -0.007958477 -0.010664976 -0.049090553 -0.009177396 -0.080222376 0.18055819 0.035924472
-0.062395316 0.14085399 -0.034317754 -0.015104005 -0.23096791 -0.008299986 0.1288025 0.07805848
-0.18263857 -0.007825431 -0.051782973 -0.037580807 0.14895597 -0.04967088 -0.121495835 0.034653265
0.2699952 0.062402595 0.2135811 -0.07135783 -0.08140867 -0.016527964 -0.02172663 -0.14435254
0.15258959 -0.1679499 0.11741621 0.28391343 -0.03507648 0.08783062 -0.011128859 -0.15133753
0.1257033 0.060776714 0.15203099 0.11486719 0.08656801 0.14154033 -0.055556618 0.038640898
-0.13741976 0.016945193 0.032922085 -0.02859241 -0.09426663 0.22600353 -0.11902957 0.09473699
0.2610289 -0.17499039 0.03719983 0.20068517 -0.121543266 -0.047924668 0.06609908 0.08729384
0.069293 0.10776112 0.12439917 -0.016641676 0.1189054 0.030192263 0.06321578 -0.22335441
0.1928257 -0.066637024 0.07087114 0.1303029 -0.1591965 0.11250865 -0.13816313 -0.09559214
-0.11297882 0.04495292 0.12525463 0.23893926 -0.025591156 0.01939074 -0.13750501 0.102639504
0.15276927 0.1047586 0.20713915 0.13547179 0.06281135 0.19529097 0.16886997 0.081628464
-0.084796205 -0.05735932 0.22535431 -0.057273082 -0.10252053 0.069805585 0.013427811 0.0005151744
0.14096674 0.051900018 -0.06823729 0.2658482 -0.12538826 -0.2211635 -0.057924777 0.07834719
-0.13683444 0.018710999 0.050642107 0.03951477 0.23258714 -0.0053465203 0.069758095 0.0492884
0.25905308 -0.013432069 0.12951204 -0.047881305 -0.07772991 -0.025761956 -0.18632202 -0.14133961
0.07626464 -0.08458249 -0.12773575 0.19011728 -0.053789537 -0.14495766 0.0025794776 -0.19300422
0.022553362 0.19328125 -0.15188994 -0.07153431 0.29697147 -0.05709614 -0.07220456 0.34561336
-0.11634386 -0.06831139 0.19626844 -0.22046497 0.027478028 0.1352591 -0.07129009 -0.026436867
0.2116883 -0.25033662 -0.031353753 0.067050986 -0.14267543 -0.20657662 0.23223442 -0.10412776
0.18537426 -0.24720548 -0.054160748 0.07129748 -0.07863261 0.07720155 0.10566262 0.04549043
0.10800661 0.08655979 0.09220036 0.040337667 -0.13232818 -0.026611531 0.104650624 0.070523515
-0.038684156 0.11054164 -0.01143785 0.082079835 -0.08267093 0.1155213 -0.18003346 -0.0801646
-0.14059049 0.03989905 0.08786826 0.12784827 0.057483375 0.086862914 -0.103925705 0.04029236
-0.11962119 -0.055203374 0.112103656 -0.17671606 0.05099719 0.06718643 0.049253777 0.17609964
0.08753672 -0.04131698 0.13034356 0.082225755 -0.02489061 -0.18848471 0.0858625 -0.06950898
0.036360882 -0.046351 0.09575544 0.087792 0.0035954448 -0.041592702 0.019321756 0.09109611
0.1405333 0.019955758 -0.09036244 -0.1248877 -0.19182193 0.055924416 -0.18240647 -0.021457545
00000000: 570c 0e3e c48f 073d 3372 963c a4a4 513e
00000010: 93c2 93bc 8605 c0bd 2b3e 7d3d 2a0b f8bd
00000020: 9f5b 733e 8534 0b3e 2a15 85bd 9326 9d3d
00000030: 8ebd 17bc 1eb0 88bd e5e7 1e3c d5dc 4c3d
00000040: 94a5 d9bd 36a2 11ba 2d83 993d 2131 13ba
00000050: 62c1 8bbc 6823 58bd 257c aebd d9d7 6abd
00000060: dd98 65bc 5ab9 03be fa2b 573e 211e b03d
00000070: b7c8 ca3d 3c8d 433e 9809 b23d 038c 203e
00000080: 0c5e afbd 4664 02bc 27bc 2ebc 2d13 49bd
00000090: ca5c 16bc a14b a4bd 3fe4 383e 8a25 133d
000000a0: 3b92 7fbd 073c 103e c690 0cbd ca76 77bc
000000b0: da82 6cbe aafc 07bc cde4 033e 20dd 9f3d
000000c0: 9b05 3bbe 3d36 00bc 621a 54bd 55ee 19bd
000000d0: ea87 183e b173 4bbd cfd2 f8bd 95f0 0d3d
000000e0: d03c 8a3e dd99 7f3d 01b5 5a3e 0e24 92bd
000000f0: 97b9 a6bd a765 87bc 0cfc b1bc 27d1 13be
00000100: 7240 1c3e 0ffb 2bbe e977 f03d 1a5d 913e
00000110: 5bac 0fbd 8ae0 b33d d155 36bc 3af8 1abe
00000120: 5eb8 003e 01f1 783d 03ae 1b3e 7d3f eb3d
00000130: 924a b13d f3ef 103e 568f 63bd eb45 1e3d
00000140: c4b7 0cbe a5d0 8a3c 4fd9 063d a13a eabc
00000150: dd0e c1bd 786d 673e c6c5 f3bd 7805 c23d
00000160: 94a5 853e ae30 33be d95e 183d 6a80 4d3e
00000170: adeb f8bd a84c 44bd f45e 873d 1dc7 b23d
00000180: 7de9 8d3d ddb1 dc3d fec4 fe3d 2054 88bc
00000190: ad84 f33d c455 f73c 4677 813d 05b7 64be
000001a0: 1a74 453e fe78 88bd e324 913d 206e 053e
000001b0: 6804 23be ef6a e63d a37a 0dbe d0c5 c3bd
000001c0: 7161 e7bd 8e20 383d c042 003e 7eac 743e
000001d0: 8ba4 d1bc 54d9 9e3c 1dce 0cbe a934 d23d
000001e0: 8c6f 1c3e ad8b d63d 491c 543e 1eb9 0a3e
000001f0: 3da3 803d 5bfa 473e 40ec 2c3e d32c a73d
00000200: a2a9 adbd 9bf1 6abd 48c3 663e 2e97 6abd
00000210: 49f6 d1bd 3bf6 8e3d 5200 5c3c c50c 073a
00000220: 9659 103e 1d95 543d febf 8bbd 411d 883e
00000230: c865 00be af78 62be 8842 6dbd 7e74 a03d
00000240: 541e 0cbe cf47 993c 196e 4f3d 3dda 213d
00000250: 532b 6e3e dd31 afbb 55dd 8e3d a2e2 493d
00000260: 9ba2 843e 2e12 5cbc ce9e 043e 301f 44bd
00000270: dc30 9fbd bd0a d3bc 33cb 3ebe 55bb 10be
00000280: a330 9c3d 9639 adbd 29cd 02be 1bae 423e
00000290: 6b52 5cbd c86f 14be 740c 293b e6a2 45be
000002a0: d4c1 b83c 85eb 453e 0989 1bbe 9580 92bd
000002b0: a50c 983e a4dd 69bd fcdf 93bd 3cf4 b03e
000002c0: b145 eebd d8e6 8bbd 98fa 483e 92c1 61be
000002d0: 9a19 e13c 5d81 0a3e 8a00 92bd 2192 d8bc
000002e0: d1c4 583e 1f2c 80be cb6c 00bd 0752 893d
000002f0: 8219 12be d288 53be dcce 6d3e ef40 d5bd
00000300: c0d2 3d3e 6f23 7dbe a9d7 5dbd 6a04 923d
00000310: 220a a1bd d91b 9e3d a565 d83d 2c54 3a3d
00000320: 9232 dd3d 4246 b13d 8bd3 bc3d 1c39 253d
00000330: 0a81 07be 6d00 dabc 1153 d63d a26e 903d
00000340: 4773 1ebd a863 e23d d265 3bbc 7919 a83d
00000350: 604f a9bd 6e96 ec3d b15a 38be 562d a4bd
00000360: f4f6 0fbe 306d 233d 46f4 b33d a8ea 023e
00000370: b073 6b3d 2fe5 b13d 00d7 d4bd 9a09 253d
00000380: f4fb f4bd ef1c 62bd 9a96 e53d 0ef5 34be
00000390: 6ee2 503d 0a99 893d 54be 493d 7753 343e
000003a0: 7446 b33d fe3b 29bd c878 053e fa65 a83d
000003b0: 64e7 cbbc 2302 41be aed8 af3d b95a 8ebd
000003c0: 26ef 143d 8cda 3dbd 6e1b c43d 4bcc b33d
000003d0: 8ea1 6b3b 1c5d 2abd a948 9e3c 9990 ba3d
000003e0: f6e7 0f3e 427a a33c f10f b9bd 1fc5 ffbd
000003f0: f86c 44be 0011 653d c3c8 3abe bcc7 afbc

update_module.0.bias f4 [32]
-0.2348249 -0.0066489014 0.01163591 -0.0043278 -0.1966998 0.03178287 -0.038050476 0.0717162
0.08112121 0.0055078003 0.010222779 0.032732338 0.024142208 0.01350712 0.034540016 0.02274685
-0.011447021 0.04130654 0.03867047 -0.012486338 0.034960836 0.03349307 0.0238893 0.07434118
0.108853295 0.0042136377 -0.16906635 0.10404803 0.046577208 -0.0132378 0.099080466 -0.004400979
00000000: f075 70be 07df d9bb 8ba4 3e3c 38d0 8dbb
00000010: ac6b 49be c12e 023d d1da 1bbd f1df 923d
00000020: e022 a63d c77a b43b 717d 273c 5812 063d
00000030: e1c5 c53c f84c 5d3c d579 0d3d 9a57 ba3c
00000040: 498c 3bbc 0c31 293d ed64 1e3d 7f93 4cbc
00000050: 1833 0f3d 0830 093d 7eb3 c33c 3040 983d
00000060: 7aee de3d 8e12 8a3b bb1f 2dbe 2217 d53d
00000070: bec7 3e3d 5ce3 58bc b3ea ca3d 1636 90bb

update_module.2.weight f4 [16, 32, 1, 1]
-0.060530823 0.06775068 0.11023487 0.13564786 -0.09041407 0.020233162 -0.039421983 -0.0014219534
-0.017925587 -0.011747116 -0.031445514 0.05046691 0.13025975 0.052973296 -0.04315363 0.043732934
0.08722498 0.08348288 0.018701125 0.043371107 0.020823615 0.014693635 0.022074098 0.04177626
-0.0048761587 -0.019193267 0.020937912 0.013899751 -0.006037347 0.06405497 -0.005322043 0.097151466
-0.034581512 0.018702589 0.10093468 0.0721271 -0.08641443 0.017382536 -0.026765922 0.029492555
-0.0153821 0.054393888 -0.024551276 0.03521648 0.081994064 -0.009689146 -0.021180917 0.02736006
0.067534 0.042352255 0.021483613 0.009990186 0.096649475 0.03530677 0.007754524 -0.006166384
-0.0070505803 0.02704779 -0.013412216 0.010950006 -0.02992644 0.042604502 0.017411115 0.029560236
-0.008046336 0.009489621 -0.0069399704 -0.007502216 -0.016738862 -0.0044816616 -0.011712708 0.010027202
0.0010778367 0.012440115 -0.0024463346 0.011883096 0.015937073 -0.0019220307 -0.008918614 0.014303256
0.015253288 0.013625432 0.012950418 0.0003049133 0.04100519 0.01598966 0.0061971415 -0.011751892
0.001312688 0.014156208 -0.028498638 -0.00047301117 0.0008618717 0.007620724 -0.0015330968 0.00083009177
-0.08417341 0.017766934 0.15525427 0.14312524 -0.14106882 0.04185859 -0.05402114 0.020265462
-0.02192041 0.09213063 -0.037576314 0.07185806 0.14716367 -0.007395128 -0.046387553 0.08589878
-0.0018977913 0.09563276 0.036539033 0.016643995 0.16626139 0.055160034 0.03251893 0.026864767
-0.0066149603 0.060126726 -0.08988006 0.01312653 -0.0365876 0.08394508 0.016759751 0.0730808
0.08187382 0.07720021 0.01276213 0.12665881 0.17190383 0.07490313 0.23252624 0.10404599
0.015685456 0.0074115517 0.13561046 -0.17627026 -0.043518636 0.14960751 0.1821144 0.046192087
0.04372915 -0.12464784 -0.24372001 0.053491917 -0.12955777 -0.07656985 -0.068424076 0.081055224
-0.014361698 0.12498659 0.014030174 -0.024256403 -0.12766929 0.1082186 -0.00031702104 0.0012285784
-0.09887527 0.05159303 0.11108987 0.12940973 -0.017431831 0.01785482 0.2443274 0.02895659
-0.015220289 0.10943194 -0.016872345 -0.063643366 0.030369377 0.13712732 -0.06474221 0.03728942
-0.036009453 -0.014725483 -0.07013211 0.06931049 0.08403563 -0.035495233 -0.17656101 0.07123273
-0.033092313 -0.028662695 -0.06365227 -0.07071903 -0.046665438 0.0503973 -0.019414824 0.0036575303
-0.089447916 0.045971543 -0.048595976 0.17021453 -0.06912175 0.11283859 -0.12466346 0.04193805
0.026524544 -0.10367995 -0.062781766 0.084357485 0.060609452 -0.06885348 -0.067001656 -0.08464342
-0.04205779 0.07967783 0.088862896 -0.003884162 -0.1621423 0.061051086 0.1401465 0.056438223
-0.0008584318 0.040486015 -0.026789183 0.014512807 0.039467227 0.1047156 0.008582567 0.36266783
0.11908672 0.0054381494 0.100326896 0.05095242 0.036002994 -0.03840919 0.2576698 0.03617546
0.025828008 0.18814835 0.027863817 -0.15137076 0.024838869 0.08668944 0.029239414 0.15618236
0.036355015 -0.08375281 -0.08816331 0.16860561 0.13432974 -0.07908639 -0.13636878 0.0529125
-0.0082086865 -0.001104953 0.07386501 -0.07236247 -0.11908764 -0.0042785504 0.0041320533 -0.18171428
00000000: 2bef 77bd dec0 8a3d d2c2 e13d 46e7 0a3e
00000010: 032b b9bd 04c0 a53c f278 21bd d760 baba
00000020: aed8 92bc fa76 40bc 03cd 00bd 64b6 4e3d
00000030: d062 053e 87fa 583d dcc1 30bd 4e21 333d
00000040: 03a3 b23d 12f9 aa3d 1a33 993c e7a5 313d
00000050: 4996 aa3c 92bd 703c bdd4 b43c 951d 2b3d
00000060: 2fc8 9fbb 333b 9dbc fc85 ab3c c8bb 633c
00000070: f0d4 c5bb 412f 833d 8864 aebb 59f7 c63d
00000080: 58a5 0dbd 2c36 993c d7b6 ce3d 5fb7 933d
00000090: 0cfa b0bd d265 8e3c 3544 dbbc 5f9a f13c
000000a0: 3405 7cbc 20cc 5e3d c21f c9bc 283f 103d
000000b0: 81ec a73d 39bf 1ebc 9a83 adbc 3422 e03c
000000c0: 444f 8a3d 8f79 2d3d 67fe af3c e1ad 233c
000000d0: 29f0 c53d d59d 103d a919 fe3b 610f cabb
000000e0: 8e08 e7bb 5493 dd3c e9be 5bbc a767 333c
000000f0: 4b28 f5bc 0f82 2e3d c1a1 8e3c 4f28 f23c
00000100: c7d4 03bc 5b7a 1b3c b168 e3bb 26d5 f5bb
00000110: f01f 89bc e7da 92bb a8e6 3fbc 2249 243c
00000120: 3346 8d3a a0d1 4b3c af52 20bb 51b1 423c
00000130: 778e 823c a6ec fbba 611f 12bc 3458 6a3c
00000140: ede8 793c 343d 5f3c fd2d 543c c5dc 9f39
00000150: 0ff5 273d bffc 823c 6411 cb3b 028b 40bc
00000160: 800e ac3a 71ef 673c fa75 e9bc 7cfe f7b9
00000170: 3bef 613a 44b7 f93b 31f2 c8ba 849a 593a
00000180: 1c63 acbd f68b 913c fafa 1e3e 6c8f 123e
00000190: 5874 10be ea73 2b3d 4545 5dbd c103 a63c
000001a0: 6f92 b3bc fcae bc3d 9fe9 19bd 522a 933d
000001b0: 13b2 163e d452 f2bb e000 3ebd b3eb af3d
000001c0: 4fbf f8ba 1cdb c33d f4a9 153d fd58 883c
000001d0: 6d40 2a3e 7def 613d 9232 053d 8013 dc3c
000001e0: 4fc2 d8bb 7147 763d 0913 b8bd a810 573c
000001f0: e1dc 15bd 66eb ab3d bf4b 893c 63ab 953d
00000200: 76ad a73d 251b 9e3d 4118 513c d9b2 013e
00000210: 8f07 303e d066 993d 5c1b 6e3e 1016 d53d
00000220: c97e 803c 9adc f23b 78dd 0a3e 3180 34be
00000230: 9940 32bd b632 193e 337c 3a3e ea33 3d3d
00000240: 561d 333d 5e47 ffbd bd91 79be 571a 5b3d
00000250: cbaa 04be a7d0 9cbd ec21 8cbd 4800 a63d
00000260: 544d 6bbc f8f8 ff3d d1de 653c 5db5 c6bc
00000270: bdbb 02be b7a1 dd3d d835 a6b9 4008 a13a
00000280: 1e7f cabd 3753 533d 1683 e33d fc83 043e
00000290: 33cd 8ebc 4544 923c f630 7a3e 5f36 ed3c
000002a0: 855e 79bc da1d e03d df37 8abc 7457 82bd
000002b0: 33c9 f83c 1b6b 0c3e 9097 84bd cabc 183d
000002c0: a67e 13bd 2743 71bc 6ca1 8fbd a8f2 8d3d
000002d0: df1a ac3d 7363 11bd 69cc 34be 77e2 913d
000002e0: ce8b 07bd 07ce eabc 1f5c 82bd 24d5 90bd
000002f0: 4224 3fbd 666d 4e3d d60b 9fbc 2db3 6f3b
00000300: 7830 b7bd a84c 3c3d 930c 47bd b84c 2e3e
00000310: b48f 8dbd eb17 e73d 8e4f ffbd 3cc7 2b3d
00000320: 004a d93c 2756 d4bd ba93 80bd 9ec3 ac3d
00000330: 9e41 783d 0e03 8dbd 2a38 89bd 8859 adbd
00000340: ca44 2cbd 212e a33d c0fd b53d 6d8d 7ebb
00000350: a208 26be b410 7a3d 9082 0f3e c42b 673d
00000360: 6208 61ba aad4 253d fd74 dbbc 20c7 6d3c
00000370: 63a8 213d 2275 d63d e59d 0c3c 99af b93e
00000380: bde3 f33d 8132 b23b 3078 cd3d 7cb3 503d
00000390: e077 133d f452 1dbd 4ced 833e b82c 143d
000003a0: 4295 d33c f6a9 403e a942 e43c f000 1bbe
000003b0: e27a cb3c 3c8a b13d 7f87 ef3c 45ee 1f3e
000003c0: ffe8 143d 9886 abbd f78e b4bd f3a6 2c3e
000003d0: bc8d 093e 0cf8 a1bd 42a4 0bbe c7ba 583d
000003e0: ba7d 06bc 12d4 90ba 8a46 973d c632 94bd
000003f0: 38e4 f3bd 1533 8cbb 2d66 873b 4f13 3abe
