final_models/Adam/NonSamplePools/9-CARROT-train_05-05-2022_17-55-17/models/model_11500.pt (torch, 9699 bytes, 3 tensors)

update_module.0.weight f4 [32, 48, 1, 1]
000000 cd 1d 64 3e ef 0b 3f 3d 76 86 65 bb 27 b0 90 3e
       0.22276993 0.04664224 -0.0035022772 0.28259394
000010 18 7d 64 bd 10 14 1d be 85 82 89 3d c1 a4 3f be
       -0.05578336 -0.15339684 0.06714348 -0.18715192
000020 ca 86 23 3d 97 33 65 3e e2 96 c3 bd 70 4d 6c 3b
       0.039923467 0.22382961 -0.09550263 0.0036056899
000030 49 05 c7 bc 85 2e 0b bd cf 03 a4 3c 4d cf f0 3d
       -0.024294512 -0.03397991 0.020021347 0.117582895
000040 c5 2d 5c bd b4 0c 39 3d 62 9e 04 3c aa 0c dd 3b
       -0.053754587 0.04517813 0.008094402 0.0067458944
000050 a1 89 80 bd a5 5d c6 bd 2c 8f 06 be 22 d0 21 bd
       -0.06276251 -0.0968583 -0.13140553 -0.03950513
000060 4a d6 3c 3d 94 e4 0d be 03 85 95 3e c8 df 66 3d
       0.0461028 -0.13856727 0.29203042 0.05636576
000070 45 9c bc 3c 2c 63 0d 3e 25 4e c9 3d 9a f9 be 3d
       0.023023734 0.13807362 0.09829358 0.093249515
000080 c5 df a1 bd 42 2f 73 bd 01 4e 7b 3c 7a bb 2c bd
       -0.07904009 -0.05937124 0.015338422 -0.04217098
000090 46 44 23 bd 30 1e 92 bd d2 ac 0e 3e 5e a2 81 3d
       -0.039860032 -0.07134664 0.13933113 0.06329797
0000a0 44 b9 77 bc 41 a0 50 3e 74 5c 22 3d ef 51 b5 bc
       -0.015119854 0.20373632 0.03963895 -0.022133796
0000b0 bd dd 17 be 73 c5 95 bd 22 7f 06 3e c2 6e d5 3d
       -0.1483068 -0.07313051 0.13134435 0.10421516
0000c0 9d 22 8b be 4e 98 6c bd f7 fe 29 bd e9 a1 76 bd
       -0.27174845 -0.057762437 -0.04150292 -0.060213003
0000d0 0d 14 44 3e 50 66 f3 bc 1c b8 81 bd fd b1 04 3e
       0.19148274 -0.029711872 -0.06333944 0.12958522
0000e0 57 a3 be 3e 3e eb ad 3d 36 1e 29 3e 04 ab f1 bd
       0.37233993 0.084921345 0.16515431 -0.11800197
0000f0 1a b9 c5 bd 67 72 05 be 1d 01 cd bd e9 6f 17 be
       -0.09654446 -0.13031922 -0.10009978 -0.14788784
000100 0e d9 98 3c 37 e0 c5 bd c7 ef fe 3d ba 43 53 3e
       0.018658187 -0.09661906 0.12448078 0.20631304
000110 8c 99 4d 3a db c7 cb bb e8 9b a9 3d 70 69 2b be
       0.00078430097 -0.006218893 0.0828169 -0.1673944
000120 d8 0e 64 3e dd 2c e4 bd 89 34 be 3d c6 da 96 3d
       0.22271287 -0.111413695 0.09287364 0.073659465
000130 ce d4 5a 3e b4 1c 6f 3e 81 d5 da bc 35 b0 51 3e
       0.21370241 0.23350793 -0.026713135 0.20477374
000140 25 ca 15 be ac 11 03 3d 71 91 91 3d 8b 94 1a be
       -0.14627893 0.031999275 0.07107819 -0.15095727
000150 70 5f 30 be 85 15 88 3e 6d ad 1f bd 83 81 01 3e
       -0.17223907 0.26578918 -0.03898375 0.12647061
000160 4d 32 3a 3e 19 c4 df bd 4f 0f ac 3d 62 cf 82 3d
       0.1818325 -0.109260745 0.084013574 0.063872114
000170 f2 da 1c be ff c0 d0 bd 99 1c a6 3d 1c 12 00 3e
       -0.15317896 -0.10193061 0.08110923 0.12506908
000180 41 21 65 3d 81 df b7 3d da 8a d5 3d 5d 1a 5c bd
       0.055939917 0.08978177 0.104268745 -0.05373608
000190 f0 4f 56 3d 88 41 a4 bc 63 2b b1 3d 3c 99 a4 be
       0.052322328 -0.020050779 0.086508535 -0.3214816
0001a0 40 06 45 3e 85 4f ba bd 21 e1 41 3c 05 fd a1 3d
       0.19240665 -0.090971984 0.01183346 0.07909588
0001b0 e4 30 70 be 55 32 1e bb 13 5b 81 be 41 21 02 be
       -0.2345615 -0.0024138887 -0.25264797 -0.12707998
0001c0 32 10 10 be 37 cf 91 3d a3 cf cb 3d 6b 63 6b 3e
       -0.14068678 0.07119601 0.09951713 0.22987144
0001d0 2e dc 90 bd 03 b6 9c 3d 2e d3 af bd c8 7b f0 3d
       -0.07073246 0.076519035 -0.08585201 0.117423594
0001e0 74 1c 28 3e b6 af a9 bd fe e0 70 3e 44 47 d6 3d
       0.16417104 -0.08285467 0.23523328 0.104628116
0001f0 95 71 70 3d 7c b2 8f 3e 92 d7 9d 3e a5 97 99 3d
       0.05870207 0.2806586 0.3082853 0.07499627
000200 78 95 c0 bd ac 84 65 bd f8 ce 86 3e 88 df c8 bd
       -0.09403509 -0.05603473 0.2632978 -0.0980826
000210 71 b6 3f be f3 70 14 3e 16 ba 57 3b 0c 8c 26 3e
       -0.1872194 0.14496212 0.0032917312 0.16264361
000220 b9 59 fd 3d e1 22 a3 bc 17 88 03 be 97 b1 b0 3e
       0.12370629 -0.019914092 -0.12844883 0.3451049
000230 ed 87 6f be 88 67 af be 43 58 f5 bd d2 ae 1b 3e
       -0.23391695 -0.34258676 -0.11979725 0.15203407
000240 71 a7 45 be cc 5f 21 ba d7 f3 bd 3c c4 f1 51 bd
       -0.19302155 -0.00061559374 0.023187561 -0.051255956
000250 5d 1f 77 3e a7 12 0f bb 1f c7 e7 3d 3d df 22 3c
       0.24133058 -0.0021831186 0.11317276 0.0099409195
000260 3c 35 3f 3e b3 fb ab bd 7e 28 b0 3d d0 f1 a1 bd
       0.18672651 -0.08397617 0.08601473 -0.0790745
000270 fc 36 46 be 2f 6a 9d bd ec dc 93 be b3 b9 80 be
       -0.19356912 -0.076862685 -0.28879488 -0.25141677
000280 28 60 71 3d cd 7f 87 be 21 58 24 be d9 8a 8f 3e
       0.058929592 -0.26464692 -0.16049244 0.2803562
000290 b9 a9 7b bd 7a 17 8c be ba 26 20 bd 57 c2 96 be
       -0.061441157 -0.2736166 -0.039099433 -0.29445145
0002a0 8a 23 10 3e 17 9d 27 3e b4 5b 33 be aa 2c 43 be
       0.14076057 0.16368519 -0.1751545 -0.19060007
0002b0 51 24 f5 3e 47 a1 d6 bc 12 eb 1f be 3a e0 af 3e
       0.4787927 -0.02619995 -0.15617016 0.3435076
0002c0 d6 d9 64 be 3d c8 00 bc 42 80 3f 3e b3 f8 44 be
       -0.22348723 -0.0078602405 0.1870127 -0.19235496
0002d0 ad 58 1e bd 36 db 86 3e 7f 39 03 be 2f b9 2c be
       -0.038658787 0.2633912 -0.12814902 -0.16867517
0002e0 7d bb 80 3e 7c 1e 92 be 20 c3 be bd 28 62 ba 3d
       0.25143042 -0.28538883 -0.09314561 0.09100753
0002f0 53 68 13 be cf 43 97 be be 8e 8a 3e ae fb 20 be
       -0.14395265 -0.2954392 0.2706203 -0.15721008
000300 5b a3 41 3e a4 f6 be be 54 6e 17 be 7e 03 de 3d
       0.18909971 -0.37297547 -0.1478818 0.1084051
000310 59 e6 cc bd b9 a5 13 3d 7e 63 e7 3d 6a 0a 0b 3d
       -0.10004873 0.036046717 0.112982735 0.03394548
000320 8c 3a a1 3d 40 91 06 3e 76 c1 8f 3d 9d 93 dc bc
       0.07872495 0.13141346 0.070193216 -0.026925856
000330 cb bf 04 be d2 61 ae 3c aa 27 11 3e 6d 85 d9 3c
       -0.12963788 0.021286879 0.14175287 0.02655288
000340 a6 89 8b 3c fb 6d 37 3d d4 03 ee bc 7d 27 d0 3d
       0.01703341 0.04478262 -0.02905456 0.10163782
000350 8a bd 45 be 69 48 f4 3d ba 7f e8 bd af c8 db bc
       -0.19310585 0.11927874 -0.11352487 -0.026829092
000360 39 9e 3b be 25 9f 86 3e 44 bf b6 3d d6 10 8a 3d
       -0.18322076 0.26293293 0.089232 0.067414925
000370 f9 7c a9 3c 64 23 6e 3d 1b d3 d1 bd c4 26 2c 3d
       0.020689474 0.05813922 -0.10245343 0.042029157
000380 24 34 50 be c7 05 96 bd 30 14 1c 3e 18 9b 84 be
       -0.2033239 -0.07325321 0.15242076 -0.25899577
000390 ec 8c 18 3d d4 ff 6e 3d bb e0 7b 3c ec d3 5e 3e
       0.03724377 0.058349445 0.015373404 0.2176053
0003a0 4d f4 4b 3d a3 33 ed 3c f0 76 fd 3d 0b 84 f7 3d
       0.04979353 0.028955286 0.12376201 0.12085732
0003b0 4d 10 8c bd 8a da 48 be 00 8a 99 3d d4 77 ba bc
       -0.068390466 -0.19614616 0.074970245 -0.022762217
0003c0 58 2c 6e 3c 3e a2 9f bc 0e b2 4c 3d ab b2 7a 3d
       0.01453694 -0.019486543 0.049974494 0.061205547
0003d0 41 af a8 bb de ef 0a bd 7d 6e 0e 3d e2 87 15 bd
       -0.005147845 -0.03392016 0.03477334 -0.03650654
0003e0 96 22 24 3e f9 77 d8 bc d4 5d e8 bd 7f 3d d4 bd
       0.16028818 -0.026424395 -0.11346021 -0.10363292
0003f0 2d 9a 90 be be f1 a6 3d cc 34 3b be af 94 85 3d
       -0.28242627 0.081515774 -0.18281859 0.065225

update_module.0.bias f4 [32]
000000 f6 60 a2 be 3c f2 00 bd 4d c2 f1 bb 52 fd 32 bd
       -0.317146 -0.031481013 -0.007377899 -0.043698616
000010 7f 26 a7 be 48 a9 84 3b 37 c8 be bc ab 56 83 bb
       -0.32646558 0.0040485 -0.02328883 -0.0040081344
000020 57 7d fe 3b a2 8c a9 bc 3a 3f 0a bc 2b a7 a2 3c
       0.0077664065 -0.020696942 -0.008437926 0.019855103
000030 d4 fa d8 bc 4c eb af bb 17 4c f1 bb c5 ab 86 bc
       -0.026486792 -0.0053686257 -0.007363807 -0.016439328
000040 a3 ee bc ba bf 47 8a 3b 68 9e 1e 3b ff 4e fe bc
       -0.0014414381 0.0042199786 0.0024203304 -0.031043528
000050 ed 74 19 bd e4 3c dd bc b9 42 4d 3c 33 e3 58 3c
       -0.037465025 -0.027006574 0.012528115 0.013237762
000060 76 4f 50 3c 0b 21 9e bc 5e 89 84 be f2 e7 02 3d
       0.012714257 -0.019302865 -0.25886053 0.03195948
000070 ba 63 5e 3c 2c c6 47 bc c1 0f 50 3d 6f 4d 89 3b
       0.013573581 -0.012193244 0.050796274 0.004190139

update_module.2.weight f4 [16, 32, 1, 1]
000000 38 da 3a be 5a e0 16 3e 1a fa 46 3e 1f 67 93 3e
       -0.18247306 0.14734021 0.19431344 0.28789613
000010 10 03 35 be 48 fa 58 3c 8d d6 9f bd 9e 76 82 39
       -0.1767695 0.013243265 -0.07804594 0.0002488391
000020 f1 c1 35 bd 0b 28 53 bd 44 a1 a1 bd 4e 46 eb 3d
       -0.04437441 -0.05155186 -0.07892087 0.11488019
000030 86 35 6d 3e 2b 05 b4 3d 24 e2 80 bd d1 63 f9 3c
       0.23164949 0.08790048 -0.06293133 0.030443104
000040 d3 44 3d 3e a2 3d 34 3e b4 08 a3 3c 88 c7 88 3d
       0.18483286 0.17601636 0.01990161 0.066786826
000050 0c 15 bb 3d 52 04 ca bc 1c 9b 0c 3d c5 83 a0 3d
       0.09134874 -0.024660263 0.03432761 0.07837633
000060 58 da 4c bd c1 b3 c9 3c 2b 92 df bc d4 6a 7c 3d
       -0.050012916 0.024621846 -0.027291378 0.061625317
000070 ef 15 c6 3a 76 55 e2 3d c1 ad a9 3c 28 d6 45 3e
       0.0015112738 0.11051457 0.020712735 0.19319975
000080 80 e4 d3 bd 03 8f 32 3d 2b e1 14 3e 27 17 1e 3e
       -0.10346317 0.043593418 0.1453902 0.1543852
000090 17 4e 3a be a3 e6 ec bb 74 b5 3a bd 5a 65 85 3d
       -0.18193851 -0.0072296425 -0.045583203 0.06513472
0000a0 46 8f ff bc ed 75 aa 3d eb 73 ea bc 5b 32 a4 3d
       -0.031196248 0.08323274 -0.028619727 0.08017417
0000b0 9d e6 19 3e 2f 8c 00 3d bb 82 87 bd 69 c0 2f 3d
       0.15029378 0.03138369 -0.06616732 0.042908106
0000c0 64 26 0e 3e 59 72 c5 3d 0d a4 0b 3d 44 38 84 bb
       0.13881832 0.09640951 0.034091998 -0.0040350277
0000d0 79 65 1b 3e 14 6e dd 3d dd d4 05 3d a0 2d 79 bc
       0.15175427 0.10812011 0.032673705 -0.015208632
0000e0 d6 90 10 bd 3f 16 b7 3d f3 cb 6b bd 42 2e 22 3d
       -0.035294376 0.0893979 -0.057567548 0.039594896
0000f0 e1 5d b8 bc f1 7c 66 3d c7 3e de 3c fd c6 45 3d
       -0.022505702 0.056271497 0.027129544 0.048285473
000100 c0 61 02 bd 23 67 9f 3c 08 e2 79 3c 46 6a b3 bb
       -0.031831503 0.01945836 0.015251644 -0.0054753153
000110 1a e4 42 bd bd c7 72 bc ba 9a 01 bd 6e 8b 62 3c
       -0.047580816 -0.014818129 -0.0316417 0.013827188
000120 e4 0c d3 3b 61 4c e8 3c 5f 8a ae bb a1 22 04 3d
       0.0064407457 0.028356733 -0.0053265537 0.032259587
000130 cf 5f ef 3b 18 99 72 3b d2 5d 69 bc ba 3e bb 3c
       0.0073051224 0.003701752 -0.01424356 0.022857059
000140 de 9c de 3c 92 8f 02 3d a7 ed ff 3c 3f 3f ff 3b
       0.02717441 0.0318752 0.031241251 0.007789522
000150 7f 82 3e 3d 26 3f 37 3d 44 88 63 3b df 89 ab bc
       0.04651117 0.044737957 0.0034718672 -0.020939765
000160 0f d0 f6 bb 40 4a 91 3c 7b 18 37 bd ba aa 7c 3b
       -0.0075321267 0.0177356 -0.04470108 0.003855391
000170 64 ec ad 3c b7 21 9e 3a 38 06 63 3b b3 10 80 3b
       0.021230884 0.0012064491 0.0034641158 0.0039082407
000180 4c 69 76 be e6 99 49 3d 84 9e 7d 3e a9 67 8b 3e
       -0.24063605 0.049219035 0.247675 0.27227524
000190 63 d1 aa be 6f 37 a8 3c 5b 23 f4 bd d4 8f a4 3d
       -0.33362874 0.020534245 -0.11920806 0.080352455
0001a0 59 60 45 bd b5 ec 09 3e a8 e3 99 bd 26 bd 2f 3e
       -0.048187587 0.13469203 -0.07514125 0.17161998
0001b0 d4 4b 96 3e e3 9c a0 3d 6f 92 dd bd 96 28 d7 3d
       0.29354727 0.07842424 -0.108189456 0.10505788
0001c0 1d 17 1f 3d 29 9e 54 3e 5f 7e a8 3d e5 a8 a5 3c
       0.038840402 0.20763458 0.082272284 0.020222137
0001d0 60 98 96 3e f5 57 25 3e dd b0 76 3d 8c 23 a7 bc
       0.29413128 0.16146834 0.060227264 -0.020402692
0001e0 37 90 8e bd b9 6d 3e 3e 18 fb 6b be 13 e7 9c 3d
       -0.069611005 0.18596543 -0.23045003 0.076612614
0001f0 06 18 a2 bb a3 65 f0 3d dc df 2c 3d 0a 1e 12 3e
       -0.0049467115 0.11738136 0.042205676 0.14269271
000200 8e 51 b0 3c 2c 2a bf 3d bc 53 ab bc a1 66 85 3e
       0.021523263 0.093342155 -0.020913951 0.26054862
000210 16 58 3a 3f 2b 37 d7 3d 35 43 e2 3e f0 a9 44 3e
       0.7279066 0.10508569 0.441919 0.19205451
000220 28 08 4e bc d4 50 bb 3d 7e 30 a6 3d 54 a0 96 be
       -0.012575187 0.09146276 0.08114718 -0.29419196
000230 3a e7 85 bd d4 b7 ba 3e 1e fc 9e 3e bf 97 90 bd
       -0.065382436 0.36468375 0.31051725 -0.07060193
000240 2f f2 b2 3d 7c d8 0e be 7f 9b b4 be 36 2e ee 3c
       0.08737599 -0.1394977 -0.35274884 0.02907477
000250 8f 49 38 be 27 33 51 3d fb 4d f3 bc 9f df 55 3d
       -0.1799681 0.051074173 -0.02970027 0.052215215
000260 41 da 74 3b 24 ec 8b 3e 31 66 07 3e 45 72 1c bd
       0.0037361535 0.27328598 0.13222577 -0.038194913
000270 80 65 84 be fc bf 32 3e 99 e3 89 bd 14 42 73 3a
       -0.25858688 0.17456049 -0.06732864 0.0009279561
000280 02 21 da bd 0d 93 b4 3d 82 6a 58 3e 1e 3a 59 3e
       -0.10650827 0.0881711 0.2113438 0.21213576
000290 69 24 37 3d df 32 35 bd ef 55 a8 3e e0 d5 36 bd
       0.044712458 -0.044237968 0.32878062 -0.04463756
0002a0 d9 44 6d 3c 0a 9b c3 3d 5f 5a 96 bb 55 10 bd bd
       0.014481747 0.09551056 -0.00458841 -0.09231631
0002b0 4e 08 fd 3d 80 13 87 3e d9 bc e4 bd 94 d9 01 3d
       0.123550996 0.26382065 -0.11168832 0.03170164
0002c0 24 57 1f bd 9b a9 78 3d 1e 04 94 bd 8a c9 e3 3d
       -0.038901463 0.060708623 -0.07227348 0.11122425
0002d0 9b bd e5 3d 4a 91 06 be 88 95 87 be 22 dc be 3d
       0.11217805 -0.13141361 -0.2648127 0.09319331
0002e0 0a 07 c4 bd fd ae 01 3d 62 0b 5a be 07 9e ce 3c
       -0.09571655 0.031661022 -0.21293405 0.025221838
0002f0 a9 5c c4 bd e6 ca 83 3d 56 d3 e7 bc 07 84 fd bd
       -0.09587986 0.06435184 -0.028299015 -0.12378698
000300 b2 8a 30 be bd a8 11 bd 6c 9d ef bc 72 40 5b 3e
       -0.17240408 -0.035561312 -0.02924987 0.21411303
000310 94 72 51 bd 3c de 1b 3e 37 db cd bd 49 dc 4f 3d
       -0.05113466 0.15221494 -0.100515775 0.05074719
000320 64 d7 7c bb ee e1 45 be 47 3d 98 bd 53 ba 1a 3e
       -0.0038580531 -0.19324467 -0.07433563 0.1511014
000330 48 2f 05 3d 80 ca 08 be 5d a0 1d be 8f 1f 00 be
       0.032515794 -0.13358498 -0.15393205 -0.12512039
000340 75 0c a8 bd df cb c3 3d 58 cc 9f 3d 24 8f 20 3d
       -0.08205501 0.0956037 0.07802647 0.03919901
000350 91 9c ab be d3 29 41 3e 68 b4 a1 3e 7a 71 35 3e
       -0.33517888 0.18863611 0.31582952 0.17719069
000360 52 6a 1f bd c5 3d a5 3d f8 0b da 3d c1 43 c0 bd
       -0.038919754 0.08068422 0.10646814 -0.09387923
000370 02 cb f1 3d c3 95 db 3d 63 75 78 3b a2 bb ee 3e
       0.11806299 0.10721924 0.0037911765 0.46627527
000380 5f b8 1c 3e 64 ae 3a 3b 1a 54 a5 3c d3 e2 11 3e
       0.15304707 0.0028485293 0.020181704 0.14246683
000390 9e 4d 0d 3e 64 ff 9f bd 1f 91 7c 3e f9 38 a5 3d
       0.1379914 -0.07812384 0.24664734 0.08067507
0003a0 f0 21 a8 3c f5 52 a8 3d 45 15 04 3e 88 e4 16 be
       0.020523995 0.08218948 0.12898739 -0.14735615
0003b0 65 bb 72 3d 66 aa d2 3d 56 b5 b1 bd 30 c1 26 3e
       0.059260745 0.10286407 -0.08677165 0.16284633
0003c0 39 cc 2d 3d 36 ef 8e bd 32 2b 87 bd 54 94 3e 3e
       0.04243109 -0.069792196 -0.06600036 0.1861127
0003d0 01 30 03 3e 8b 52 b1 3c b8 23 af be d1 b7 52 bd
       0.12811281 0.021645805 -0.3420694 -0.051444832
0003e0 1c 69 14 bc a4 a2 f8 3d 91 08 3d bd 9c 1f 5b be
       -0.009058263 0.12140396 -0.046150748 -0.21398777
0003f0 74 76 2b be b1 5c cf ba 5c 1a 01 bd 3e ed b1 be
       -0.16744405 -0.0015820471 -0.03151928 -0.34751314
