final_models/Adam/NonSamplePools/9-CARROT-train_05-05-2022_17-55-17/models/model_3000.pt (torch, 9699 bytes, 3 tensors)

update_module.0.weight f4 [32, 48, 1, 1]
00000000: 72fd 203e 059c 043d 9706 a13c 66cc 623e
00000010: 9410 f1bc acd0 c7bd e534 933d b14b 07be
00000020: 9cfd 663e a9be 1d3e 2625 94bd a894 8f3d
00000030: 6156 90bc 1cde 3dbd 4628 4c3c 8b72 883d
00000040: ac07 edbd acc8 61ba 13d6 8f3d fbcc 363a
00000050: 733a babc 978f 5ebd 5625 b5bd 71ce 7fbd
00000060: e4b1 f43b 7132 ecbd 1d51 613e 8381 973d
00000070: 5587 b23d 1fb3 3c3e 6dc3 ae3d 1ea8 143e
00000080: d3e1 aabd d861 0dbc fe4f 60ba 71b7 5cbd
00000090: 4972 97bc d37d b1bd 25d1 303e 108a 583d
000000a0: ba9b 24bd 9835 263e 44fe ebbc 9a2d aa3a
000000b0: 7e0d 64be ca95 9bbc ec8f 0d3e 3e33 9a3d
000000c0: 8f62 4abe 9f77 37bc 23cd 5dbd 43ad 3bbd
000000d0: 6985 233e 7fb7 2ebd 3821 01be 0782 333d
000000e0: 9ed8 903e dcd0 773d f6af 663e f33c 8bbd
000000f0: 54b3 a7bd a23f 6abc 5c80 a8bc 57f7 1bbe
00000100: a2c7 293e cf94 20be 6ae1 ea3d ea25 953e
00000110: 0089 2bbd ac37 bb3d 14fb 22bc dfe6 14be
00000120: d673 093e fdb1 0f3d 5c7d 153e 5000 e13d
00000130: fffc cc3d c540 193e be08 47bd 19b7 773d
00000140: 09ef 03be 6447 b03c 7315 1c3d 6115 5dbd
00000150: d90b cbbd cc72 703e f500 02be 7169 c33d
00000160: bdfd 8a3e dba9 24be 48e7 4b3d 8ebb 4d3e
00000170: 17c5 f6bd 8533 46bd fdbb 7b3d 981a a73d
00000180: 1e52 973d e46a d73d bbdc 093e ca5d 3bbc
00000190: 3e58 d83d 949b dc3c a3f8 9f3d 5313 7ebe
000001a0: f530 473e 4ad2 72bd 291d 633d cce3 073e
000001b0: 5cd9 2abe 274f cf3d 0e88 22be cd4d bebd
000001c0: 536c 07be cd11 623d 2d0f 093e 6ce7 713e
000001d0: cb6b 90bc dd81 9a3c 8ea0 14be 0497 cb3d
000001e0: 6752 263e 1d31 de3d 0cdc 5c3e 1cf1 143e
000001f0: 3fe5 813d a8f4 5e3e 418c 3a3e 969f 9e3d
00000200: 012f 95bd 71dc 7cbd 4d6b 6f3e 5e0f 70bd
00000210: c253 ddbd bfc2 a33d e391 cc3c a960 353c
00000220: ec5f 173e bc8e 5e3d ffdd 94bd 321a 8c3e
00000230: a8a8 12be 2e6d 6fbe 9840 6cbd 97a9 a03d
00000240: abbc 15be 6cf3 703c c253 493d ff21 023d
00000250: a754 6c3e c257 0fbb 1511 963d e3c2 f83c
00000260: 1f6d 863e 63a1 b7bc 4902 fc3d f5fb 4bbd
00000270: f8ad ccbd 5c0a e0bc d594 4bbe 842d 35be
00000280: a807 863d 38a1 d3bd caef 07be caa0 4c3e
00000290: c6ea 67bd 9da8 2abe 6bda 0ebc 3b56 52be
000002a0: 50cc 283d 7726 453e c313 1bbe 70fa b1bd
000002b0: 373f 9e3e aabe 51bd 0a2f bbbd 167e ac3e
000002c0: bde3 06be d95f 84bd cc88 473e 2761 69be
000002d0: 6a0b 9e3c bad7 143e fc91 96bd 9a32 5fbd
000002e0: f010 5e3e 8515 88be 47cb 1fbd c64f 823d
000002f0: cd38 1ebe 9449 5dbe 9e18 783e 1416 e6bd
00000300: 5fcf 463e 124c 92be 7590 92bd dc10 a73d
00000310: 16ed 99bd 823b 963d 22ee dc3d 4689 ab3d
00000320: 4be4 d63d e960 c53d f5eb dc3d 91e7 e63c
00000330: 22a1 09be 4e51 a9bc bfd1 da3d aa56 af3d
00000340: e723 29bd 33bf c93d 19b4 5dbc 8047 cd3d
00000350: e004 e0bd 2d9a f43d 6c76 34be ef3f 97bd
00000360: 945d 16be 543a 6d3d 6dd0 b13d 7b64 f83d
00000370: c947 813d fab5 9f3d a4b6 e0bd 1eb8 3b3d
00000380: 02d2 07be 54e0 5cbd d2e4 d23d d775 3abe
00000390: 7f28 4e3d 2f9c 6e3d ebb4 103d 5119 3a3e
000003a0: 8626 c43d d837 4fbd 2ab3 0b3e 00b9 b43d
000003b0: 5514 b8bc cf71 42be bfc3 ab3d 8c0c 90bd
000003c0: 9092 0f3d 5461 74bd 5f5d bf3d ba08 a03d
000003d0: 79a9 18bc 2cfb f9bc af95 213c aefc 633d
000003e0: 8ec5 223e b870 0f3c e252 ddbd fcba e8bd
000003f0: 8df8 4cbe 5f04 8f3d 1682 40be 3921 b2bb
0.15721682 0.032375354 0.019656463 0.22148284 -0.02942685 -0.09756598 0.07187823 -0.13212468
0.22557682 0.15404762 -0.07233648 0.07010776 -0.017619314 -0.046354398 0.012460774 0.06662472
-0.11573729 -0.0008612971 0.07023253 0.00069732935 -0.022732949 -0.054336157 -0.08845012 -0.062452737
0.0074674953 -0.115330584 0.22003599 0.07397749 0.08717219 0.18427704 0.08533368 0.14517257
-0.08343854 -0.008629285 -0.00085568416 -0.05388588 -0.018487113 -0.08666577 0.17267282 0.05286604
-0.040187575 0.16231382 -0.028807767 0.0012983561 -0.22270772 -0.018992323 0.13824433 0.07529305
-0.1976416 -0.0111979535 -0.05415071 -0.045819532 0.1596886 -0.042655464 -0.12610328 0.043825176
0.28290266 0.06050192 0.22528061 -0.067987345 -0.08188501 -0.014297398 -0.020569019 -0.15231071
0.1658006 -0.15681766 0.114687756 0.2913049 -0.0418787 0.09141478 -0.009947557 -0.14541195
0.13423094 0.035081852 0.14598602 0.10986388 0.10009193 0.14966114 -0.04859232 0.06047735
-0.12884153 0.021518417 0.038106393 -0.053975467 -0.09914369 0.23481292 -0.12695678 0.09541596
0.27146712 -0.1608042 0.049781114 0.20091078 -0.12049311 -0.048388977 0.061458576 0.08159369
0.073887095 0.10518435 0.13463108 -0.011435935 0.10563706 0.026929654 0.078110956 -0.24812059
0.1945227 -0.05928258 0.05544773 0.13270491 -0.16684479 0.10122519 -0.15872213 -0.09292183
-0.13224916 0.055192757 0.13384695 0.23623437 -0.017629525 0.018860752 -0.14514372 0.09940913
0.16242371 0.10849211 0.21568316 0.14545101 0.06342553 0.21773016 0.18217565 0.07745282
-0.07284356 -0.061733667 0.23380776 -0.058608405 -0.10806991 0.07996129 0.024971908 0.011070409
0.14782685 0.05433534 -0.07268905 0.27363735 -0.1432215 -0.23381492 -0.05767879 0.07844847
-0.14622752 0.014706474 0.049152143 0.031770702 0.23079167 -0.0021872376 0.07327477 0.030366367
0.26255128 -0.022415822 0.12305123 -0.04980083 -0.099941194 -0.02734869 -0.19880994 -0.17693144
0.06544429 -0.103334844 -0.13275066 0.19983211 -0.05662038 -0.16665883 -0.008719067 -0.20540707
0.041210473 0.19252954 -0.15144257 -0.08690345 0.30907604 -0.051207222 -0.09139831 0.33689946
-0.13172813 -0.06463594 0.19485778 -0.22790967 0.019292552 0.14535418 -0.07352063 -0.054491617
0.21686149 -0.26578918 -0.03901222 0.06362872 -0.15451355 -0.21610099 0.2422814 -0.1123468
0.19415043 -0.28573662 -0.07156459 0.081575125 -0.07515924 0.07335569 0.10787608 0.08375792
0.10492762 0.09637625 0.10787193 0.028186591 -0.13440374 -0.020668652 0.10684537 0.08561452
-0.041294005 0.098509215 -0.013531708 0.10023403 -0.1093843 0.11943469 -0.176233 -0.07385241
-0.14684135 0.057916954 0.08682332 0.1212854 0.0631252 0.07798381 -0.10972336 0.045829885
-0.13263705 -0.053924873 0.1029755 -0.18209015 0.05033159 0.058254417 0.035328787 0.1817372
0.0957766 -0.050590366 0.13642564 0.088243484 -0.022470633 -0.18988727 0.08386945 -0.07033643
0.035051882 -0.05966313 0.09343981 0.078141645 -0.009317749 -0.030515276 0.0098623475 0.055660896
0.15895674 0.008754902 -0.10806824 -0.113637894 -0.2001669 0.069832556 -0.18799624 -0.0054360894

update_module.0.bias f4 [32]
00000000: 40c1 7dbe 808e d3bb 635a f33b 667e 27bc
00000010: 89ed 64be 033b 023d 6eb9 1fbd 8d1c 593d
00000020: f3a8 833d 2d00 353b 7b84 303c ec6b 0c3d
00000030: cc4c 543c 18af 1a3c 7f4a e83c cfce a23c
00000040: 0ab3 b2bc 5a8e 123d bf16 0b3d 4c19 9dbc
00000050: 6724 823c bfb4 b63c c1a5 ba3c b071 8d3d
00000060: 02b2 db3d 5b14 153b 325b 37be 15b5 b93d
00000070: 4fda 2a3d a5e6 5ebc ac2b cd3d 0c56 79bb
-0.2478075 -0.0064561963 0.0074265464 -0.010223007 -0.22356237 0.03179456 -0.0389952 0.053005744
0.06428709 0.0027618513 0.010773773 0.03428261 0.012957763 0.00944116 0.028355835 0.019874005
-0.021813888 0.03578029 0.03395724 -0.019177102 0.015886499 0.022302983 0.022784116 0.0690645
0.10727312 0.0022747729 -0.17905882 0.09067742 0.0417121 -0.013604795 0.100180954 -0.0038045673

update_module.2.weight f4 [16, 32, 1, 1]
00000000: 8b69 9fbd f569 993d f5bc f63d 20e2 1a3e
00000010: 7ecb cdbd 0484 d43c ee2e 28bd 9d3c 34bc
00000020: 7966 82bc 19db 1ebc 52c9 1fbd 5075 663d
00000030: b319 183e a560 5c3d 50d5 4dbd b206 2b3d
00000040: da20 c33d c3d2 bd3d 8f4b b03c 867b 493d
00000050: 5404 f83c 6145 053c d3d8 b13c ef0c 443d
00000060: cd0b 29bc a252 7dbc b31c 873c bb5b 863c
00000070: 606b 06bc 194d 853d 3fca de3a 9c49 d43d
00000080: 6000 22bd 7341 c93c 14ab df3d 9fe3 9f3d
00000090: 9ee0 cfbd 9412 933c aeaf d0bc c14b 183d
000000a0: c85f 72bc 3239 7b3d 7007 c9bc 4953 1a3d
000000b0: 61f8 a93d 3f9b 26bc 8215 d1bc 79c5 013d
000000c0: 28a7 953d 0692 483d 5504 d23c 3fbf 5a3b
000000d0: 501e ca3d c24c 273d 207d 343c e8dd 04bc
000000e0: 455b 30bc e5fa 203d 53cb a3bc 09f0 6c3c
000000f0: 30de fabc 761c 243d 5ff3 9e3c 1699 033d
00000100: a671 dabb 6758 4e3c c59a a0bb 7f7e cfbb
00000110: e03b c5bc 2763 b2bb b617 63bc 9e10 363c
00000120: e979 023b 8288 8e3c 9822 64bb 1c3a 473c
00000130: cc4f 303c 4a43 293a b7cd e1bb 81b7 723c
00000140: 4a5b 893c c889 a23c 6de4 643c 0f69 e03a
00000150: 46ff 193d 3a51 a53c 900a be3b d61f 4dbc
00000160: 9057 e139 fff5 823c 003f 09bd e90a 0c3a
00000170: ba18 1a3b 9083 033b fe0d 10bb d552 0939
00000180: d6e5 d1bd 7bfb ab3c 8c52 2b3e 2e1a 273e
00000190: 511b 32be 3f5d 2f3d b6c9 72bd 6865 e43c
000001a0: ab17 bcbc 800f cd3d 55f9 32bd d25b 9e3d
000001b0: 3235 213e b848 a73b 2178 65bd 976a b03d
000001c0: 80c3 89bb e301 d93d 6622 283d 5f17 823c
000001d0: 50a7 363e d38e 733d cf23 1a3d 3568 c23c
000001e0: 0587 39bc 77d4 ac3d 3a0d d1bd 565c ab3c
000001f0: cda6 0fbd 27cd ac3d 36a5 b43c 06e8 ae3d
00000200: b2e1 933d daab ae3d 23f6 e63b 4bea 173e
00000210: bf96 833e 60e6 9b3d 97ec 8d3e 1e98 e93d
00000220: 3b40 313c c7b0 223c 2ffb 053e db5e 5bbe
00000230: 59c4 5cbd 0612 303e b5d2 583e d718 423d
00000240: c61f 6d3d e839 f7bd 3417 88be 8750 583d
00000250: 3009 1fbe 711d 9bbd bb76 93bd e941 ad3d
00000260: 97aa 2fbc 0e3d 143e a38f 023d 6131 c6bc
00000270: 76d8 1cbe 92c3 e63d 3ff5 bebb 31f3 d03b
00000280: 5595 f6bd 7515 6e3d 54d2 093e 41f6 1b3e
00000290: 564a cfbc 205a d5bb aa10 933e acd6 f03c
000002a0: 2260 8ebb b358 ed3d 639c 9ebc 8e97 7dbd
000002b0: d4bc 213d a6fc 3e3e babb abbd 8bfc 0f3d
000002c0: 4519 19bd 4df0 74bc eb62 9cbd ea0d ad3d
000002d0: 33d3 b43d f887 3fbd c1f7 44be c174 a33d
000002e0: 4997 25bd fe02 5dbc 8457 d4bd 3ae8 8fbd
000002f0: 4c96 3cbd ee0c 133d 1022 e6bc 697a e5bb
00000300: f9a2 d4bd c197 2a3d f590 41bd c56f 373e
00000310: d76c a4bd 5aaf ed3d b275 fabd f063 2b3d
00000320: 1c12 f63c 3765 d9bd d5f3 90bd 55f3 c23d
00000330: 583a 783d b494 b4bd 34e0 98bd d1fb b1bd
00000340: c39e 5bbd 7148 873d 17fc 9e3d ec1f df3b
00000350: f71c 30be 9c14 983d 9645 133e 325c 8f3d
00000360: 4b4d e2bb dbc4 533d e954 9cbc 6225 573c
00000370: ee40 633d ce0d eb3d b8eb 403c 005c cb3e
00000380: 6934 153e b916 4f3c 5be6 cc3d d744 7f3d
00000390: 16c5 2e3d 6c98 3abd 0c97 8b3e 7416 fd3c
000003a0: 8b92 c93c 7cc7 3e3e c0b8 0c3d 213c 24be
000003b0: 69b2 063d c3d7 eb3d bd6a 6d3c 0f04 243e
000003c0: 3887 2a3d 3797 a4bd 8856 a1bd 2847 433e
000003d0: 9896 043e 63c7 bbbd 906a 12be 06c2 573d
000003e0: feef 60bb ab9b 163c 6ca3 733d aecd b7bd
000003f0: b6d0 06be c402 09bc 6b31 07bb e3d7 57be
-0.077838026 0.07490913 0.120477594 0.15125322 -0.10048579 0.025941856 -0.04106038 -0.011000779
-0.015918003 -0.009695792 -0.039010353 0.05626422 0.14853553 0.053803105 -0.05025226 0.041754432
0.0952775 0.09268715 0.021520404 0.049190067 0.030275501 0.008134217 0.021709835 0.047863897
-0.010317755 -0.015461596 0.016493177 0.016401162 -0.008204311 0.06508846 0.001699753 0.103656024
-0.03955114 0.024567341 0.109213024 0.07807087 -0.10150264 0.017953195 -0.025474396 0.03718162
-0.014793344 0.061333843 -0.02453968 0.037677083 0.08299328 -0.0101688495 -0.025522951 0.031682465
0.07307273 0.048967384 0.025636831 0.0033378152 0.09869063 0.040844686 0.01101616 -0.008109547
-0.010763948 0.03930177 -0.019994413 0.014461526 -0.030623525 0.040066205 0.019403158 0.032128416
-0.00666638 0.012594319 -0.0049012625 -0.006332218 -0.024076402 -0.005443949 -0.013860634 0.01111236
0.001990909 0.017399076 -0.0034810659 0.01215985 0.010761213 0.0006456865 -0.006890978 0.014814259
0.016767163 0.01984109 0.013970477 0.0017121154 0.037596963 0.020180333 0.005799599 -0.012519797
0.00042980583 0.01598644 -0.033507347 0.0005342202 0.0023513273 0.002006743 -0.0021980996 0.00013096195
-0.10248916 0.020993939 0.16730708 0.1631858 -0.17393233 0.042813536 -0.059274398 0.027880386
-0.022960505 0.10012722 -0.043694813 0.07732357 0.15742949 0.0051051043 -0.056022767 0.086140804
-0.0042042136 0.10596063 0.04104843 0.015880285 0.17837262 0.05946238 0.037631806 0.02373133
-0.011323695 0.08438962 -0.10207601 0.020918053 -0.035071183 0.08437567 0.022051435 0.08540349
0.07220782 0.08528872 0.0070483848 0.1483547 0.25700948 0.076123 0.27719566 0.11405967
0.010818536 0.009929842 0.130841 -0.21422903 -0.05389819 0.17194375 0.21174128 0.04738697
0.05789163 -0.120715916 -0.26580203 0.05281117 -0.15530849 -0.07573975 -0.072003804 0.08459837
-0.010721824 0.14476416 0.031875264 -0.024193468 -0.15316948 0.11267771 -0.0058275755 0.006376647
-0.120402016 0.05812593 0.1345914 0.15230657 -0.025304 -0.006510988 0.2872365 0.029399239
-0.004344956 0.11589184 -0.01936168 -0.061912112 0.03948672 0.18651065 -0.083854154 0.035152953
-0.037377615 -0.01494987 -0.076360546 0.084499195 0.088293456 -0.04676053 -0.19235136 0.079812534
-0.04042748 -0.013489483 -0.10368255 -0.070267156 -0.04604177 0.035901003 -0.028092414 -0.007003118
-0.10382647 0.04164863 -0.047257382 0.1791373 -0.08028572 0.11605711 -0.1222948 0.041843355
0.030037932 -0.10615008 -0.07077757 0.09519068 0.060602516 -0.08817425 -0.07464638 -0.08690608
-0.053618204 0.06605614 0.07762926 0.0068092253 -0.17198549 0.07425806 0.14382014 0.07000007
-0.0069061867 0.051701408 -0.019083457 0.013131471 0.055481844 0.114772424 0.01177495 0.39718628
0.14570774 0.012639695 0.10004874 0.06232151 0.042668425 -0.045555517 0.27263677 0.030894496
0.02460601 0.18630785 0.03435588 -0.16038562 0.03288499 0.11515763 0.01449078 0.16017173
0.04163286 -0.080366544 -0.07877833 0.19070113 0.12948072 -0.091688894 -0.14298463 0.05267527
-0.0034322734 0.009192388 0.059482023 -0.08974777 -0.13165554 -0.008362476 -0.002062882 -0.21078448
