final_models/Adam/SamplePools/15-CARROT-train_05-05-2022_17-00-31/models/model_6000.pt (torch, 9699 bytes, 3 tensors)

update_module.0.weight f4 [32, 48, 1, 1]
-0.069890775 -0.025029264 -0.096559994 -0.09403283 -0.032296006 -0.025168773 -0.039526496 -0.27115145
0.17135511 -0.23543377 -0.18464075 0.038003128 -0.06925716 -0.07167606 0.04654095 -0.10464725
-0.34348565 0.097282045 -0.23134907 -0.41166404 0.26040858 -0.21135533 -0.059455827 0.32685772
0.28675365 -0.15159696 0.08666556 -0.12873416 -0.24068356 -0.09692333 -0.1657147 -0.02980883
0.22893614 -0.11810448 -0.34984198 0.08449842 0.014963897 0.33598545 0.06102956 -0.08290308
-0.12115908 0.14503789 -0.18528433 -0.071726866 -0.069386184 -0.28340667 0.19247761 0.09624942
-0.18004459 0.045666635 0.0032991844 -0.28007463 -0.3229989 -0.034703393 -0.24318674 -0.24703638
-0.13561836 -0.17600225 -0.25329337 -0.059849232 -0.041187007 -0.15213305 -0.047057703 -0.03288255
-0.018911755 -0.23510982 -0.10728169 -0.31228864 0.14818878 0.07986757 -0.27671394 0.12846057
0.21311486 0.099864595 -0.20754865 -0.011253845 -0.1028913 -0.12279116 -0.21425797 -0.09129826
-0.2702501 0.016896546 -0.09930516 -0.24220017 0.00558331 0.15526713 0.121406265 -0.25263944
-0.052976966 -0.076761015 0.0037172236 0.18777701 -0.17509283 -0.08586573 -0.091527835 -0.07196726
-0.39874023 0.01690769 -0.032895833 -0.33949062 0.022656417 -0.047169223 -0.025946405 0.047998782
0.12326366 0.18866254 -0.21394603 0.13049744 0.3883165 -0.22144742 0.17106918 -0.04900495
0.056884445 0.028647283 -0.0153851295 -0.01908857 -0.2032775 0.0806397 -0.11024021 0.059283134
0.19542846 -0.12731574 0.15486749 0.11376656 -0.112331934 0.027657665 -0.13078156 -0.0599427
-0.008800117 -0.029124958 -0.111057684 -0.21724407 0.013150636 -0.24698229 -0.038500346 -0.055715576
-0.23050888 0.042344153 0.25187814 -0.10415371 -0.0072481907 -0.1387435 -0.050251205 0.052689277
0.09205361 0.07244514 0.2291133 -0.1072805 0.21600132 -0.077440806 -0.2278091 -0.033639673
0.27929568 -0.18391673 -0.19053689 0.084502056 -0.04311315 -0.2748043 0.18359323 -0.13874038
-0.42174172 0.10380008 -0.21106474 -0.30288327 0.096554264 -0.09358733 -0.036917787 0.22340986
0.1750805 -0.44576973 0.2911554 -0.14271061 -0.3074478 -0.07504123 -0.07223895 -0.1950589
0.20718847 -0.012597514 -0.31582803 0.13952076 -0.026703784 -0.30611202 0.09066082 -0.14633861
-0.095181406 0.172853 -0.11860421 -0.14715381 0.014119939 -0.3193574 -0.22152375 -0.13503411
-0.17360435 0.27256292 -0.083449125 -0.098351836 -0.019392082 0.13027634 -0.025602823 -0.041128352
0.21741527 -0.14715455 -0.062478147 -0.026904918 0.029625025 0.23623222 -0.27835122 -0.12777868
0.07993842 -0.24941891 -0.22367969 -0.1848331 -0.03186543 -0.04272925 0.16986364 -0.014828817
0.13359803 -0.077842854 -0.13505809 -0.28910375 -0.12652896 -0.35525313 -0.25678125 0.042981695
-0.19729325 -0.07792522 -0.0077575413 -0.19765742 -0.062347915 -0.2709283 -0.24023801 -0.043164954
0.16397434 0.08991315 -0.05130271 0.0015946634 -0.3260335 -0.33509582 -0.052387666 -0.06515443
-0.1806927 0.4109869 -0.022485143 -0.36507416 0.10125628 -0.29210785 -0.24087197 0.1278132
0.04522544 -0.63019603 0.239412 -0.027374174 -0.074228205 0.23601061 0.12338477 0.015172258
00000000: e522 8fbd 2c0a cdbc 3fc1 c5bd 4994 c0bd
00000010: d148 04bd be2e cebc 89e6 21bd 5dd4 8abe
00000020: b777 2f3e 8d15 71be 7712 3dbe 2ba9 1b3d
00000030: b3d6 8dbd e6ca 92bd b9a1 3e3d 4c51 d6bd
00000040: 5add afbe cf3b c73d c5e6 6cbe a1c5 d2be
00000050: 4654 853e 886d 58be f487 73bd e559 a73e
00000060: 60d1 923e 3c3c 1bbe b77d b13d e3d2 03be
00000070: c075 76be bd7f c6bd 1db1 29be a631 f4bc
00000080: 3c6e 6a3e c3e0 f1bd 7d1e b3be 820d ad3d
00000090: 222b 753c 4906 ac3e 22fa 793d 17c9 a9bd
000000a0: 4022 f8bd d084 143e 2dbb 3dbe 89e5 92bd
000000b0: 581a 8ebd ae1a 91be da18 453e 6a1e c53d
000000c0: 9c5d 38be f00c 3b3d 2137 583b f165 8fbe
000000d0: 1d60 a5be 2525 0ebd f205 79be 1bf7 7cbe
000000e0: 8adf 0abe ef39 34be abaf 81be 7824 75bd
000000f0: b5b3 28bd c4c8 1bbe 94bf 40bd daaf 06bd
00000100: d3ec 9abc a1c0 70be 81b6 dbbd 4ce4 9fbe
00000110: cdbe 173e 9c91 a33d 73ad 8dbe 2b8b 033e
00000120: c83a 5a3e cf85 cc3d a287 54be 0c62 38bc
00000130: adb8 d2bd ef79 fbbd 7166 5bbe 95fa babd
00000140: 395e 8abe a06a 8a3c 8160 cbbd 5203 78be
00000150: 33f4 b63b 59fe 1e3e d9a3 f83d f559 81be
00000160: 60fe 58bd e134 9dbd aa9c 733b 9e48 403e
00000170: 894b 33be 5fda afbd f272 bbbd 9263 93bd
00000180: ae27 ccbe ff81 8a3c c8bd 06bd b7d1 adbe
00000190: f399 b93c 8434 41bd 8e8d d4bc 5f9a 443d
000001a0: a871 fc3d c130 413e ab14 5bbe 1fa1 053e
000001b0: 6cd1 c63e 1dc3 62be c22c 2f3e 6ab9 48bd
000001c0: aaff 683d b5ad ea3c e911 7cbc a25f 9cbc
000001d0: fa27 50be 6d26 a53d 9fc5 e1bd dfd2 723d
000001e0: 661e 483e 0f5f 02be 9595 1e3e 71fe e83d
000001f0: 490e e6bd 5492 e23c 9aeb 05be 7a86 75bd
00000200: 5e2e 10bc 7797 eebc 3672 e3bd 3b75 5ebe
00000210: c475 573c ede8 7cbe 8ab2 1dbd 0436 64bd
00000220: 850a 6cbe 1071 2d3d 2cf6 803e 8a4e d5bd
00000230: 3b82 edbb c712 0ebe 35d4 4dbd b6d0 573d
00000240: 9a86 bc3d 1e5e 943d ad9c 6a3e e1b5 dbbd
00000250: 732f 5d3e 4999 9ebd ca46 69be c1c9 09bd
00000260: d8ff 8e3e ab54 3cbe 1a1c 43be 6a0f ad3d
00000270: 6a97 30bd 26b3 8cbe ddff 3b3e f511 0ebe
00000280: 88ee d7be 2395 d43d 5b21 58be 8413 9bbe
00000290: 3ebe c53d b7aa bfbd 1b37 17bd 8ec5 643e
000002a0: 4d48 333e ee3b e4be 5212 953e bb22 12be
000002b0: cc69 9dbe 37af 99bd 04f2 93bd 85bd 47be
000002c0: 3729 543e ce65 4ebc 36b4 a1be 88de 0e3e
000002d0: e5c1 dabc b7ba 9cbe 61ac b93d cad9 15be
000002e0: 78ee c2bd 6000 313e c4e6 f2bd 7daf 16be
000002f0: 5157 673c d082 a3be 1fd7 62be 6246 0abe
00000300: 57c5 31be 5e8d 8b3e 60e7 aabd b06c c9bd
00000310: 25dc 9ebc 2967 053e 03bd d1bc 3476 28bd
00000320: 1ca2 5e3e afaf 16be 16e9 7fbd b467 dcbc
00000330: 2eb0 f23c dce6 713e 0d84 8ebe 6ad8 02be
00000340: c1b6 a33d ac67 7fbe 4a0c 65be e344 3dbe
00000350: 5385 02bd de04 2fbd bcf0 2d3e 91f4 72bc
00000360: eccd 083e 136c 9fbd ab4c 0abe 6805 94be
00000370: cf90 01be bde3 b5be d578 83be 930d 303d
00000380: 3e07 4abe 4297 9fbd f932 febb b566 4abe
00000390: 8760 7fbd 1db7 8abe f400 76be bccd 30bd
000003a0: e4e8 273e 6324 b83d ca22 52bd 0604 d13a
000003b0: dded a6be ae91 abbe 7394 56bd b06f 85bd
000003c0: 8207 39be e06c d23e c332 b8bc 00eb babe
000003d0: 745f cf3d 298f 95be 24a7 76be 77e1 023e
000003e0: 503e 393d 8754 21bf 6b28 753e ce3f e0bc
000003f0: f504 98bd c4ac 713e 27b1 fc3d 1095 783c

update_module.0.bias f4 [32]
-0.015551744 0.029861588 -0.029416304 0.020737082 0.01320403 0.102401845 -0.056994934 0.026778989
0.051675193 -0.09126179 -0.054594588 0.11107643 0.048656765 0.030092504 0.010698347 0.046846364
0.15419766 0.08263131 0.013841058 -0.53659755 0.07871206 0.010457461 0.036423817 -0.059153754
0.11428031 -0.6506596 0.012919438 -0.052997902 -0.11996957 0.03167946 -0.069815315 -0.2264981
00000000: becc 7ebc 4aa0 f43c 76fa f0bc d0e0 a93c
00000010: b755 583c 0fb8 d13d 8573 69bd 9c5f db3c
00000020: 5ea9 533d 76e7 babd 939e 5fbd 0a7c e33d
00000030: 514c 473d 8e84 f63c 1f48 2f3c f9e1 3f3d
00000040: fee5 1d3e 9b3a a93d 9bc5 623c 755e 09bf
00000050: ca33 a13d c555 2b3c 2431 153d 354b 72bd
00000060: cc0b ea3d a191 26bf 0dac 533c 5414 59bd
00000070: 9bb2 f5bd 52c2 013d 55fb 8ebd 1eef 67be

update_module.2.weight f4 [16, 32, 1, 1]
0.08067214 0.08356643 0.040832076 -0.008736731 0.15577959 0.05336492 0.013633041 0.065960355
0.08298691 0.06446803 0.049108393 0.01084329 -0.035135083 0.10779544 0.036164306 -0.047819402
-0.02669605 0.06788682 0.28703374 -0.1131266 0.055931926 0.05821851 -0.031475402 0.0025530297
-0.06854689 -0.14426397 0.049051795 0.096211106 0.0536408 0.084672414 0.17749101 -0.065364495
0.13212757 0.088907436 0.032672033 0.04393538 0.1803153 0.0495306 0.0066434266 0.04604748
0.08732275 -0.023394907 0.10651484 0.011320821 -0.023717912 0.18894917 0.014640788 -0.048100043
-0.028809316 0.0527858 0.075263076 -0.08024418 0.03834686 0.043831874 -0.016650265 -0.003881822
-0.051299807 -0.12031636 0.03311043 0.023738176 0.044152416 0.04699992 0.08932028 -0.03488984
0.027316948 0.027988406 -0.011383913 0.022555908 0.051086474 0.013668951 0.008817472 0.008917884
0.022507824 -0.018131034 0.042893495 0.007953863 -0.0057885367 0.01346673 -0.0037021425 -6.66294e-06
-0.009406651 0.015388331 0.0066135726 -0.02175046 0.016937852 -0.0010921475 0.0014865983 -0.005661537
-0.011070839 -0.03890636 0.009614953 0.016850173 0.0018422653 0.010986192 0.0009027722 -0.005877755
0.2235698 0.14356919 0.04574503 0.09948278 0.298237 0.08205673 0.020647204 0.07701403
0.13963851 -0.037716936 0.22175327 0.022800244 -0.040366396 0.25083762 0.020848095 -0.069700256
-0.050979283 0.098139204 0.16958115 -0.16831806 0.08953254 0.06344481 -0.022348607 -0.011378587
-0.083635435 -0.2099034 0.081097186 0.064132206 0.06334028 -0.038577154 0.12338519 -0.06196216
0.12685889 0.0008509089 0.02398667 0.20163661 0.015870497 0.07537689 -0.24559906 0.09099019
-0.025976123 0.14752778 -0.018312948 -0.16121684 -0.06426974 0.20710269 0.15002076 -0.08261851
-0.075892866 -0.014683182 0.08014217 -0.2538708 -0.10511068 0.41403246 -0.055172127 0.048287716
0.005611888 -0.09952322 0.020249724 0.03069654 0.28554618 -0.012040614 0.050990455 -0.14272505
-0.009197105 -0.040313866 0.18662037 0.41749808 0.03437156 0.20281395 0.11516343 0.045339867
-0.019197855 0.24621452 0.27439117 0.035569195 -0.064808056 0.109082535 0.49321088 -0.12538847
-0.14732388 0.13306771 0.13718499 -0.03960444 -0.05566951 0.25780043 -0.13766393 0.06390124
0.06317877 -0.06878873 0.16842699 0.09255764 0.24329726 0.04048344 0.37586716 -0.12107891
0.32186815 -0.16766271 0.11602045 0.19932157 -0.1364514 -0.10474316 0.22239755 -0.17286249
0.078126445 -0.08284219 -0.08303764 0.03562077 0.016096974 -0.15603985 0.327871 0.024470754
-0.17139441 -0.017496562 -0.33865649 0.06660101 -0.046612024 -0.13257767 0.22340553 -0.119923145
0.24200869 0.3244554 -0.09300278 0.13998564 0.25926855 0.107814096 0.0073968675 0.31850803
0.18653573 -0.014967001 0.14704762 0.18760656 0.15198834 0.032226842 0.09893315 0.3500062
0.05027767 0.33345023 -0.054362256 -0.14239201 -0.037273534 0.46426442 0.13631251 -0.06655744
-0.3800981 0.014195981 0.12675342 0.09163866 -0.22964582 0.39806005 -0.036391735 0.13864519
-0.034465082 -0.17720516 0.20571637 0.26358894 0.2787471 0.19399472 -0.23176242 0.28864554
00000000: 6f37 a53d e024 ab3d 893f 273d 8124 0fbc
00000010: af84 1f3e 2d95 5a3d 1e5d 5f3c 3916 873d
00000020: 0bf5 a93d d107 843d e225 493d 0ea8 313c
00000030: cee9 0fbd dbc3 dc3d 0621 143d 47de 43bd
00000040: adb1 dabc 3f08 8b3d 16f6 923e ebae e7bd
00000050: e018 653d 8876 6e3d 5aec 00bd bb50 273b
00000060: 5062 8cbd efb9 13be 89ea 483d 540a c53d
00000070: 75b6 5b3d bb68 ad3d 34c0 353e d2dd 85bd
00000080: 734c 073e 1a15 b63d 1cd3 053d 96f5 333d
00000090: 93a4 383e 99e0 4a3d 1ab1 d93b 489c 3c3d
000000a0: 45d6 b23d ada6 bfbc 7424 da3d f77a 393c
000000b0: 114c c2bc e47b 413e eadf 6f3c 8d04 45bd
000000c0: 8401 ecbc ec35 583d 8723 9a3d 1057 a4bd
000000d0: 9911 1d3d 0d89 333d 2366 88bc 2b66 7ebb
000000e0: bf1f 52bd 6c68 f6bd cd9e 073d 9076 c23c
000000f0: 2ad9 343d fd82 403d 8ded b63d a6e8 0ebd
00000100: cbc7 df3c f147 e53c 9883 3abc 2bc7 b83c
00000110: 0d40 513d bcf3 5f3c 2877 103c 511c 123c
00000120: 5462 b83c 8987 94bc 17b1 2f3d eb50 023c
00000130: c4ad bdbb 8fa3 5c3c a59f 72bb 3892 dfb6
00000140: 5b1e 1abc 571f 7c3c abb6 d83b 052e b2bc
00000150: 40c1 8a3c 6426 8fba f6d9 c23a 6a84 b9bb
00000160: 7762 35bc 465c 1fbd 0988 1d3c 6009 8a3c
00000170: 2a78 f13a 6eff 333c 04a8 6c3a 2f9a c0bb
00000180: 7bef 643e cd03 133e 245f 3b3d a1bd cb3d
00000190: 85b2 983e 5c0d a83d 5324 a93c 88b9 9d3d
000001a0: 66fd 0e3e 137d 1abd 4a13 633e 94c7 ba3c
000001b0: 3c57 25bd ca6d 803e a0c9 aa3c 02bf 8ebd
000001c0: a7cf 50bd 35fd c83d aea6 2d3e 925b 2cbe
000001d0: d65c b73d 5aef 813d 6d14 b7bc 416d 3abc
000001e0: 0e49 abbd ebf0 56be 4816 a63d bf57 833d
000001f0: 8cb8 813d 1403 1ebd 60b1 fc3d 09cc 7dbd
00000200: 4ce7 013e 880f 5f3a b17f c43c d479 4e3e
00000210: d802 823c 335f 9a3d 527e 7bbe 1159 ba3d
00000220: e1cb d4bc 8611 173e 0905 96bc 0716 25be
00000230: da9f 83bd ba12 543e 0b9f 193e e533 a9bd
00000240: b86d 9bbd bb91 70bc 9421 a43d 5afb 81be
00000250: 4544 d7bd 10fc d33e 2bfc 61bd 57c9 453d
00000260: eee3 b73b d4d2 cbbd c0e2 a53c 4f77 fb3c
00000270: 1c33 923e ff45 45bc 5edb 503d 8426 12be
00000280: 74af 16bc 2720 25bd 6919 3f3e 4fc2 d53e
00000290: 31c9 0c3d 76ae 4f3e ceda eb3d 4cb6 393d
000002a0: d244 9dbc a91f 7c3e 007d 8c3e 01b1 113d
000002b0: 16ba 84bd aa66 df3d 2386 fc3e d665 00be
000002c0: 12dc 16be e742 083e 397a 0c3e 4438 22bd
000002d0: b605 64bd 6bfe 833e c6f7 0cbe a7de 823d
000002e0: df63 813d 1be1 8cbd 2078 2c3e dc8e bd3d
000002f0: eb22 793e f7d1 253d a971 c03e 38f8 f7bd
00000300: e7cb a43e c6af 2bbe 219c ed3d f41a 4c3e
00000310: eab9 0bbe 9583 d6bd 2fbc 633e dd02 31be
00000320: c200 a03d 2ba9 a9bd a30f aabd 16e7 113d
00000330: cddd 833c e9c8 1fbe b5de a73e e476 c83c
00000340: 0482 2fbe f354 8fbc 6264 adbe 1c66 883d
00000350: 40ec 3ebd 71c2 07be 6bc4 643e 449a f5bd
00000360: 20d1 773e 051f a63e 3e78 bebd 6558 0f3e
00000370: d9be 843e a3cd dc3d 6c61 f23b 7c13 a33e
00000380: 3903 3f3e 2738 75bc a793 163e ef1b 403e
00000390: d5a2 1b3e 4b00 043d 779d ca3d 0334 b33e
000003a0: f5ef 4d3d fdb9 aa3e f5aa 5ebd 36cf 11be
000003b0: 22ac 18bd 11b4 ed3e 8295 0b3e 444f 88bd
000003c0: 389c c2be 4396 683c a6cb 013e 0dad bb3d
000003d0: 4628 6bbe 87ce cb3e 800f 15bd 01f9 0d3e
000003e0: 422b 0dbd 4575 35be 50a7 523e 21f5 863e
000003f0: f1b7 8e3e 8da6 463e 2153 6dbe 59c9 933e
