final_models/Adam/SamplePools/15-CARROT-train_05-05-2022_17-00-31/models/model_500.pt (torch, 9699 bytes, 3 tensors)

update_module.0.weight f4 [32, 48, 1, 1]
00000000: b120 8bbb bd66 97bd b4a5 0dbe bfbe 95bc
00000010: e717 35bd 43e0 94bd cc45 bf3c 275d a8be
00000020: 11c4 1d3e e867 15be f93b 7fbe 2b35 013d
00000030: 2440 d2bc 6136 0bbe 655d 683e 41e0 ab3c
00000040: b8d4 a4be 1ebb ed3d 99ee 12be 3494 b9be
00000050: cbab 583e 1179 04be c51f c7bd 2713 773e
00000060: b471 743d a3c7 20be c384 5f3e 388c d5bd
00000070: 099c b2bc 3aca 00be 034e 32be 7b28 8ebd
00000080: f1b0 cd3d 00e9 1ebd 6101 33be 7bbd 903d
00000090: de72 b1bc 98df ce3d b8dc a93d 6569 0f3d
000000a0: 4782 2cbe 61bd a63d aa93 ddbd 9ee0 babd
000000b0: 85e2 a53d 4143 55be 685f ee3d 8638 5c3d
000000c0: c16e 57bd c955 a13d d70d 593d d5cd d7bd
000000d0: 661a f5bd 9b6e 92bd 4f11 b9bd 1310 e9bd
000000e0: 9206 04bc a849 043d 3bef 0cbe 65e6 f3bc
000000f0: 862e cf3d ca30 17be e45f 0ebe e65c 84bb
00000100: 9d9c e9bc 024a 4bbd 178d febc 7f5f 52be
00000110: 658e 313e 0c1f 5b3d 8824 4cbe 900c 833d
00000120: dcad 323e 7b4e b43c 1beb 50be ca8d 623d
00000130: fe17 c2bc e612 4bbe 29c7 3abe de2e b2bc
00000140: 4b77 94bc 3437 a2bd 7140 99bd 7d37 24be
00000150: eca4 e2b9 a0de 52bc 2901 c83d 4b4c c1bd
00000160: 5132 6bbd c37c 39bd 4592 d33c de84 063e
00000170: 9286 8ebe 82cf 21be e6b8 dcbd 31e0 a8bd
00000180: b84d 6cbe d68f d73c 16da 11bc fbc0 50be
00000190: f797 6b3d d2a5 f5bc 63c5 a43b 4c6f 203e
000001a0: 71ce 453d 0bac d83d 3cba a73c 63b1 623d
000001b0: 382c 843e 412f a5bd 9068 8f3d dd2a ac3d
000001c0: 44c2 91bd 4135 eb3d df12 9a3d 5830 563d
000001d0: 6d58 2ebe 6455 e93d c92a 20be 96f4 ab3d
000001e0: 54cd 543d 2ecf 2bbb 5111 af3d 8919 7a3c
000001f0: d821 21bd 3302 613c 9959 e3bd 4c08 42bd
00000200: 6020 b7bc 5c1f 7f3b 730f 1dbe db14 04be
00000210: 2856 94bd 590f 5fbe 51e5 9cbd 8559 fb3c
00000220: 933b 73be 9c05 953d bd24 203e aedc 85bd
00000230: 5ea5 413a f886 00be c422 50bd 3a8b 073e
00000240: e320 d23d 58c9 bbbd 432d 093e b884 98bd
00000250: 4640 e13d d702 a83c e6db 0abe 32a1 aebc
00000260: 080b 9e3e 9a86 b2bd af13 27be d98b 813d
00000270: 251c 05bd 2bec b4be ab69 8e3e 8d6a f8bc
00000280: 11ca 7cbe 8496 c43d 527e 0fbe 0bb6 1dbe
00000290: e7ca b73d 5512 d5bc ccc9 4bbd efe6 463e
000002a0: 675c 683e 7684 bbbe 74ae 763e bafe 05bd
000002b0: 7630 8ebe f8ab 8d3d d93b 95bd f9ed 32be
000002c0: e07a 1c3e 9fb2 c73d b9f0 24be 1330 e03d
000002d0: f15c f3bd 3215 81be c26b 073e 6bde f0bd
000002e0: baa4 afbd d863 0b3e 9dfb 99bd 2075 fbbd
000002f0: 7203 ae3d 9e0d 5dbe fdf4 c2bd 84a3 abbd
00000300: f5e1 fcbd cf77 383e 61bf 92bd b961 8ebc
00000310: 9c0a 11bd 7b3d 213d 6bb8 563d d993 923c
00000320: b8e5 e33d 2aec 52bd 3b44 80bd 3a08 70bd
00000330: 1c9f 533d 0add 403e 7de6 49be 4063 0e3e
00000340: bec4 7dbd 6179 22be 7544 13be 5941 63be
00000350: 433a cdbd 91b4 f1bc d6d2 163e 8034 1cbd
00000360: d483 d43d cf48 4b3c 5b96 5bbd e9e6 9ebd
00000370: 870e 98bd f40a 80be d975 0bbe 84c9 5d3d
00000380: 26a3 98bd eaf1 513c f80f a13b b9d2 c7bd
00000390: 1309 06be c7e2 8dbe 5562 e4bd 0866 e8ba
000003a0: b5ae 213d d188 f43d 223f eebd 51a7 e5bb
000003b0: 86b5 65be a8e6 26be 83de 03bd 9ef7 9dbb
000003c0: d96b ecbd 375a 783d 1c80 c8bd d2f8 e9bd
000003d0: dc23 cabd 6262 e03b 8d73 82be 4a40 b3bd
000003e0: 2b1b e1bd c399 a4be f098 043e b1b0 193e
000003f0: 7b60 b6bd 43a7 cc3d faa0 b43d dbd3 0bbe
-0.0042458405 -0.07392643 -0.13832742 -0.018279431 -0.04421225 -0.07269337 0.023348711 -0.3288357
0.15406825 -0.14590418 -0.24925222 0.031544846 -0.02566535 -0.13594963 0.22691877 0.020980956
-0.32193542 0.116079554 -0.1434883 -0.36245883 0.21159284 -0.12936808 -0.097228564 0.241284
0.05967875 -0.15701155 0.21827988 -0.10427135 -0.021802919 -0.12577143 -0.17412572 -0.06941315
0.100435145 -0.038796425 -0.17480995 0.070673905 -0.021661218 0.10101241 0.08294052 0.03501262
-0.16846572 0.0814159 -0.1081918 -0.091248736 0.08099846 -0.20826437 0.11639291 0.053764842
-0.052595858 0.0787769 0.052991714 -0.10537306 -0.11967926 -0.071500026 -0.090365045 -0.11380019
-0.008058207 0.032296807 -0.13763134 -0.029772947 0.101162955 -0.14764705 -0.13903767 -0.0040393947
-0.028517062 -0.049631126 -0.031073136 -0.20544241 0.17339475 0.053496405 -0.1993581 0.063988805
0.17449135 0.022010079 -0.20402186 0.055311 -0.023693081 -0.19831428 -0.18240036 -0.021750864
-0.01812329 -0.079206854 -0.07482994 -0.16036792 -0.00043228955 -0.012870461 0.09765846 -0.0943838
-0.057421032 -0.045284998 0.025826583 0.13136622 -0.27837044 -0.15801814 -0.10777454 -0.08245886
-0.23076522 0.026313704 -0.008902093 -0.20386116 0.05751797 -0.029986296 0.005028413 0.15667456
0.04829258 0.105796896 0.020474546 0.05534495 0.25814986 -0.080656536 0.070023656 0.08406613
-0.07117131 0.11484767 0.075231306 0.052292198 -0.1702592 0.1139324 -0.15641321 0.083962604
0.05195363 -0.0026216018 0.08548225 0.015264877 -0.039338917 0.0137334345 -0.11101074 -0.047371194
-0.022354305 0.0038928604 -0.15337925 -0.1289858 -0.072429955 -0.21783198 -0.07660926 0.030682335
-0.23753195 0.072764605 0.15639015 -0.06536232 0.00073870074 -0.12551486 -0.050814405 0.13236704
0.10260179 -0.09169263 0.13396172 -0.07447189 0.10998587 0.020509167 -0.13560447 -0.021317098
0.3086779 -0.087170795 -0.16316102 0.06325502 -0.032497544 -0.35336432 0.27814993 -0.030324245
-0.24686457 0.09599021 -0.14013031 -0.15401475 0.089742474 -0.026009718 -0.049752995 0.19424032
0.22691499 -0.36624497 0.24089986 -0.03271363 -0.27771348 0.06917566 -0.07286806 -0.17473592
0.15281248 0.09750866 -0.16107453 0.109466694 -0.118829615 -0.25211483 0.132247 -0.11761173
-0.08576341 0.13612306 -0.075186945 -0.12278199 0.08496751 -0.21587226 -0.09519384 -0.083807975
-0.123477854 0.18014453 -0.07165409 -0.017380582 -0.03541051 0.039365273 0.05242197 0.017892765
0.111278 -0.051494755 -0.06263014 -0.058601595 0.05166541 0.1883432 -0.1971683 0.13905048
-0.061955206 -0.15866615 -0.14381583 -0.22192897 -0.10020878 -0.029505046 0.14728865 -0.038136005
0.10376707 0.012407496 -0.053610187 -0.07758886 -0.07424646 -0.25008357 -0.13619174 0.05414726
-0.07452993 0.012814024 0.0049152337 -0.09756989 -0.13089399 -0.2771208 -0.11151568 -0.0017730603
0.039473254 0.11940158 -0.116331354 -0.007008471 -0.22432527 -0.16298926 -0.032194626 -0.004820778
-0.11544008 0.06063291 -0.0979006 -0.11424412 -0.09870121 0.0068476656 -0.25478783 -0.087524965
-0.1099151 -0.3214856 0.12948966 0.15008809 -0.08905121 0.0999284 0.08819766 -0.13655035

update_module.0.bias f4 [32]
00000000: 92fc 01bc 5a91 a93d 1b9c 30bd 9fc8 903c
00000010: 5ba1 003d decc 14bd 6bba 00be 31eb ea3c
00000020: 4c4c c23d 8d12 15bd 7f0c 24bb 7eee 013e
00000030: 2b94 713c 43c4 5c3c 3289 71bc 93c3 143e
00000040: ad9f 3c3e b36f 713d 35e3 5fbc 8154 acbe
00000050: 6056 be3d 981d a43c b4c0 893d ea7e a838
00000060: 6a69 b73d 20af 96be 3e56 07bc ea4f 8dbd
00000070: 516d 2bbe 1b06 833d 243d 80bd b904 37be
-0.007933753 0.08279677 -0.043117624 0.017673789 0.03140388 -0.03632819 -0.12571113 0.028676601
0.09487209 -0.036394645 -0.0025031862 0.12688634 0.014744799 0.013474527 -0.014742183 0.1452773
0.18420286 0.058944415 -0.01366501 -0.3365822 0.092938185 0.020033643 0.06726208 8.034504e-05
0.08955653 -0.29430485 -0.008260308 -0.06900008 -0.1674092 0.06397649 -0.06261662 -0.17872895

update_module.2.weight f4 [16, 32, 1, 1]
00000000: 320e 3f3d 383a 443d 6867 11b9 de10 13bb
00000010: 0f5b c43d 76b4 de3c 767a ba3b ca4c a73c
00000020: 049c 883d 36ca e53c d5a4 383d f19c a73c
00000030: c12a ddbc da49 883d 054b 183d 2ee6 cfbc
00000040: 9b1c 7dbc 9a7c 433d fec5 e13d ed02 37bd
00000050: 892e ba3c 9bab 363d 1c41 7abc e6e9 e8bb
00000060: e0d8 bbbc ed1e 1ebd b649 c83c 16ba aa3c
00000070: 6502 cc3c 2fcd 063d 7d77 a13d a5ad 05bd
00000080: 10a4 b73d 24a7 f43c 62e7 76bb 301f ff3c
00000090: 30f2 913d ef54 ef3c c84b d33b 1cd4 843c
000000a0: b1de 353d d83f f93b 04ab 363d 07bf 673c
000000b0: 9863 bebc 8270 a93d 20c1 a43c 81aa bebc
000000c0: f839 69bc 5bd3 303d 2fad 633c 4609 22bd
000000d0: dcbe a53c 3315 d83c 70b0 e0bb 002f b1bb
000000e0: e68b c8bc 6a84 07bd df81 563c 66b8 003c
000000f0: 3939 4d3c 2e6b 743c ad6a 193d bfd7 61bc
00000100: fd84 803c 1a65 843c c59f 7bbb fa9d a33c
00000110: d5d2 3f3a 1568 013c c701 993b 3e98 893b
00000120: 38d0 693c a6d8 7d3a 40de 803c aec8 773b
00000130: cbce e7bb 4579 893c 59a8 2f3b 6824 b5bb
00000140: 4798 63bb e199 503c 4504 2ebc e54c 36bc
00000150: b8ff dc3b cf93 2a3b bf74 a3ba 9684 f8ba
00000160: 7d96 a8bb 422e 40bc 27df b53b fe10 caba
00000170: c81b ff38 903e 593b 6c17 42bb 2ca4 1abb
00000180: addf 013e 387f a53d 30f8 8dbb aedd 9a3d
00000190: 567c f53d f04b 543d 20c5 473c 6e65 ea3c
000001a0: 9dbd a43d d916 bb3c 492c af3d 17d3 b63c
000001b0: 5a26 28bd 7d93 fe3d f9e5 2e3d 42ae 1dbd
000001c0: febd d5bc f7b9 973d 74f2 7c3d f58b 93bd
000001d0: 86c0 193d 3562 4b3d 5515 6bbc 7549 f7bb
000001e0: d2e8 19bd aa4a 6cbd b163 d73c 23a8 863c
000001f0: a162 b93c 4ffa e4bb 470e 523d ef43 e4bc
00000200: d53b db3d 6eea c63c f6dd f93c f260 243e
00000210: 37eb d03d 07a5 c93c 03d1 09be c733 ee3d
00000220: c7d2 10bc 54e3 1c3e 6520 e23c a939 82bd
00000230: 9022 68bd de61 223e 0a8f 383e 08ff d4bc
00000240: f28b b4bd 768b 1c3c eb7d bc3d 4f26 14be
00000250: d562 87bd 9a5f 883e 01ea a7bd cd55 423d
00000260: b5a0 9d3d 0eb2 f7bc 4ca5 823d a147 9f3d
00000270: 5a5e f53d 06e4 9c3c 8ad3 ca3d d83a 4fbd
00000280: 54f2 9f3c 103b e4bc 2208 b93d c41f 4c3e
00000290: 3668 643d 5d71 323d 6f33 1a3d 1204 4c3c
000002a0: b09f 1dbd f80b 453e f55e 063e dc16 353d
000002b0: f5b4 8cbd 5759 953d e5f5 663e e62b 42bd
000002c0: 4d12 b0bd faf8 983d ecc9 373d 6d47 38bd
000002d0: a5b7 48bd ce70 0d3e e8cf dbbd a269 cd3b
000002e0: 6ae5 073e 7922 89bc f3d5 3e3d dc58 973d
000002f0: 0d6a eb3d 52dc 5e3c e16e f33d bf0b 2cbd
00000300: 1e49 493e 1dd2 95bd 0d4f b43d 78fc 103e
00000310: 6e84 d0bd 2bd2 c8bd 4391 d83d 7ac7 3e3c
00000320: f8e5 89bc f43d b6b8 2604 bdbd 1722 35bb
00000330: f06e 8b3c eee1 d4bd 38f2 593e 5be3 75bc
00000340: 35c3 ddbd 889e 0fbd 4344 59be 0cf4 6a3c
00000350: e4e9 f0bc c207 06be 8c63 163e d326 f3bc
00000360: ebc8 013e c02d 493e 6b07 63bd c960 de3d
00000370: 967b a93d ea15 163d c54e b43c 7c74 1e3e
00000380: d768 a93d 858b b13c 33dc bf3d 6bd3 263e
00000390: 5a2f a33d ff8b 8b3c 5efc 733d 288b 183e
000003a0: 845d cf3c 75d0 713e f918 20bd a915 24bd
000003b0: d2b7 4ebd 8217 583e 4f16 d93d 98b2 11bd
000003c0: e5bb 7dbe adab b73d 224b f03d f6dd 1e3d
000003d0: c1a3 12bd 1bdd 7e3e 8d8d 1f3d cf03 fb3d
000003e0: c11b c33d ac26 44bc 08dc f63d 1da2 4a3e
000003f0: ecbf 823e 4fed 8c3d c6dc debd 7970 3d3e
0.046644397 0.047907084 -0.000138668 -0.0022440474 0.095876805 0.02718566 0.005690868 0.020422358
0.066703826 0.028050523 0.04507907 0.020460578 -0.026997926 0.06654711 0.03718092 -0.025378313
-0.015448715 0.04772625 0.11024092 -0.044680525 0.022727268 0.04459725 -0.015274312 -0.007107961
-0.022930562 -0.038603712 0.02444921 0.020840686 0.024903486 0.032910522 0.07884119 -0.032636303
0.08966839 0.029864855 -0.0037674536 0.031142801 0.07126272 0.029215304 0.006448243 0.016214423
0.04440183 0.0076064877 0.044596687 0.014144666 -0.02324085 0.08273412 0.02011162 -0.023274662
-0.014235012 0.043170314 0.013896271 -0.039559625 0.02023261 0.026377296 -0.0068569705 -0.005407214
-0.024480771 -0.033085264 0.013092487 0.007856464 0.01252585 0.014918132 0.03745525 -0.013784348
0.015688414 0.01616149 -0.003839479 0.01997279 0.0007317488 0.00789835 0.0046694013 0.004199057
0.014270835 0.0009683467 0.015730977 0.0037808823 -0.007074212 0.016781459 0.0026803224 -0.0055280216
-0.0034728216 0.012732 -0.010621135 -0.0111267315 0.0067443512 0.0026028042 -0.0012470706 -0.0018960412
-0.0051448927 -0.011729779 0.0055502835 -0.0015416441 0.00012164522 0.0033148862 -0.0029616011 -0.002359639
0.12682982 0.08080906 -0.004332565 0.07561813 0.11986606 0.051830232 0.012192994 0.028612819
0.08043978 0.022838043 0.085533686 0.022317452 -0.0410522 0.12430475 0.042699788 -0.038496263
-0.026091572 0.07408517 0.06175466 -0.07204429 0.03753712 0.049654204 -0.014348348 -0.0075465986
-0.03757555 -0.057688393 0.026292654 0.016437596 0.022630038 -0.006987847 0.051283147 -0.027864425
0.107047714 0.024281707 0.030501347 0.16052607 0.10201114 0.024614824 -0.13458638 0.116309695
-0.008839316 0.15321094 0.027603338 -0.06358654 -0.056673586 0.15857646 0.18023315 -0.026000515
-0.08815755 0.009554734 0.092037044 -0.14467739 -0.066106476 0.26635438 -0.081989296 0.047445107
0.07696668 -0.03023627 0.06379184 0.07777334 0.11980887 0.019151699 0.09903629 -0.050593227
0.01952473 -0.027860194 0.09034754 0.19933993 0.055763446 0.043565143 0.037646707 0.012452142
-0.038482368 0.19242847 0.1312216 0.044211254 -0.06870452 0.07292431 0.22554739 -0.047405146
-0.085972406 0.074693635 0.044870302 -0.044989992 -0.049003262 0.13812563 -0.10733014 0.006268696
0.13271108 -0.01674007 0.046590757 0.073899955 0.11494837 0.013602333 0.11886383 -0.04200339
0.19656798 -0.073154666 0.0880414 0.14158809 -0.10181509 -0.09805711 0.105745815 0.011644239
-0.01683329 -8.689976e-05 -0.09229307 -0.0027638727 0.017020673 -0.10394655 0.21283805 -0.015007819
-0.108282484 -0.035063297 -0.21217446 0.014340412 -0.029408403 -0.13088897 0.14686412 -0.029681599
0.126743 0.19646358 -0.055426996 0.10858304 0.08275525 0.036641993 0.022010216 0.15474123
0.0827195 0.021672973 0.093681715 0.16291587 0.07968016 0.017034529 0.059566848 0.14896834
0.025313146 0.23614676 -0.039086316 -0.04005972 -0.050468273 0.21102718 0.10599958 -0.03557071
-0.24778707 0.089682914 0.117330804 0.038785897 -0.0358007 0.24889033 0.038953353 0.12256586
0.09526778 -0.011972111 0.120536864 0.19788404 0.2553705 0.068812005 -0.10881953 0.18499936
