final_models/Adam/SamplePools/15-CARROT-train_05-05-2022_17-00-31/models/model_15000.pt (torch, 9699 bytes, 3 tensors)

update_module.0.weight f4 [32, 48, 1, 1]
000000 2e b1 22 be ca 95 57 3d aa ec 0e be 29 45 88 be
       -0.15887901 0.052633084 -0.13957468 -0.26615265
000010 0e 0d f9 3d 14 e6 7a ba 7b df 08 be 84 34 22 bd
       0.12160693 -0.00095710275 -0.13366501 -0.039600864
000020 de c1 50 3e d7 c9 c8 be 46 12 27 3c 86 b6 61 3d
       0.20386454 -0.39216492 0.010197228 0.05510571
000030 f5 5d 84 3e 0a 44 0a be 4d 72 19 3d f1 f3 ae bd
       0.25852934 -0.13502517 0.03746252 -0.08542622
000040 de af 3e be 11 d8 cd 3c c3 5a ac be 2f 83 fa be
       -0.18621776 0.025127443 -0.33662996 -0.4892821
000050 4e a5 95 3e 35 ab c6 be d7 67 4a be 27 19 96 3e
       0.2922768 -0.38802496 -0.19766174 0.29316065
000060 e9 66 46 3e df 67 de 3d 51 9e 59 be 8f 0f f6 bd
       0.19375195 0.108596556 -0.21251799 -0.12014686
000070 f2 3e 94 3d 60 0d 1e be e3 41 08 be 2d 4a 47 3e
       0.07238568 -0.1543479 -0.13306384 0.1946189
000080 62 a1 57 3e 26 bd 02 be 66 5f 8c be 42 b0 07 3d
       0.21057656 -0.12767467 -0.27416533 0.033127077
000090 38 ae 22 3e c0 3e 01 3f 83 30 33 3d 3c 0c 8f be
       0.15886772 0.50486374 0.043747436 -0.27939022
0000a0 b4 aa b3 3c 46 ff 3c 3e b6 9e 7c be ef 3d 0a bd
       0.021931984 0.18456754 -0.24669918 -0.03375047
0000b0 df a2 b0 be 13 1e d0 be 95 a6 52 3e 49 7d c2 3d
       -0.3449926 -0.40647945 0.20571359 0.094965525
0000c0 76 18 d7 be 8f c9 9f bd e3 e4 ad bb 18 ba 22 bf
       -0.4201085 -0.07802116 -0.0053068264 -0.63565207
0000d0 d0 68 d8 be 1f 2d 17 3d ee 74 d9 be 18 0c 8b be
       -0.42267466 0.036908265 -0.42472023 -0.27157664
0000e0 a8 61 c5 bd b3 e5 05 bf 73 9d 9e be 61 0a b6 bc
       -0.09637767 -0.5230362 -0.309795 -0.022221746
0000f0 7f eb 85 3e cd fb 14 bd 10 57 e0 3c f6 e7 44 bd
       0.26156232 -0.03637295 0.027385265 -0.048072778
000100 18 bd 54 3e b8 0a 7e be 7c ed 19 be 9d 38 2c be
       0.20775259 -0.24808776 -0.15032 -0.16818471
000110 78 90 03 bd fc 05 b7 3d f5 b5 ce be 42 31 4e 3e
       -0.032120198 0.08936688 -0.40373197 0.20135978
000120 e0 57 9b 3d db df af 3e 15 c2 2f be e0 a8 b1 bd
       0.0758512 0.34350476 -0.1716388 -0.086747885
000130 4c 04 83 bc ce b2 04 bd f6 e0 48 be 79 1c 01 3e
       -0.01599326 -0.032397084 -0.19617066 0.12608518
000140 18 a8 91 be 1c 4c b3 3d 3f 1d 20 be b4 64 94 be
       -0.28448558 0.08754751 -0.15636156 -0.2898308
000150 55 76 d3 bd ba 84 03 3e ac f0 53 3e 1f c3 81 be
       -0.103253044 0.128436 0.20697278 -0.25344178
000160 48 c1 33 bd 9b 9f 12 be 39 0c 3d bd a7 b2 b6 3e
       -0.0438855 -0.14318697 -0.046154235 0.35683176
000170 c7 5b ed bd 53 3c 1a be 9b d1 2c 3d 67 de 55 be
       -0.11589771 -0.15062074 0.042192083 -0.20885621
000180 76 0d 54 bf ab 26 68 3e f4 ad e1 bd 2b 65 43 bf
       -0.8283304 0.22671 -0.11019507 -0.76326245
000190 cc c1 a6 3d 66 45 5b bd 7d fb 89 3d c7 82 30 3c
       0.081424326 -0.05353298 0.06737421 0.010773367
0001a0 15 9a a9 3e 02 51 26 3e f4 3d d8 be 27 bf 96 3e
       0.33125368 0.1624184 -0.42234766 0.29442713
0001b0 0a 3e f4 3e 93 e0 c3 be ce c5 48 3e 4d 71 56 be
       0.47703582 -0.38257274 0.19606707 -0.20941658
0001c0 31 e8 fb 3d ae 32 fe bd 7a d1 b3 bd 99 af 38 3d
       0.12300146 -0.1241201 -0.08780189 0.045089338
0001d0 74 af 42 be cd 33 b7 3c 97 f1 db bd 04 d4 d1 3d
       -0.19012243 0.022363568 -0.10739439 0.10245517
0001e0 26 5d 4c 3e fc a2 88 be cf 45 81 3e a3 f5 5c 3c
       0.19957408 -0.26686847 0.25248572 0.013486299
0001f0 46 57 1e be 17 72 94 bc 06 6a 13 be f3 0b 3a 3d
       -0.1546298 -0.018120809 -0.14395913 0.045421552
000200 a4 90 63 bd 49 c2 6b bd 36 4f b7 bc c4 b3 53 be
       -0.055557862 -0.05755833 -0.022376638 -0.20674044
000210 f9 27 89 3d b0 38 a2 be 38 29 cf 3c 0c c0 d4 bd
       0.06697077 -0.31683874 0.02528821 -0.103881925
000220 02 0f cc be 9b 54 31 3e 09 a9 50 3e 78 49 99 be
       -0.398552 0.1731743 0.20376982 -0.29938865
000230 b0 25 5b 3d b9 7f 1e be f4 a5 93 bd ef 34 83 3d
       0.05350274 -0.1547841 -0.072093874 0.06406581
000240 f3 13 4d 3d 5c dc a5 3d 48 02 86 3e 60 70 65 be
       0.050067853 0.08098671 0.26173615 -0.22406149
000250 74 98 96 3e f9 f5 04 bd 24 f0 c2 be 3a fb 62 3e
       0.29413188 -0.03246114 -0.38073838 0.22166148
000260 ad 5b ad 3e 70 ba c3 be 9c e6 b9 bb ef e0 03 3e
       0.33859006 -0.38228178 -0.0056732427 0.12878774
000270 43 83 81 bc 0e 0b 52 be 35 f8 49 3e ad 24 8b be
       -0.01580966 -0.2051203 0.1972359 -0.2717642
000280 ef 8e 09 bf 45 7e 24 3e a5 2b 3a be 2c 9d 8a be
       -0.53733724 0.16063793 -0.18180712 -0.27073038
000290 92 63 b4 3d ae 07 3f be 81 17 cd bd 3c cd 9a 3e
       0.08808054 -0.18655273 -0.10014249 0.30234706
0002a0 10 fd f2 3d ff d2 f1 be e9 70 8d 3e b1 e9 a8 bd
       0.11864674 -0.4723129 0.27625206 -0.08247698
0002b0 10 12 ce be c4 57 6d be 91 b1 c7 bd 16 f1 7f be
       -0.40248156 -0.23178011 -0.09750665 -0.2499431
0002c0 37 5c 8c 3e bd df c2 bc 70 4f d8 be f0 3e 8d 3e
       0.27414104 -0.023788327 -0.42248106 0.2758708
0002d0 0a a0 f8 3c fc 73 8e be 34 9c d5 3d b0 99 1a be
       0.03034975 -0.27822864 0.10430184 -0.1509769
0002e0 96 c6 a4 bd cf d5 d3 3d ca 49 33 be a2 25 1b be
       -0.0804569 0.10343515 -0.17508617 -0.15151075
0002f0 55 da a9 bc a0 14 9a be cd 4d 90 be a6 ce a1 bc
       -0.020733992 -0.3009386 -0.28184357 -0.019751858
000300 fd a3 6c be de 01 ad 3e 18 ea 91 bc 6e 8c a0 be
       -0.23109432 0.33790487 -0.01781182 -0.3135714
000310 33 bc 0b 3e 0a a2 84 3e 71 da 84 be 2c 8b 09 3e
       0.13646011 0.25904876 -0.25947908 0.13431996
000320 5b a8 ae 3e 61 82 be be 96 1d 8e 3d ae ad bb 3d
       0.3411282 -0.37208846 0.06939237 0.09163986
000330 d3 ae b2 3e 65 79 47 3d 6f 9c b4 be 1c 6c b4 be
       0.34899005 0.048699755 -0.352756 -0.3523873
000340 2f 74 aa 3d 36 f1 86 be bc 03 26 be aa a8 ae bd
       0.083229415 -0.26355904 -0.16212362 -0.08528264
000350 c9 75 9a 3a cf 0b fa bd b9 0a d6 3c b7 aa d8 3d
       0.001178437 -0.122092836 0.02612816 0.10579436
000360 3a fd 40 be c4 f7 64 be 04 d9 78 bd 29 c0 09 bf
       -0.18846598 -0.2236014 -0.060753837 -0.5380884
000370 60 b2 3b be 52 cc 00 bf 24 4b 3e be 91 47 18 3e
       -0.18329763 -0.5031177 -0.18583351 0.1487105
000380 d0 fd 2e be 09 82 3c be ff 76 d0 bd e7 ee 5d be
       -0.1708901 -0.1840898 -0.10178947 -0.21673165
000390 84 da 39 3c d3 c8 bc be 7c a0 63 be 8b a1 96 be
       0.011343602 -0.36871967 -0.22229189 -0.29420123
0003a0 4a ab e6 3d 96 e6 b2 3d 1f 20 54 3d bf 14 d5 bd
       0.112631395 0.08735387 0.051788446 -0.10404348
0003b0 44 f5 f1 be 6b 04 d7 be d3 0e 91 be 25 6d 62 be
       -0.47257435 -0.41995558 -0.28331622 -0.22111948
0003c0 4f 68 84 be 50 21 0f 3f 28 7a 4f be 64 51 f0 be
       -0.2586083 0.55910206 -0.20261443 -0.46937096
0003d0 af 1d 37 3e d5 c6 d8 be ef d4 c4 be 31 f0 b6 3d
       0.17882417 -0.42339197 -0.38443705 0.089325316
0003e0 5b db 14 be 30 44 5f bf 7f 1d 4a 3e 75 c0 86 be
       -0.14536802 -0.8721342 0.19737814 -0.26318708
0003f0 d4 ff 06 3e da 59 53 3e a1 7a 93 3e 65 df 04 be
       0.13183528 0.20639744 0.28804496 -0.12975843

update_module.0.bias f4 [32]
000000 f5 cb c1 bd d8 9d d1 bc 75 c0 53 bd a0 ea 9c bd
       -0.0946273 -0.025587961 -0.051697213 -0.07661939
000010 b3 04 19 bd 54 9d b4 3d 35 58 4a bd 5b c9 4c bd
       -0.037357997 0.088190705 -0.049400527 -0.049996715
000020 4c 4e 2a 3d 06 76 cf bd 66 cf 94 bd 9f 8c ba 3b
       0.041578576 -0.10129933 -0.072661206 0.005693033
000030 83 2e d8 bc d4 8e 0a bb c2 61 81 bc f8 e1 41 bd
       -0.026389366 -0.002114226 -0.015793685 -0.04733464
000040 99 33 54 3d 25 d9 dd bb e2 c9 c6 b9 0f 40 3f bf
       0.05180702 -0.0067702704 -0.00037915917 -0.7470712
000050 cc 63 e2 bc 83 31 de bc 08 d9 33 bc 27 84 09 be
       -0.027635477 -0.027123218 -0.010977037 -0.13429318
000060 ed 1e 4f bb e4 e4 8b bf 97 93 84 bd a1 21 c6 bd
       -0.0031604127 -1.0929227 -0.06473463 -0.09674383
000070 f7 6e cb bd df ed 45 be c7 db ef bd 5d 3f 8f be
       -0.09933274 -0.19329022 -0.11711841 -0.2797803

update_module.2.weight f4 [16, 32, 1, 1]
000000 3e 25 d8 3d 64 37 31 3e dc 7d 85 3d aa d9 5a 3c
       0.105539784 0.17306286 0.065181464 0.013357559
000010 4a c4 27 3e 11 65 ab 3d 6f 29 77 bb bd 92 81 3d
       0.16383472 0.08368886 -0.0037713905 0.06326816
000020 d9 28 f4 3d 9a d7 e3 3d ed 05 a0 3d fa a3 38 3d
       0.119218536 0.11125107 0.0781363 0.045078255
000030 0b 6c 93 bd f2 24 d7 3d 83 c1 20 3d ca 6b 7e bd
       -0.07198342 0.10505094 0.039247047 -0.062114514
000040 4e d2 2f bd c7 84 20 3e 47 a1 9c 3e 28 f5 71 be
       -0.04292517 0.1567565 0.30591795 -0.23628676
000050 ab 38 14 3e 9c dc 95 3d 00 09 9d bd 0a 85 f5 3b
       0.14474742 0.073174685 -0.07667732 0.007492666
000060 1f 35 1e be 5d 35 94 be 53 91 38 3e 43 16 03 3e
       -0.15449952 -0.28946963 0.18024187 0.12801461
000070 4b 0d 9c 3d 1d 22 18 3e 0f a2 91 3e 96 55 b3 bd
       0.07619723 0.14856763 0.28443953 -0.087565586
000080 37 44 24 3e 2f ab 31 3e 56 51 2d 3d 5b d1 96 3d
       0.16041647 0.17350458 0.042313896 0.0736415
000090 17 f9 41 3e fc 97 aa 3d 53 a5 09 bc 49 72 e1 3c
       0.18942676 0.0832977 -0.008401233 0.027520316
0000a0 98 34 06 3e fa 41 ea bb 26 a6 2d 3e 3e 4b 10 3d
       0.13106 -0.0071489783 0.16957912 0.035228007
0000b0 76 2e 61 bd fb d6 37 3e cd 55 c7 3c f0 16 9d bd
       -0.05497595 0.17953102 0.024332905 -0.076703906
0000c0 67 b1 1b bd cd c9 0d 3e c7 d0 a6 3d 63 4f 4c be
       -0.03801098 0.13846512 0.0814529 -0.19952159
0000d0 7b c7 b6 3d ee 0e 9a 3d 8d 30 63 bd ff 1f 27 bc
       0.08924767 0.07522379 -0.055466224 -0.0102005
0000e0 05 7b ff bd aa de 84 be 70 51 b0 3d 18 fc 1c 3d
       -0.12474636 -0.2595113 0.08609283 0.038326353
0000f0 a4 06 88 3d 19 2f a4 3d 09 64 2f 3e b7 c4 8c bd
       0.066418916 0.08016796 0.17128004 -0.06873458
000100 06 12 0c 3d 91 56 28 3d de a6 f6 bb 87 6d cf 3c
       0.034196876 0.04109818 -0.0075272163 0.025320781
000110 b1 21 50 3d 36 a3 8a 3c 56 f2 83 3c 7b 9a dc bb
       0.05081338 0.016923528 0.016106766 -0.0067322827
000120 99 05 a5 3c 4a a0 ac bc 4a f7 6d 3d 69 dc 70 3c
       0.02014427 -0.021072526 0.05809716 0.014700987
000130 e4 72 cd bb a3 bd 7b 3c 64 fd d4 bb 2c b7 98 bb
       -0.0062697995 0.015365037 -0.006499933 -0.0046605077
000140 8f ba c5 bb bc 5d 23 3d 0c 35 5e ba 84 f5 0b bd
       -0.0060342024 0.039884314 -0.00084765325 -0.03416969
000150 aa 93 3b 3d cd 76 e0 3b 35 1e 84 ba 1e 61 2a bc
       0.04579512 0.0068500997 -0.0010079803 -0.010399131
000160 db 01 d0 bc fb 7a ad bd 3b e4 b6 3b a2 95 d4 3a
       -0.02539151 -0.08470722 0.0055814064 0.001621891
000170 70 f2 ca 3a 0e d1 a3 3c 37 72 9e 3c 03 61 d2 bb
       0.0015483629 0.019997146 0.019341571 -0.006420256
000180 ad 12 90 3e cf a0 92 3e 07 dc 83 3d b0 af 12 3e
       0.28139248 0.28638312 0.06438451 0.14324832
000190 1d 48 a5 3e cb 5e 10 3e d6 cb 51 3c 1a f4 1e 3d
       0.3228158 0.1409866 0.012804946 0.038807012
0001a0 b4 c8 4b 3e 38 df c6 bc 18 66 b0 3e 62 4b 97 3d
       0.19900781 -0.02427636 0.3445289 0.07387425
0001b0 2b aa ae bd ba 90 72 3e e5 83 1a 3d a7 95 ee bd
       -0.08528551 0.23688021 0.03772344 -0.11649638
0001c0 3b a4 8e bd 51 2f 91 3e 79 72 3a 3e 37 f6 c7 be
       -0.06964918 0.28356412 0.1820773 -0.39055035
0001d0 f8 bf 5b 3e c1 fd e3 3d f5 22 ad bd 4f 93 29 bd
       0.21459949 0.11132384 -0.08453933 -0.04140025
0001e0 df 6a 4b be d7 3f e4 be 5d 3b 2f 3e 6f 2b 9f 3d
       -0.19864987 -0.44579956 0.17112489 0.07771956
0001f0 d3 4f cf 3d 30 e2 87 bd fd 39 86 3e e1 74 dd bd
       0.10122647 -0.06634939 0.26216117 -0.108133085
000200 5a e5 3d 3b 72 7f 38 3d b2 f1 18 3c 1b cd d3 3e
       0.0028975816 0.045043416 0.009334968 0.4136742
000210 17 90 f0 3d 91 09 87 3e 92 44 80 be bf 60 24 3d
       0.11746233 0.26374486 -0.25052315 0.040131327
000220 db 9a 90 3d 92 bb d0 3c 84 45 49 3e c7 bd 45 be
       0.07060786 0.025480065 0.19655424 -0.19310676
000230 55 25 23 be 5e 09 29 3e aa c1 0d 3e aa b5 e2 bd
       -0.1593221 0.1650748 0.13843408 -0.11069806
000240 a9 d1 cd bd 3c c3 be 3a 33 01 2e 3e a1 db e6 be
       -0.10049755 0.0014554034 0.16992645 -0.4508944
000250 8e 50 e3 bd 55 8c e9 3e 3a 67 39 3c f4 d5 21 3c
       -0.11099349 0.45614877 0.011316115 0.009877671
000260 49 62 0f bd 4a 77 8d be 50 c2 bb 3d d8 3b de bb
       -0.03500584 -0.27630073 0.091679215 -0.0067820363
000270 f2 37 16 3f e1 78 fb 3c cb 22 1d 3e 32 22 51 be
       0.58679116 0.030697288 0.15345304 -0.204232
000280 c2 c8 00 be c8 d4 66 be b9 4c 8d 3e 06 ab 1c 3f
       -0.12576583 -0.22542107 0.27597597 0.6119846
000290 85 bb 25 be d4 b6 47 3e f1 41 ca 3c 63 37 92 bc
       -0.16184814 0.19503337 0.024689646 -0.017848676
0002a0 d5 c7 84 bd 6c bb 5b 3e ad db 5f 3e 3e c0 19 bd
       -0.064834274 0.21458215 0.21861143 -0.037536852
0002b0 d2 72 02 3c dc 2d ca 3d 76 07 15 3f 4a 02 31 be
       0.007961946 0.09872028 0.5821451 -0.1728603
0002c0 55 99 da bd b7 63 0d 3e 53 8e ac 3d bd 2e f6 3c
       -0.10673777 0.1380757 0.08425584 0.030051583
0002d0 24 5c 61 bd fb 60 a8 3e 36 af 8c be cc c8 2b 3e
       -0.055019513 0.3288649 -0.27477425 0.16775817
0002e0 93 15 c4 bc a7 69 bc 3c c6 12 2d 3e 31 b4 91 3d
       -0.023936069 0.022999598 0.16901693 0.07114447
0002f0 a4 9e 0e 3e 62 72 1c bc bf bf d1 3e 31 6d 3f be
       0.13927704 -0.009548755 0.40966603 -0.18693997
000300 7c dc d1 3e 53 52 a8 be 35 a7 87 3e ca 95 04 3d
       0.4098853 -0.32875308 0.26494756 0.032369412
000310 a7 cd d4 bd ae 1b fb bd 8a 6d 2e 3e 6c 44 e3 be
       -0.103907876 -0.12261139 0.17033973 -0.4438814
000320 c1 e6 bf 3d 52 f4 bd be fb 56 bc 3c d2 c5 50 3e
       0.09370185 -0.37100464 0.022990694 0.20387962
000330 c8 d8 65 3c 1e 1a 1a be d6 86 28 3e da 5a e7 3d
       0.014028735 -0.15049025 0.16457686 0.112966254
000340 8e da c5 be f8 23 54 be ce 10 0d bf 20 05 13 3e
       -0.38643306 -0.20716846 -0.55103767 0.14357424
000350 3a 94 39 be 3e 3a 9f bd 74 49 d9 3e 0a 9b b4 be
       -0.1812295 -0.07774781 0.42438853 -0.35274535
000360 ff e8 fe 3e 23 39 a3 3e d6 bc d9 bc d8 8f ef 3c
       0.49787137 0.3187953 -0.026579302 0.029243395
000370 04 23 e8 3e 71 91 92 3e 68 68 cd ba 17 8c d4 3e
       0.45339215 0.28626588 -0.0015671374 0.4151313
000380 fa 91 81 3e e3 5b bf ba ae f2 3a 3c 71 b3 0c 3e
       0.25306684 -0.0014599528 0.011410398 0.13740326
000390 fa 6e c6 3e 8e 35 36 bd 07 23 0c 3e 5a 3c 04 3e
       0.38756543 -0.044484667 0.13685237 0.12913647
0003a0 a8 94 14 be 41 49 c7 3e 37 d3 32 3c 82 3c a7 be
       -0.14509833 0.38923076 0.010914615 -0.3266335
0003b0 43 fb 51 bd f4 22 45 3f 46 5d 0f bc bb d1 9b 3d
       -0.051265012 0.7700646 -0.008750265 0.07608362
0003c0 31 da 0a bf fc dc 90 be c5 84 71 3e 1e 42 1e 3e
       -0.54239184 -0.28293598 0.23585804 0.15454909
0003d0 a0 ca 07 bf 3e b1 3b 3f c2 63 64 3d a0 f7 ac 3e
       -0.53043556 0.73317325 0.0557592 0.33782673
0003e0 7a 5a 8d be 4d c9 0d bf 10 49 5b 3d 0d bd 08 3f
       -0.2760809 -0.55385286 0.053536475 0.5341347
0003f0 28 7e f3 3e 7b 42 f3 3e 3a e0 7c be 56 48 da 3e
       0.47557187 0.47511658 -0.2469491 0.42633313
