final_models/Adam/SamplePools/15-RABBIT-FACE-train_05-05-2022_13-44-43/models/model_8000.pt (torch, 9699 bytes, 3 tensors)

update_module.0.weight f4 [32, 48, 1, 1]
0	0xbe7aed86	-0.2450467
1	0xbe32f33c	-0.17475599
2	0xbe3962a2	-0.18104032
3	0xbe800148	-0.25000978
4	0xbe68db5b	-0.22739927
5	0xbd74fd1d	-0.0598117
6	0xbe841325	-0.25795856
7	0xbe8c343f	-0.2738361
8	0xbd0845de	-0.033269756
9	0x3e7ffd09	0.24998869
10	0x3dc107cc	0.09425315
11	0x3e62c925	0.22147043
12	0x3e8587d3	0.26080188
13	0x3e513783	0.20431332
14	0x3e563a00	0.20920563
15	0xbe51a091	-0.20471407
16	0x3e7e8739	0.24856271
17	0x3c2338fc	0.009962317
18	0xbdf5294e	-0.11970769
19	0xbd372f38	-0.044722766
20	0x3e8ab324	0.27089798
21	0xbc42f2ba	-0.011898691
22	0x3e91c857	0.2847316
23	0x3e94cafd	0.29061118
24	0x3c9d5595	0.019205848
25	0x3de83495	0.11338154
26	0x3ea60c69	0.32431343
27	0xbd9e3371	-0.077246554
28	0x3e980913	0.29694423
29	0x3e9ddfd2	0.30834824
30	0xbe0401de	-0.12891337
31	0xbdf6b4ce	-0.120462045
32	0x3e4948b1	0.19656636
33	0x3e41a1f3	0.18909435
34	0x3dfdb0cc	0.12387237
35	0x3c9f0113	0.019409692
36	0xbdbbe4c3	-0.09174492
37	0x3da8c9c3	0.08241608
38	0x3db5b54c	0.0887247
39	0x3da0ad7f	0.07845592
40	0x3e27d703	0.16390614
41	0xbcf53442	-0.029932145
42	0x3ee972a2	0.4559527
43	0x3cb6dec9	0.02232303
44	0x3e933e68	0.2875855
45	0x3f2b58db	0.6693246
46	0x3e1e20c0	0.1544218
47	0x3efea4a3	0.49734983
48	0x3d8f0233	0.06982841
49	0xbd855b32	-0.06511535
50	0xbd317ee8	-0.043333918
51	0x3c0a421c	0.008438613
52	0x3e190274	0.14942342
53	0x3e005478	0.12532222
54	0xbd75d385	-0.060016174
55	0x3c3b20d1	0.011421398
56	0x3c8690dc	0.016426496
57	0x3cfc84ac	0.030824982
58	0x3e1c86eb	0.15285842
59	0xbe8c7346	-0.27431697
60	0xbdba5e96	-0.09100072
61	0x3e0b7447	0.13618575
62	0xbe5c34fe	-0.2150459
63	0xbe06b817	-0.13156162
64	0x3e3bdd94	0.18346244
65	0xbe38f029	-0.18060364
66	0xbdec8545	-0.11548857
67	0x3e236247	0.15955459
68	0xbe219e3b	-0.15783016
69	0x3ca2dcf0	0.019880742
70	0x3db8c880	0.09022617
71	0xbde54971	-0.111956485
72	0xbe6b8a3c	-0.23001951
73	0x3dfd7657	0.12376087
74	0xbe8bf947	-0.2733862
75	0x3bbcd2fd	0.0057624565
76	0x3e536321	0.20643283
77	0xbee59a11	-0.44844106
78	0xbe7ca77f	-0.2467327
79	0x3e8ee36b	0.2790788
80	0xbe3c1235	-0.1836632
81	0xbe208097	-0.15674053
82	0x3d7e358b	0.06206278
83	0xbe6aadc4	-0.22917849
84	0xbe4c27a1	-0.19936992
85	0x3e83a818	0.25714183
86	0xbd107432	-0.035267062
87	0xbe1a6509	-0.15077604
88	0x3e23dd9a	0.16002503
89	0xbde2e66e	-0.11079107
90	0x3bcf3844	0.006323846
91	0x3df769cf	0.12080728
92	0xbef4c222	-0.47804362
93	0x3c67c127	0.014145172
94	0x3e2e2879	0.17007627
95	0xbf10cbe9	-0.5656114
96	0xbd9f078b	-0.077651106
97	0xbc107a94	-0.008818287
98	0xbe9ef1f1	-0.31043962
99	0x3dd038e1	0.10167099
100	0xbd04ebdf	-0.032451507
101	0xbe8c3bcc	-0.2738937
102	0x3d8ad6d2	0.06779255
103	0x3c7b7623	0.01534799
104	0xbdd3fa4a	-0.10350473
105	0x3db88807	0.0901032
106	0x3dad7b74	0.084708124
107	0xbe99226a	-0.29909068
108	0xbddcf871	-0.10789574
109	0xbe131b55	-0.14365895
110	0x3d04bc80	0.03240633
111	0xbe2c1361	-0.16804267
112	0x3e1bcf77	0.1521586
113	0xbcc64c54	-0.024206318
114	0xbe2deda2	-0.16985181
115	0xbcbcb958	-0.023037598
116	0xbe91a5c4	-0.28446782
117	0xbdc779b4	-0.0974001
118	0xbcbd7379	-0.02312635
119	0xbdad1568	-0.084513485
120	0xbe04ee34	-0.12981492
121	0x3c8f2d92	0.017477784
122	0x3d2a7719	0.041617487
123	0xbd6cf815	-0.057853777
124	0xbd66e738	-0.05637285
125	0x3ea85adf	0.3288183
126	0xbe1e3429	-0.15449585
127	0xbde8d4ad	-0.1136869
128	0x3e6c850c	0.23097628
129	0xbd665658	-0.056234688
130	0x3da2a6ef	0.07941996
131	0x3df06e1b	0.11739751
132	0x3e4c328a	0.19941154
133	0x3d2c9a84	0.042139545
134	0xbe322f49	-0.1740085
135	0xbe44ea40	-0.19229984
136	0x3d3ae93d	0.04563259
137	0xbe33d68b	-0.1756231
138	0x3ecce265	0.40016475
139	0x3b8f3795	0.0043706396
140	0x3f0dd6de	0.55405986
141	0x3e49cc15	0.19706757
142	0xbd55a20a	-0.052156486
143	0xbd30b241	-0.043138746
144	0xbdaec71a	-0.08534069
145	0x3da7cb13	0.0819303
146	0xbd86215e	-0.06549333
147	0xbdcf931d	-0.101354815
148	0x3d3e3ebd	0.04644655
149	0x3cc483a0	0.023988545
150	0xbd71bbfd	-0.05901717
151	0x3cd6f237	0.026238544
152	0x3d1c7298	0.038195223
153	0x3d8b6a81	0.068074234
154	0xbe8ded00	-0.2771988
155	0xbe403abb	-0.18772404
156	0xbe6d2a10	-0.23160577
157	0xbdd6568d	-0.10465727
158	0xbeb89684	-0.36052334
159	0xbe5431e0	-0.20722151
160	0xbe52a42a	-0.20570436
161	0xbe6be05b	-0.23034804
162	0xbcb650c5	-0.02225531
163	0xbda992a3	-0.08279922
164	0xbdf270c1	-0.11837912
165	0xbe3da451	-0.18519713
166	0xbe5fbc30	-0.21849132
167	0xbe8d750b	-0.2762836
168	0x3c6c29ca	0.01441426
169	0xbea8f2ba	-0.32997686
170	0xbea6ca7a	-0.32576352
171	0xbe7a9e03	-0.24474339
172	0xbdca58c4	-0.09880212
173	0xbe90bcb7	-0.28268978
174	0xbe11e1cc	-0.14246291
175	0xbe3d3c6f	-0.18480085
176	0xbe86dc90	-0.2634015
177	0x3c971670	0.018443316
178	0xbe77b8d6	-0.24191603
179	0xbe0c35a0	-0.13692331
180	0xbdb6b490	-0.08921158
181	0xbecd78c9	-0.40131214
182	0xbe87010b	-0.26367983
183	0xbd06e0d9	-0.032929275
184	0xbd14b189	-0.036302123
185	0xbe424c65	-0.18974455
186	0xbd8aee95	-0.06783787
187	0xbeaee58d	-0.34159508
188	0xbe4d64cd	-0.20057984
189	0x3e62763a	0.22115412
190	0xbe8d5172	-0.276012
191	0xbeaf02b9	-0.34181765
192	0xbd15dab9	-0.036585543
193	0x3daa9ee1	0.08331085
194	0x3dd4ae7d	0.103848435
195	0x3b0cf416	0.0021507791
196	0x3cf4f072	0.02989981
197	0x3e625dc1	0.22106077
198	0xbe7a7faf	-0.2446277
199	0x3d0a7322	0.033801205
200	0x3e13effc	0.14447016
201	0x3b9c4c6b	0.004769852
202	0xbd7d808f	-0.06189018
203	0xbd1d67db	-0.038429122
204	0xbc9ffc2e	-0.019529428
205	0x3e11cda8	0.14238608
206	0x3e89ce59	0.26915243
207	0xbea88256	-0.32911938
208	0x3bf90fe7	0.0076007727
209	0x3e7a02e9	0.24415173
210	0xbd293e92	-0.041319437
211	0xbe0497ba	-0.12948504
212	0xbd2ec2e9	-0.04266635
213	0xbcfaea83	-0.030629402
214	0x3bd3a245	0.006458553
215	0x3d5c1189	0.05372766
216	0xbe091f0b	-0.13390748
217	0x3deb660c	0.11494073
218	0x3ddf7520	0.10911012
219	0x3d0e9991	0.03481442
220	0xbe17c85b	-0.14822523
221	0x3ca69a74	0.02033732
222	0xbe84c088	-0.2592814
223	0xbdd356e9	-0.10319311
224	0x3d1c3eb3	0.038145732
225	0xbdc73448	-0.09726769
226	0x3e82a4db	0.255164
227	0x3d9380a8	0.072022736
228	0xbd0ed437	-0.034870353
229	0xbe3e51ec	-0.18585938
230	0xbdb1a565	-0.08674125
231	0xbd43e3d4	-0.047824696
232	0x3dab1df3	0.08355322
233	0x3ea3db96	0.32003468
234	0x3d11ce71	0.03559727
235	0x3e024855	0.12722905
236	0xbeeea950	-0.4661355
237	0x3e9f4323	0.3110591
238	0xbe902715	-0.28154817
239	0xbe98fbbc	-0.29879558
240	0xbf72aef7	-0.94798225
241	0x3ea10b7e	0.3145408
242	0xbd8b17f2	-0.067916766
243	0xbf57f438	-0.84357023
244	0x3c6cc6d8	0.014451705
245	0xbdf006ee	-0.11720072
246	0xbf587197	-0.84548324
247	0xbe3bd251	-0.18341948
248	0xbd349fb2	-0.04409761
249	0xbf430df2	-0.76193154
250	0xbe36bba5	-0.17845018
251	0x3e952cac	0.29135644
252	0x3d5494e8	0.05189982
253	0x3b193434	0.0023377063
254	0x3db08f88	0.086211264
255	0xbdd00441	-0.10157061

update_module.0.bias f4 [32]
0	0x3d9e52a1	0.07730604
1	0xbe1ef3fa	-0.15522757
2	0x3e418e58	0.18901956
3	0x3c3f7234	0.011684943
4	0x3e92ec41	0.28695872
5	0x3e094c6e	0.13408062
6	0x3d6ce2b5	0.057833392
7	0xbf50a2f0	-0.8149862
8	0xbe87a104	-0.26490033
9	0x3d8e3e56	0.069454834
10	0xbeca1098	-0.39465785
11	0xbd303235	-0.04301663
12	0x3d8217e5	0.06352214
13	0xbe2e6f97	-0.17034756
14	0x3dca5f05	0.09881405
15	0x3dfed8b3	0.12443676
16	0x3d8b5912	0.06804098
17	0x3d964779	0.07337851
18	0x3cfbed5e	0.030752834
19	0x3e8cb587	0.27482244
20	0xbf06b897	-0.5262541
21	0x3b2bd857	0.0026221478
22	0x3d95c002	0.07312013
23	0xbd3296e9	-0.04360095
24	0x3d9b1da3	0.07574012
25	0xbe22a308	-0.15882504
26	0x3df9f6aa	0.122052506
27	0xbc32b049	-0.0109062875
28	0xbddce116	-0.10785119
29	0xbcd4dab7	-0.025983198
30	0x3d93abb1	0.07210482
31	0xbdfb66f1	-0.12275494

update_module.2.weight f4 [16, 32, 1, 1]
0	0x3db01f70	0.08599746
1	0xbd346637	-0.044042792
2	0xbd802fac	-0.06259093
3	0x3c348918	0.011019014
4	0xbda546c6	-0.080701396
5	0x3e250c45	0.16117962
6	0x3e942721	0.28936103
7	0xbe01ba62	-0.12668756
8	0xbd507ee3	-0.05090226
9	0x3e0d8ea3	0.13823943
10	0xbde9760c	-0.11399469
11	0x3d1b00ac	0.037842438
12	0x3d2bc014	0.041931227
13	0xbe2eb084	-0.17059523
14	0x3d2f1169	0.042741213
15	0x3d84ed08	0.064905226
16	0x3db540a7	0.08850222
17	0x3cd9bd19	0.026579427
18	0x3dcfae18	0.101406276
19	0x3cfd4789	0.0309179
20	0xbd3b5251	-0.0457328
21	0x3d693759	0.05693755
22	0x3e223cac	0.15843457
23	0xbc9ef41a	-0.019403506
24	0x3dcdd7a1	0.100508936
25	0x3d7b1a6d	0.0613045
26	0x3d00e6b8	0.03147003
27	0xb9657164	-0.00021881383
28	0xbb5b67fa	-0.0033478723
29	0x3d690ce3	0.056897055
30	0x3d082b46	0.033244394
31	0x3dc7b09b	0.09750482
32	0x3db7c803	0.08973696
33	0xbd8f29aa	-0.06990369
34	0xbd80eb79	-0.06294913
35	0xbc14ffe5	-0.009094213
36	0xbdabcefb	-0.08389088
37	0x3e1e2f94	0.15447837
38	0x3e4ac580	0.19801903
39	0xbe2eb970	-0.17062926
40	0xbd2856f7	-0.04109856
41	0x3e20e4ae	0.15712234
42	0xbdf86139	-0.12127919
43	0x3cdbcf9f	0.0268324
44	0x3d3d63d1	0.04623777
45	0xbe227fa2	-0.15869
46	0x3d21d55a	0.03951011
47	0x3d9cc1f2	0.0765418
48	0x3dbea8c7	0.093095355
49	0x3cb3f226	0.021966051
50	0x3e065087	0.13116656
51	0x3d155a2c	0.036462948
52	0xbd3c077d	-0.04590558
53	0x3d712afe	0.05887889
54	0x3e1eec9a	0.15519944
55	0xbcc23e63	-0.023711389
56	0x3dfaaffb	0.12240597
57	0x3da8b984	0.08238509
58	0x3d33b318	0.04387197
59	0x3c695ff4	0.014244068
60	0x3b451009	0.0030069372
61	0x3d55eb5b	0.052226406
62	0x3c99767e	0.01873326
63	0x3df19bc0	0.11797285
64	0x3dbde5dd	0.092723586
65	0xbd979195	-0.074008144
66	0xbd82b064	-0.063813
67	0xbc5106b8	-0.0127579495
68	0xbdae4a4c	-0.08510265
69	0x3e21ce28	0.15801299
70	0x3e44372b	0.1916167
71	0xbe33a052	-0.17541626
72	0xbd22f156	-0.039780937
73	0x3e276fd1	0.16351248
74	0xbdfbe421	-0.122993715
75	0x3ccf31a7	0.02529223
76	0x3d482ad5	0.048868973
77	0xbe259ab0	-0.1617229
78	0x3d1df70e	0.038565688
79	0x3da774f3	0.08176603
80	0x3dbd0c8e	0.0923091
81	0x3c9cf7b9	0.019161092
82	0x3e09a7ff	0.13442992
83	0x3d24d7dd	0.040244926
84	0xbd38a3a4	-0.045077935
85	0x3d80f2a3	0.06296279
86	0x3e2057a2	0.1565843
87	0xbccbbdba	-0.024870742
88	0x3dfef9ae	0.12449966
89	0x3db0c547	0.08631378
90	0x3d3eb7e9	0.04656211
91	0x3ca5a8e5	0.020222137
92	0x3b863c04	0.00409651
93	0x3d5b1074	0.053482488
94	0x3c9816d0	0.018565565
95	0x3e0138d1	0.1261933
96	0x3de150c6	0.110017344
97	0xbd483814	-0.048881605
98	0xbda86f18	-0.082243145
99	0x3d681825	0.05666365
100	0xbddc4c75	-0.107567705
101	0x3e38dea5	0.18053682
102	0x3e8cb744	0.2748357
103	0xbe916c49	-0.28402928
104	0xbd0bfff4	-0.034179643
105	0x3e4565c1	0.19277097
106	0xbdcf6517	-0.10126703
107	0x3c622c16	0.013804456
108	0x3cab94a0	0.020944893
109	0xbe1d73fb	-0.15376274
110	0x3d3e6910	0.046486914
111	0x3d554952	0.052071877
112	0x3d4b5207	0.049638774
113	0x3d417f11	0.04724032
114	0x3e2a4145	0.16626461
115	0x3d992a24	0.07478741
116	0xbd908519	-0.07056636
117	0x3d111a49	0.035425458
118	0x3e7c6acb	0.24650113
119	0x3ceac05b	0.028656175
120	0x3db8fc3d	0.09032486
121	0x3bd8cdd0	0.0066163316
122	0x3d899030	0.06716955
123	0xbc91ce9e	-0.017798718
124	0x3c255ac1	0.010092438
125	0x3d946d25	0.0724738
126	0x3d12c79c	0.035834894
127	0x3e101535	0.1407059
128	0xbe2dfa7b	-0.16990082
129	0x3da302cb	0.07959517
130	0xbcbd3b2f	-0.02309951
131	0x3f21c175	0.63185817
132	0xbcfaeaa9	-0.030629473
133	0x3e19d505	0.15022667
134	0xbe1ffc19	-0.15623511
135	0xbe426425	-0.18983515
136	0xbe17ffa4	-0.14843613
137	0x3d81e47d	0.06342409
138	0x3e44ffa8	0.1923815
139	0xbdd05782	-0.10172941
140	0xbc248407	-0.010041243
141	0xbdd88c0b	-0.10573586
142	0x3e234896	0.15945658
143	0x3d8600e3	0.06543138
144	0x3d2150ef	0.039383825
145	0xbca05878	-0.019573435
146	0x3ebac53f	0.36478612
147	0x3e2b8fb5	0.16754039
148	0xbe4727ec	-0.19448823
149	0xbe1f7875	-0.15573294
150	0xbd9b1c35	-0.075737394
151	0xbdc62b12	-0.09676184
152	0x3d523ab5	0.05132552
153	0xbe3c7474	-0.18403798
154	0x3e083c1d	0.13304181
155	0xbe6f3644	-0.23360544
156	0x3df06d84	0.117396384
157	0xbdf0c856	-0.11756961
158	0xbd53675f	-0.051612254
159	0xbc52bf91	-0.012863056
160	0x3ee41ab6	0.4455163
161	0x3eb5ce19	0.35508803
162	0x3ca9237e	0.020646807
163	0x3c594848	0.013261862
164	0x3d9097fc	0.07060239
165	0x3d98b5e1	0.07456566
166	0xbd2d5dcd	-0.042325784
167	0x3ec8dd1a	0.39231187
168	0x3e69a1dd	0.22815652
169	0xbc7a14ea	-0.015263775
170	0xbe8335e7	-0.25627062
171	0x3f1e2588	0.6177602
172	0x3e11134a	0.14167514
173	0x3e493f35	0.19653018
174	0xbe1c699f	-0.15274666
175	0x3c8bd416	0.017068904
176	0x3cf922ad	0.030412043
177	0xbe31a192	-0.1734679
178	0xbccbc16c	-0.024872504
179	0xbe63642d	-0.22206183
180	0x3e667cea	0.22508588
181	0x3e90e81c	0.28302085
182	0xbc956d9a	-0.018240739
183	0xbe80cdaf	-0.25156924
184	0xbe2132f3	-0.15742092
185	0x3e54cd43	0.20781426
186	0xbe427225	-0.18988855
187	0x3eb8dee0	0.3610754
188	0x3bfb7970	0.0076743886
189	0xb8b28dfa	-8.5141466e-05
190	0xbda40d5e	-0.08010362
191	0x3ca480a2	0.020080868
192	0x3ec1bb48	0.37838197
193	0x3f103fcf	0.56347364
194	0x3dc400b6	0.09570448
195	0x3eb756b1	0.35808328
196	0xbcbdd11e	-0.023171004
197	0x3e670938	0.2256211
198	0x3c1f13f1	0.009709344
199	0x3e1b1d5e	0.15147921
200	0x3e486777	0.19570719
201	0x3ee4fb44	0.4472295
202	0x3e65f55d	0.2245688
203	0xbc42bfcd	-0.011886549
204	0x3e0e281d	0.1388249
205	0x3f36ffe9	0.7148424
206	0xbe610527	-0.21974622
207	0x3e736857	0.23770271
208	0x3e41aa4d	0.18912621
209	0x3de75f85	0.11297516
210	0xbdc64b2d	-0.096823074
211	0x3cca3b42	0.02468646
212	0x3e6a13f8	0.2285918
213	0xbf02b7ce	-0.51061714
214	0xbe15f747	-0.1464511
215	0xbf2d72a9	-0.6775308
216	0x3dff32b1	0.124608405
217	0x3da0590b	0.078294836
218	0xbe976e12	-0.29576164
219	0x3eb292a3	0.348775
220	0x3d5d3f11	0.054015223
221	0x3f32c034	0.6982453
222	0xbed86bd6	-0.42269772
223	0xbe5c5568	-0.21516955
224	0x3e6429ae	0.22281525
225	0xbe46389e	-0.19357535
226	0x3cccd6fe	0.02500486
227	0x3ea5712b	0.32312903
228	0x3db0c2c7	0.08630901
229	0xbe209178	-0.15680492
230	0xbe2f300b	-0.1710817
231	0x3dca8da2	0.098902956
232	0x3ead8fa0	0.3389864
233	0xbda4a2e0	-0.080388784
234	0x3e6557d4	0.22396785
235	0x3dc11831	0.09428442
236	0x3e15bca2	0.14622739
237	0xbe0539ce	-0.13010332
238	0x3d902b1c	0.070394725
239	0x3dcd6b27	0.10030203
240	0x3e4e32e1	0.20136596
241	0x3e843648	0.25822663
242	0x3e636549	0.22206606
243	0xbeaabf2b	-0.33348975
244	0xbd7107be	-0.058845274
245	0x3e7063b5	0.23475535
246	0xbd693304	-0.056933418
247	0x3df76e26	0.12081556
248	0xbe1d2dd0	-0.15349507
249	0xbde0ade9	-0.10970671
250	0xbc8a1e61	-0.016860189
251	0xbd3a2175	-0.045442063
252	0x3ea9022e	0.33009475
253	0x3d8993bb	0.067176305
254	0x3dc61ad5	0.096730866
255	0xbd4b7837	-0.049675193
