final_models/Adam/SamplePools/15-RABBIT-FACE-train_05-05-2022_13-44-43/models/model_15000.pt (torch, 9699 bytes, 3 tensors)

update_module.0.weight f4 [32, 48, 1, 1]
-0.4306322 -0.17910069 -0.26943266 -0.3519775 -0.29023176 -0.17086697 -0.36452782 -0.32874766
-0.14516325 0.21569124 0.13183147 0.1291237 0.08903819 0.10136065 0.2090946 -0.23013185
0.28518212 0.076099746 -0.23329633 -0.06402513 0.23742938 -0.04203375 0.3289181 0.21847966
-0.06183695 0.04169315 0.2436942 -0.12941836 0.31769073 0.27998036 -0.02611646 -0.22130956
0.19785409 0.28931147 0.19763768 0.02501929 -0.18809536 0.08610017 0.16540018 0.1468966
0.20496914 -0.16199133 0.45948365 -0.070131645 0.5233804 0.6836931 -0.050927643 0.67875063
0.071379066 -0.0900199 0.01713227 0.027243048 0.15909407 0.1475191 -0.014537529 0.041063014
0.04890418 -0.09308183 0.12919539 -0.27719358 -0.1418996 0.12771465 -0.23307215 -0.2375808
0.19548512 -0.08553637 -0.20528576 0.14349946 -0.09180911 -0.14044796 0.1659137 -0.09816071
-0.29006413 0.044213075 -0.20376451 -0.0043420587 0.3344237 -0.4588434 -0.30054605 0.2381566
-0.26113284 -0.19509187 0.04789267 -0.25077963 -0.3314404 0.32070312 -0.061624415 -0.14470151
0.104379125 -0.22707021 -0.05321378 0.2245442 -0.38510534 0.021289445 0.1250682 -0.8164946
-0.17408527 -0.044638596 -0.31138694 -0.016273007 -0.05145129 -0.27037394 -0.07074062 -0.01227394
-0.08712508 0.008491846 0.08697306 -0.34890008 -0.11477526 -0.15403375 0.42545906 -0.17447829
0.07481118 0.034592696 -0.34066895 -0.07426904 -0.25170255 -0.2686043 0.09916621 -0.17766307
-0.32824335 -0.012824385 -0.009362806 -0.056576073 0.033131313 0.23761083 -0.10396549 -0.13824394
0.3136825 -0.03275574 0.10262346 0.23052055 0.042261127 0.17776547 -0.3661348 -0.26306903
0.039247565 -0.19383965 0.49321952 -0.005487042 0.70454115 0.28529063 -0.26026383 0.02065017
-0.12574607 0.16013388 -0.03411349 -0.13372216 0.062569104 0.03731182 -0.077742405 0.03157839
0.049483757 0.01647261 -0.13356628 -0.16821772 -0.32085365 -0.1659518 -0.3944226 -0.289092
-0.16665968 -0.19960703 -0.09495688 -0.07714582 -0.089839175 -0.23335063 -0.17051972 -0.32700813
-0.040366136 -0.367956 -0.40521094 -0.23652801 -0.080606654 -0.42673683 -0.11229824 -0.2548667
-0.34563202 0.039550357 -0.21871465 -0.24732009 -0.083255276 -0.30728227 -0.28149703 -0.0118079325
-0.021355435 -0.33008206 -0.057323933 -0.34826654 -0.08922615 0.25000915 -0.35751376 -0.19944294
-0.21859863 0.10938462 0.19084722 -0.16127935 0.08162 0.36134458 -0.42189813 0.085558474
0.30826038 -0.16424476 0.021887073 0.0114461845 -0.10622368 0.05487173 0.1189008 -0.35213012
-0.005199073 0.248279 -0.20481901 -0.1647252 0.117101684 -0.13026364 0.02166332 -0.042639542
-0.19093907 0.1379285 0.30512416 -0.021121895 -0.14859697 -0.19932286 -0.2587032 -0.11166073
-0.18751436 -0.18192986 0.2032089 0.12896208 -0.051790886 -0.18489888 -0.051500287 -0.11886124
0.015894072 0.28275192 0.11799919 0.08138298 -0.3747986 0.57293916 -0.29496118 -0.262505
-1.2495741 0.520569 -0.015326005 -1.1592022 0.06573339 -0.07326543 -1.1681519 -0.12794976
-0.014383804 -0.686961 -0.3542764 0.48498172 -0.07728577 0.23116046 0.12701462 -0.31721672
00000000: d37b dcbe 2c66 37be 14f3 89be 6536 b4be
00000010: 4299 94be c0f7 2ebe 64a3 babe 9d51 a8be
00000020: ada5 14be 2ade 5c3e d4fe 063e 0139 043e
00000030: a859 b63d 2c96 cf3d e51c 563e afa7 6bbe
00000040: 6403 923e 2fda 9b3d 3ce5 6ebe 9b1f 83bd
00000050: b020 733e 952b 2cbd f467 a83e 22b9 5f3e
00000060: be48 7dbd 70c6 2a3d f98a 793e 3f86 04be
00000070: 5ca8 a23e 9659 8f3e 30f2 d5bc f99e 62be
00000080: 439a 4a3e a220 943e 8861 4a3e 41f5 cc3c
00000090: 129c 40be 4955 b03d aa5e 293e 106c 163e
000000a0: 6ee3 513e 0ee1 25be 7141 eb3e 2ea1 8fbd
000000b0: 42fc 053f 8306 2f3f 8199 50bd 9ac2 2d3f
000000c0: 302f 923d 5a5c b8bd f958 8c3c d02c df3c
000000d0: 8ee9 223e 3f0f 173e d12e 6ebc b131 283d
000000e0: c04f 483d b0a1 bebd cc4b 043e 51ec 8dbe
000000f0: 214e 11be a1c7 023e 77aa 6ebe 6248 73be
00000100: 402d 483e b12d afbd 6e36 52be 86f1 123e
00000110: 6a06 bcbd 97d1 0fbe 48e5 293e 7b08 c9bd
00000120: 4983 94be c518 353d a5a7 50be d447 8ebb
00000130: 9539 ab3e 86ed eabe 2ce1 99be 53df 733e
00000140: 34b3 85be 2ac6 47be 1b2b 443d 3066 80be
00000150: 8eb2 a9be 3333 a43e e269 7cbd a22c 14be
00000160: b9c4 d53d 1885 68be b1f6 59bd eaee 653e
00000170: 872c c5be 3467 ae3c e111 003e ca05 51bf
00000180: 6943 32be f6d6 36bd 1c6e 9fbe f84e 85bc
00000190: 96be 52bd 746e 8abe 75e0 90bd a318 49bc
000001a0: a26e b2bd 6221 0b3c ef1e b23d 08a3 b2be
000001b0: 4b0f ebbd 06bb 1dbe c5d5 d93e 70aa 32be
000001c0: 9b36 993d 12b1 0d3d 296c aebe 5e1a 98bd
000001d0: 28df 80be 8186 89be a717 cb3d 4fed 35be
000001e0: 830f a8be 5f1d 52bc 7466 19bc 50bc 67bd
000001f0: b3b4 073d 4150 733e dceb d4bd d28f 0dbe
00000200: fe9a a03e e22a 06bd 402c d23d 940d 6c3e
00000210: 011a 2d3d 2708 363e 0576 bbbe fcb0 86be
00000220: 0ec2 203d e77d 46be 4587 fc3e a5cc b3bb
00000230: cf5c 343f 9d11 923e 4d41 85be 8c2a a93c
00000240: 94c3 00be 23fa 233e 96ba 0bbd 76ee 08be
00000250: 3b24 803d 47d4 183d 6937 9fbd 5858 013d
00000260: 7baf 4a3d 91f1 863c 99c5 08be 4441 2cbe
00000270: ee46 a4be 45ef 29be c2f1 c9be de03 94be
00000280: d6a8 2abe c965 4cbe c178 c2bd a1fe 9dbd
00000290: 9afd b7bd 78f3 6ebe b99c 2ebe 9c6d a7be
000002a0: f656 25bd bb64 bcbe cf77 cfbe 6634 72be
000002b0: 1a15 a5bd 407d dabe 9ffc e5bd e37d 82be
000002c0: aef6 b0be 8eff 213d bcf6 5fbe 7a41 7dbe
000002d0: be81 aabd 1a54 9dbe 6120 90be 0f76 41bc
000002e0: 98f1 aebc 8400 a9be 80cc 6abd fe4f b2be
000002f0: 33bc b6bd 3301 803e 0b0c b7be c53a 4cbe
00000300: 52d8 5fbe 0b05 e03d 746d 433e 6a26 25be
00000310: 6328 a73d 2802 b93e 0803 d8be 4839 af3d
00000320: 4ed4 9d3e c72f 28be 854c b33c c788 3b3c
00000330: cd8b d9bd 2ec1 603d 4382 f33d 664a b4be
00000340: fc5c aabb da3c 7e3e 13bc 51be b9ad 28be
00000350: 02d3 ef3d d563 05be 4677 b13c cda6 2ebd
00000360: 8885 43be 213d 0d3e 3c39 9c3e d307 adbc
00000370: ce29 18be 4b1b 4cbe bf74 84be 61ae e4bd
00000380: c403 40be d24b 3abe fe15 503e a30e 043e
00000390: ae22 54bd 2256 3dbe f7f1 52bd 866d f3bd
000003a0: 4934 823c dcc4 903e 8fa9 f13d 1fac a63d
000003b0: 9ae5 bfbe 24ac 123f 2705 97be 0e67 86be
000003c0: 0bf2 9fbf 0344 053f ed19 7bbc bd60 94bf
000003d0: 3a9f 863d 300c 96bd 0086 95bf 4305 03be
000003e0: 0caa 6bbc addc 2fbf b763 b5be 864f f83e
000003f0: 0048 9ebd 54b5 6c3e 1f10 023e 3b6a a2be

update_module.0.bias f4 [32]
0.07078487 -0.19204387 0.11764134 -0.016755646 0.16221611 0.09121029 -0.0044966326 -1.0367364
-0.3591546 0.06469758 -0.5229821 -0.006246607 0.04209329 -0.33724523 0.001533078 0.021711733
0.017246284 -0.038675964 0.017675506 0.24796672 -0.67206055 -0.0026061006 -0.020718694 -0.21841806
0.051959734 -0.30193445 0.083065085 -0.012065946 -0.18086398 -0.077629395 0.038349673 -0.13718535
00000000: a8f7 903d 26a7 44be f1ed f03d 2343 89bc
00000010: fb1b 263e 76cc ba3d 7d58 93bb c7b3 84bf
00000020: 1de3 b7be 2a80 843d 28e2 05bf 56b0 ccbb
00000030: 036a 2c3d 68ab acbe 90f1 c83a cedc b13c
00000040: 1448 8d3c b06a 1ebd 39cc 903c fdea 7d3e
00000050: 290c 2cbf 1dcb 2abb 40ba a9bc fca8 5fbe
00000060: bbd3 543d 2797 9abe 071e aa3d 3fb0 45bc
00000070: 6834 39be 29fc 9ebd 8c14 1d3d 517a 0cbe

update_module.2.weight f4 [16, 32, 1, 1]
0.078951016 -0.11227174 -0.111497864 -0.00913343 -0.11848724 0.19789691 0.3131105 -0.2891718
-0.09247215 0.16454369 -0.1551905 0.04000368 0.09612109 -0.25572047 0.12654921 0.11590031
0.09794425 0.044112876 0.14838636 0.04860248 -0.1071722 0.04974277 0.18789841 -0.04114543
0.15321395 0.110410444 0.07478418 0.010840489 -0.01312083 0.090370245 0.030277353 0.22753882
0.080056176 -0.13333501 -0.12025083 -0.024115652 -0.12883064 0.21217476 0.18961196 -0.33053264
-0.08518368 0.18483208 -0.17051993 0.046763733 0.105591305 -0.27427223 0.14472882 0.13084756
0.10461218 0.032473277 0.17276381 0.053605117 -0.11580423 0.072113924 0.20434387 -0.040882528
0.16081992 0.13251348 0.07831439 0.029750729 -0.011613234 0.09121921 0.023314137 0.2542368
0.08306623 -0.13752113 -0.12101734 -0.028241063 -0.13178624 0.21792196 0.18264562 -0.33557883
-0.079060465 0.19330092 -0.17999914 0.053434577 0.109170385 -0.27881643 0.14550269 0.13510415
0.106045134 0.02329169 0.17345105 0.05161554 -0.11518922 0.07596194 0.2047213 -0.041999094
0.16079018 0.13919035 0.07618577 0.03762156 -0.011794721 0.09511675 0.023282353 0.26494822
0.095229335 -0.12946086 -0.16868071 -0.0032391204 -0.1642785 0.25737315 0.2754087 -0.52608585
-0.017078938 0.22103147 -0.13635482 0.023689052 0.06698077 -0.2837336 0.16960974 0.14110109
0.014293811 0.095715396 0.19779418 0.11846343 -0.1771028 0.06932077 0.3077044 0.07224193
0.1398518 0.053693596 0.11787824 -0.007503362 -0.008945653 0.13336256 0.039466243 0.30217332
-0.12500855 0.19587813 -0.0854881 0.84293246 0.010625934 0.026551934 -0.15628615 -0.18862218
-0.033912953 0.027395692 0.2577904 -0.04538057 -0.17091328 -0.4181204 0.18084612 0.1403997
0.22133212 -0.080772705 0.23912166 0.16271965 -0.22123343 -0.18612504 -0.25679052 -0.040222514
0.048365574 -0.2501263 0.19111775 -0.3009218 0.094212316 -0.2914947 0.004270067 -0.15199654
0.40026385 0.224419 0.09822636 -0.11286706 0.09760429 -0.068303615 -0.048310194 0.580989
0.36123776 -0.12574443 -0.3552974 0.66474444 0.17820494 0.19179705 -0.18038361 0.10261999
-0.095154464 -0.23702434 -0.028196696 -0.32125017 0.23494498 0.21831287 0.072497986 -0.2530983
-0.06369472 0.33156845 -0.46865046 0.3479814 -0.05591356 -0.2029615 -0.080790006 -0.06760451
0.39326075 0.3931722 0.15650505 0.38535574 0.034925215 0.19463184 -0.026636066 0.25888324
0.71961236 0.45470577 0.10877154 0.018220844 0.024601178 1.1333512 -0.23027313 0.17082576
0.52977806 0.11786362 -0.27511474 0.0070760055 0.25794676 -0.730761 -0.25531808 -1.0657719
0.03940254 0.17164949 -0.2582315 0.2624519 0.10848275 0.93213415 -0.67338526 -0.47369772
0.2602825 -0.2524088 0.0041906484 0.1686931 0.23876607 -0.41724253 -0.1615322 0.042449187
0.5895513 -0.019672224 0.10594421 -0.06419475 0.14580564 -0.28523067 -0.08001991 0.09793489
0.21720318 0.37891796 0.25451186 -0.33205563 -0.07017618 0.30640244 0.059720416 0.44438338
-0.36526635 -0.1505374 0.01009929 -0.02009956 0.3384409 0.21529926 0.17958476 -0.046891484
00000000: 12b1 a13d baee e5bd fe58 e4bd 62a4 15bc
00000010: 70a9 f2bd 7da5 4a3e 0550 a03e 530e 94be
00000020: 0a62 bdbd 247e 283e 42ea 1ebe e6da 233d
00000030: 22db c43d cbed 82be 1e96 013e 245d ed3d
00000040: ff96 c83d b4af 343d 98f2 173e 6513 473d
00000050: 197d dbbd 13bf 4b3d 7168 403e 1c88 28bd
00000060: 1ee4 1c3e df1e e23d 7328 993d 4e9c 313c
00000070: c0f8 56bc 0914 b93d 3608 f83c f0ff 683e
00000080: 7ef4 a33d f988 08be 1146 f6bd 308e c5bc
00000090: 2eec 03be 5744 593e a329 423e 933b a9be
000000a0: c874 aebd 9f44 3d3e c79c 2ebe 548b 3f3d
000000b0: 4140 d83d 696d 8cbe cb33 143e e7fc 053e
000000c0: e93e d63d b302 053d ffe8 303e 0a91 5b3d
000000d0: c52a edbd 77b0 933d 853f 513e 7074 27bd
000000e0: faad 243e 9db1 073e 4b63 a03d cdb7 f33c
000000f0: 6f45 3ebc 23d1 ba3d 4afd be3c 532b 823e
00000100: a11e aa3d 57d2 0cbe f0d7 f7bd cd59 e7bc
00000110: f9f2 06be ef26 5f3e 7407 3b3e fdd0 abbe
00000120: 74ea a1bd adf0 453e b251 38be 37de 5a3d
00000130: b994 df3d 07c1 8ebe a8fe 143e be58 0a3e
00000140: 312e d93d 37ce be3c 279d 313e d16a 533d
00000150: 53e8 ebbd ef91 9b3d 76a2 513e 3e07 2cbd
00000160: 2ea6 243e ea87 0e3e 4907 9c3d 1119 1a3d
00000170: a53e 41bc 92cc c23d a2ba be3c 4ba7 873e
00000180: 9907 c33d 6391 04be a3ba 2cbe 6c47 54bb
00000190: a038 28be 6ac6 833e 5e02 8d3e 90ad 06bf
000001a0: 21e9 8bbc 1356 623e 99a0 0bbe 8b0f c23c
000001b0: 372d 893d 8845 91be 2dae 2d3e ce7c 103e
000001c0: 9730 6a3c 6f06 c43d 8f8a 4a3e f49c f23d
000001d0: 705a 35be 0cf8 8d3d 6e8b 9d3e 94f3 933d
000001e0: 4f35 0f3e d1ed 5b3d 266a f13d c3de f5bb
000001f0: ca90 12bc 3290 083e 5ba7 213d 76b6 9a3e
00000200: 3e02 00be 4794 483e 6314 afbd 6cca 573f
00000210: 6618 2e3c 7183 d93c 7a09 20be 2c26 41be
00000220: 4fe8 0abd ee6c e03c 1afd 833e fae0 39bd
00000230: e403 2fbe e113 d6be ba2f 393e f0c4 0f3e
00000240: e3a4 623e 296c a5bd 4fdc 743e fb9f 263e
00000250: 048b 62be 9097 3ebe 0c7a 83be 5dc0 24bd
00000260: fb1a 463d 8e10 80be 5fb4 433e 6c12 9abe
00000270: 63f2 c03d cb3e 95be ebeb 8b3b fba4 1bbe
00000280: 62ef cc3e 18ce 653e e72a c93d d826 e7bd
00000290: c2e4 c73d c4e2 8bbd e9e0 45bd b2bb 143f
000002a0: 28f4 b83e 26c3 00be 8ae9 b5be b12c 2a3f
000002b0: 5b7b 363e 7266 443e 7bb6 38be 6e2a d23d
000002c0: 58e0 c2bd 82b6 72be c2fc e6bc e77a a4be
000002d0: 6b95 703e 698d 5f3e d379 943d 1a96 81be
000002e0: 6172 82bd 57c3 a93e f4f2 efbe 9e2a b23e
000002f0: 9e05 65bd 24d5 4fbe 3b75 a5bd 3c74 8abd
00000300: 7959 c93e de4d c93e dc42 203e 594d c53e
00000310: be0d 0f3d 924d 473e e133 dabc 588c 843e
00000320: 8438 383f 32cf e83e 9dc3 de3d e143 953c
00000330: 6988 c93c a711 913f b8cc 6bbe f3ec 2e3e
00000340: 899f 073f 7b62 f13d d7db 8cbe d6dd e73b
00000350: 9911 843e 2713 3bbf 0db9 82be 376b 88bf
00000360: 8f64 213d e2c4 2f3e eb36 84be 1860 863e
00000370: 342c de3d 58a0 6e3f fa62 2cbf 8288 f2be
00000380: bf43 853e ba3b 81be b551 893b e2bd 2c3e
00000390: 187f 743e d0a0 d5be b268 25be 33df 2d3d
000003a0: d6ec 163f a527 a1bc 47f9 d83d 8978 83bd
000003b0: 134e 153e c109 92be 7be1 a3bd 1692 c83d
000003c0: 836a 5e3e 8901 c23e 614f 823e 3203 aabe
000003d0: 87b8 8fbd c8e0 9c3e 659d 743d 3886 e33e
000003e0: 3104 bbbe 7a26 1abe 7e77 253c d5a7 a4bc
000003f0: 2048 ad3e 6977 5c3e 11e5 373e 4911 40bd
