automata_ex/logs/withPool/15-CARROT-train_05-05-2022_17-00-31/models/model_10000.pt (torch, 9699 bytes, 3 tensors)

update_module.0.weight f4 [32, 48, 1, 1]
-0.124804296 0.039548878 -0.09658416 -0.19072117 0.04550318 -0.012623221 -0.09984944 -0.14886746
0.17930241 -0.31989917 -0.08737905 0.041170705 0.112052105 -0.093723536 0.012470596 -0.10068
-0.2695624 0.0064899167 -0.3079872 -0.43524364 0.2747739 -0.3107338 -0.16665904 0.30995062
0.25309578 -0.022326326 -0.11266186 -0.12804738 -0.12044972 -0.18972966 -0.098719984 0.090114474
0.22232898 -0.08970493 -0.31142753 0.10516077 0.049393725 0.40580797 0.051048312 -0.17531504
-0.039555132 0.18223245 -0.2720905 0.022205297 -0.16274217 -0.33563808 0.24739218 0.11936659
-0.32107842 -0.02983315 0.02064185 -0.4775884 -0.38531905 -0.03378849 -0.38944632 -0.27605727
-0.18241118 -0.35515213 -0.30472907 -0.07079346 0.19845836 -0.062160555 0.0754127 -0.017088749
0.08866989 -0.27561703 -0.092824414 -0.21909003 0.012543329 0.080859825 -0.35839438 0.17766744
0.18437076 0.22232604 -0.1396362 -0.044868518 -0.078552246 -0.065355845 -0.20884652 -0.09562923
-0.33116257 0.08472528 -0.1400696 -0.26461467 -0.007119413 0.1884803 0.13533592 -0.29694185
-0.06154709 -0.09681071 0.022210008 0.2660081 -0.13163625 -0.14155307 0.0035710437 -0.16408749
-0.64328694 0.10971658 -0.09585636 -0.57147306 0.06797634 -0.06211282 0.012412544 0.030351968
0.20244376 0.17033078 -0.29705483 0.17329894 0.4567883 -0.29181364 0.2236511 -0.13299161
0.092487276 -0.031109026 -0.053565726 0.018480992 -0.20170783 0.045711264 -0.13970731 0.08360178
0.22230388 -0.19287322 0.18921302 0.104618914 -0.12855637 0.07823236 -0.12790684 -0.019571003
-0.004838131 -0.0387205 -0.07680979 -0.27545157 0.07097745 -0.31059766 -0.009929482 -0.078629114
-0.26859668 0.035580132 0.2553511 -0.19549488 0.01768119 -0.14849065 -0.06473387 0.015425887
0.055943247 0.07087255 0.23684701 -0.16792364 0.22614397 -0.10825797 -0.2792752 0.04074435
0.23465663 -0.27930066 -0.15971713 0.08227476 0.035386536 -0.2241928 0.1932928 -0.20372607
-0.48692986 0.13648964 -0.20820378 -0.27675188 0.10724915 -0.12505597 -0.06421878 0.27953914
0.12925982 -0.5047975 0.3148055 -0.06740919 -0.29725382 -0.1963354 -0.071460396 -0.21433108
0.22994952 -0.011138746 -0.36738333 0.19433597 -0.007363537 -0.32817248 0.09253842 -0.16111954
-0.065140106 0.14183417 -0.16304615 -0.16072129 0.046746198 -0.2946304 -0.26087025 -0.08940447
-0.19721906 0.33019578 -0.043550283 -0.20158142 0.046211366 0.1653996 -0.11318014 0.061363872
0.23333438 -0.24762778 -0.002575747 0.0004780621 0.24165799 0.1765179 -0.33331844 -0.30171824
0.06720556 -0.2713628 -0.21131255 -0.15825455 -0.04173223 -0.05352418 0.06998492 0.022352422
-0.06856978 -0.16030982 -0.07131025 -0.42264426 -0.113941155 -0.44788152 -0.26459968 0.10128318
-0.23719384 -0.1038025 -0.13567494 -0.18710096 -0.079715475 -0.30061808 -0.27404293 -0.13493492
0.176132 0.04842878 0.01776792 -0.03689238 -0.41513997 -0.4096366 -0.14386375 -0.09312888
-0.23090295 0.48041242 -0.12535316 -0.4643845 0.1537606 -0.3954183 -0.24644513 0.2805809
-0.03327104 -0.7396816 0.25507843 -0.18335715 0.044766244 0.24247004 0.24055049 -0.043319084
00000000: 6599 ffbd 01fe 213d ebcd c5bd 694c 43be
00000010: 8b61 3a3d a0d1 4ebc dd7d ccbd b670 18be
00000020: 0d9b 373e d3c9 a3be caf3 b2bd 9da2 283d
00000030: 937b e53d 20f2 bfbd 7851 4c3c 5131 cebd
00000040: 1504 8abe 5ea9 d43b 80b0 9dbe 41d8 debe
00000050: 2aaf 8c3e 8018 9fbe aba8 2abe d9b1 9e3e
00000060: c595 813e b3e5 b6bc 43bb e6bd da1e 03be
00000070: 58ae f6bd 7e48 42be b42d cabd f08d b83d
00000080: 35aa 633e 38b7 b7bd 6e73 9fbe 885e d73d
00000090: 1351 4a3d 10c6 cf3e 0918 513d c985 33be
000000a0: 9004 22bd 259b 3a3e 724f 8bbe e2e7 b53c
000000b0: e2a5 26be c1d8 abbe 6054 7d3e 7976 f43d
000000c0: 6464 a4be a664 f4bc 1919 a93c 7786 f4be
000000d0: 8a48 c5be cd65 0abd 8265 c7be 6157 8dbe
000000e0: ffc9 3abe 80d6 b5be 7305 9cbe 29fc 90bd
000000f0: ab38 4b3e 119c 7ebd f971 9a3d b4fd 8bbc
00000100: 8f98 b53d ad1d 8dbe ba1a bebd 2359 60be
00000110: 8982 4d3c d699 a53d 787f b7be 74ee 353e
00000120: b0cb 3c3e 70a9 633e cbfc 0ebe 0dc8 37bd
00000130: 00e0 a0bd 49d9 85bd dddb 55be 42d9 c3bd
00000140: 248e a9be 7384 ad3d 686e 0fbe 937b 87be
00000150: f749 e9bb fb00 413e 8095 0a3e c308 98be
00000160: cd18 7cbd b244 c6bd c3f1 b53c 3732 883e
00000170: a7cb 06be 4af3 10be 2c08 6a3b 8d06 28be
00000180: 74ae 24bf 16b3 e03d 5750 c4bd 0f4c 12bf
00000190: 2e37 8b3d 036a 7ebd fc5d 4b3c b1a4 f83c
000001a0: 6b4d 4f3e 316b 2e3e 9217 98be 4775 313e
000001b0: 28e0 e93e 9968 95be cb04 653e f42e 08be
000001c0: f869 bd3d 5bd8 febc bc67 5bbd 7365 973c
000001d0: 7f8c 4ebe bc3b 3b3d 6f0f 0fbe 6937 ab3d
000001e0: a1a3 633e 8f80 45be 0fc1 413e 7142 d63d
000001f0: 48a4 03be 4a38 a03d 03fa 02be 5e53 a0bc
00000200: 2f89 9ebb 6399 1ebd 744e 9dbd fd07 8dbe
00000210: a05c 913d a806 9fbe 44af 22bc 4d08 a1bd
00000220: 8185 89be 79bc 113d 61bd 823e cf2f 48be
00000230: 25d8 903c ef0d 18be 3193 84bd dcbc 7c3c
00000240: bf24 653d a125 913d 0688 723e 2df4 2bbe
00000250: 4992 673e 5bb6 ddbd 29fd 8ebe 8ce3 263d
00000260: d449 703e 7f00 8fbe e38c 23be ab7f a83d
00000270: 79f1 103d cc92 65be 8cee 453e 919d 50be
00000280: df4e f9be f1c3 0b3e 5f33 55be 6cb2 8dbe
00000290: 71a5 db3d ac0e 00be 2385 83bd c11f 8f3e
000002a0: b05c 043e 693a 01bf 302e a13e d40d 8abd
000002b0: a731 98be 260c 49be d459 92bd 9b79 5bbe
000002c0: e377 6b3e 497f 36bc ab19 bcbe 0200 473e
000002d0: d349 f1bb 3906 a8be c884 bd3d 85fc 24be
000002e0: 2d68 85bd fa3c 113e 92f5 26be 1f94 24be
000002f0: f178 3f3d ccd9 96be c990 85be b119 b7bd
00000300: cbf3 49be 6c0f a93e c861 32bd 5c6b 4ebe
00000310: 2148 3d3d 835e 293e fdca e7bd af58 7b3d
00000320: 35ef 6e3e 2392 7dbe ddcd 28bb 69a4 fa39
00000330: 3175 773e 1cc1 343e b7a8 aabe d07a 9abe
00000340: 12a3 893d 11f0 8abe 5162 58be 7b0d 22be
00000350: 6aef 2abd 2c3c 5bbd 4154 8f3d 6d1c b73c
00000360: 506e 8cbd 4228 24be 1c0b 92bd d464 d8be
00000370: fb59 e9bd ba50 e5be 9c79 87be 8e6d cf3d
00000380: f1e2 72be 6896 d4bd 5fee 0abe 6597 3fbe
00000390: de41 a3bd 9dea 99be 5b4f 8cbe 612c 0abe
000003a0: f25b 343e 425d 463d 078e 913c 771c 17bd
000003b0: 3a8d d4be e3bb d1be 0551 13be 5bba bebd
000003c0: d371 6cbe 9ef8 f53e 945c 00be cec3 edbe
000003d0: 6b73 1d3e 4474 cabe 1d5c 7cbe 4da8 8f3e
000003e0: 3747 08bd c65b 3dbf a499 823e fac1 3bbe
000003f0: cf5c 373d 114a 783e de52 763e 5a6f 31bd

update_module.0.bias f4 [32]
-0.05916038 0.024975415 -0.03524224 -0.038762495 -0.003207164 0.07892707 -0.03037919 0.010700334
0.05060776 -0.07705974 -0.07788691 0.040133815 0.010442354 -0.0028770596 0.01745926 -0.00856168
0.08269763 0.02629818 -0.0017485651 -0.6237592 0.027048888 -0.005490142 0.003075055 -0.11762916
0.064346224 -0.87755907 -0.01648372 -0.09055996 -0.12149076 -0.035535153 -0.108387046 -0.25605452
00000000: 2852 72bd 3e99 cc3c 2b5a 10bd 6cc5 1ebd
00000010: 482f 52bb 84a4 a13d c7dd f8bc 7450 2f3c
00000020: 154a 4f3d 7fd1 9dbd 2c83 9fbd 5b63 243d
00000030: 6816 2b3c 0d8d 3cbb b906 8f3c 4a46 0cbc
00000040: 605d a93d 486f d73c 1c30 e5ba afae 1fbf
00000050: a195 dd3c a6e6 b3bb dd86 493b 8fe7 f0bd
00000060: f4c7 833d b6a7 60bf de08 87bc 8077 b9bd
00000070: 26d0 f8bd 4f8d 11bd 07fa ddbd 9419 83be

update_module.2.weight f4 [16, 32, 1, 1]
0.09423763 0.12778223 0.06342599 0.0061525344 0.1722169 0.05200173 0.0018078717 0.07078315
0.09861293 0.0838278 0.067808375 0.026836017 -0.055724233 0.1208242 0.052880205 -0.056187734
-0.04085772 0.120213 0.3239652 -0.17328502 0.091768146 0.08243453 -0.042007778 0.007627183
-0.10944517 -0.22439314 0.07977678 0.1341808 0.060560584 0.09456286 0.20764114 -0.08253877
0.14220367 0.139979 0.042857148 0.06906383 0.20294692 0.053461038 -0.0063715493 0.044720117
0.111685775 -0.01860535 0.13971794 0.023717973 -0.04295062 0.1976904 0.0253778 -0.05969214
-0.030963643 0.09157164 0.08446746 -0.1348395 0.05966268 0.06583131 -0.033413798 -0.008607908
-0.093262576 -0.19883263 0.062691405 0.046370503 0.04801574 0.050071195 0.11421896 -0.050337695
0.03099133 0.034762494 -0.005159777 0.027257293 0.052125048 0.014129074 0.0082984865 0.004107951
0.024682721 -0.017698321 0.051115327 0.010554315 -0.0102806995 0.0051350994 -0.00544687 -0.003682931
-0.008307453 0.022649739 0.0069069993 -0.033118382 0.028237546 0.005134967 -0.004260553 -0.009804577
-0.021315442 -0.06340679 0.021315329 0.011536031 0.004339079 0.014540842 0.0037933285 -0.007483046
0.25602397 0.2360734 0.054618362 0.14159787 0.32961893 0.09998737 0.008152762 0.07174563
0.17508644 -0.029686889 0.28199056 0.052085128 -0.07323827 0.24870138 0.03425434 -0.09070064
-0.061400738 0.17789106 0.19874044 -0.28237876 0.144181 0.09543877 -0.050216526 -0.030020043
-0.15629901 -0.335853 0.14686106 0.09702158 0.07478432 -0.07143944 0.16675118 -0.08365345
0.064119875 0.007272968 -0.01108677 0.31879994 0.0033000244 0.16986454 -0.23245922 0.06345878
0.0003732048 0.06988934 0.037081454 -0.19522488 -0.0978931 0.18927792 0.16114171 -0.12264472
-0.0680478 -0.052705664 0.0827628 -0.33137026 -0.12597223 0.46938628 -0.042672668 0.05843479
-0.021914197 -0.14057525 0.025131209 -0.0021370098 0.41663295 -0.030525351 0.05996429 -0.20383415
-0.030806025 -0.11389208 0.27568573 0.5070422 -0.04081748 0.20047574 0.06783597 -0.0063189147
-0.043603256 0.21289521 0.29200956 -0.03344605 -0.03716376 0.13285623 0.5030772 -0.15138897
-0.16803244 0.14942124 0.11982676 -0.010264455 -0.053521518 0.35224038 -0.18742192 0.12914127
0.005088267 -0.020599877 0.124412514 0.07200215 0.22877693 0.031668354 0.40927884 -0.16172786
0.3717235 -0.19973138 0.18216196 0.16351348 -0.07671604 -0.14243719 0.22803275 -0.3263999
0.10368683 -0.18108815 -0.03687277 0.11071083 -0.004301437 -0.15703748 0.30090165 0.03567673
-0.26966396 -0.086259745 -0.4275381 0.060141675 -0.14176385 -0.12467623 0.28185228 -0.20455934
0.31713393 0.29968667 -0.06867932 0.13236828 0.38870153 0.20515303 -0.016206935 0.40434104
0.18396246 -0.0037688685 0.103467934 0.21027422 0.32705882 -0.0406343 0.1357641 0.26684824
-0.0137015795 0.3894365 -0.06466304 -0.21908763 -0.08162223 0.63519734 0.09792689 -0.0308068
-0.4224506 -0.15688649 0.13874744 0.08802383 -0.3503856 0.5539959 0.034591317 0.19537362
-0.11298901 -0.4002382 0.074377835 0.3413626 0.3057748 0.30437917 -0.30982092 0.4040181
00000000: a9ff c03d 58d9 023e 7ce5 813d 339b c93b
00000010: a159 303e c4ff 543d 1cf6 ec3a c2f6 903d
00000020: 93f5 c93d e9ad ab3d 1edf 8a3d 35d7 db3c
00000030: 183f 64bd ae72 f73d ea98 583d 1c25 66bd
00000040: 6d5a 27bd 3c32 f63d c4de a53e a171 31be
00000050: f0f0 bb3d 6fd3 a83d 5910 2cbd 73ed f93b
00000060: ca24 e0bd 51c7 65be 0262 a33d b166 093e
00000070: 600e 783d 2caa c13d e19f 543e 160a a9bd
00000080: d79d 113e a856 0f3e fa8a 2f3d 5671 8d3d
00000090: 51d1 4f3e f6f9 5a3d 6ec8 d0bb 712c 373d
000000a0: 83bb e43d 3f6a 98bc 3812 0f3e 324c c23c
000000b0: fdec 2fbd 5a6f 4a3e 1be5 cf3c bf7f 74bd
000000c0: 77a7 fdbc e989 bb3d 47fd ac3d 5e13 0abe
000000d0: db60 743d 91d2 863d e8dc 08bd 2f08 0dbc
000000e0: 7300 bfbd c89a 4bbe 5a64 803d ffee 3d3d
000000f0: 27ac 443d 7417 4d3d a1eb e93d e62e 4ebd
00000100: 88e1 fd3c 1e63 0e3d 5913 a9bb b04a df3c
00000110: 1381 553d a27d 673c 60f6 073c fe9b 863b
00000120: 6b33 ca3c 12fc 90bc 4e5e 513d 01ec 2c3c
00000130: 6170 28bc 5644 a83b a87b b2bb 545d 71bb
00000140: fc1b 08bc f28b b93c 1c54 e23b 24a7 07bd
00000150: 6d52 e73c 3a43 a83b 1c9c 8bbb 60a3 20bc
00000160: b99d aebc 6bdb 81bd 7c9d ae3c 9f01 3d3c
00000170: d52e 8e3b b63c 6e3c 7e99 783b 5734 f5bb
00000180: 9315 833e 3abd 713e 81b7 5f3d 08ff 103e
00000190: d0c3 a83e 2ec6 cc3d 2a93 053c 5fef 923d
000001a0: dc49 333e eb31 f3bc 1161 903e 3757 553d
000001b0: f2fd 95bd 93ab 7e3e 474e 0c3d 42c1 b9bd
000001c0: 577f 7bbd 1329 363e 9d82 4b3e f393 90be
000001d0: 2fa4 133e 6775 c33d d8af 4dbd 98ec f5bc
000001e0: d90c 20be edf4 abbe bf62 163e 40b3 c63d
000001f0: 8628 993d d74e 92bd d2c0 2a3e 8052 abbd
00000200: 4851 833d 1452 ee3b 49a5 35bc bf39 a33e
00000210: 3945 583b f8f0 2d3e ca09 6ebe adf6 813d
00000220: b3aa c339 2422 8f3d b9e2 173d 08e9 47be
00000230: 2d7c c8bd 12d2 413e 5502 253e 282d fbbd
00000240: a55c 8bbd e5e1 57bd 8b7f a93d 5da9 a9be
00000250: ddfe 00be 6653 f03e 89c9 2ebd 5159 6f3d
00000260: 6785 b3bc f5f2 0fbe f7df cd3c 130d 0cbb
00000270: ea50 d53e 4d10 fabc 1e9d 753d e6b9 50be
00000280: eb5c fcbc 4040 e9bd ae26 8d3e 85cd 013f
00000290: 3b30 27bd 8349 4d3e 96ed 8a3d e60e cfbb
000002a0: 5499 32bd 3401 5a3e 4782 953e bafe 08bd
000002b0: 0739 18bd 770b 083e abc9 003f b605 1bbe
000002c0: b210 2cbe e201 193e bb67 f53d 3f2c 28bc
000002d0: 6139 5bbd da58 b43e 88eb 3fbe 9c3d 043e
000002e0: 7abb a63b 13c1 a8bc fdcb fe3d dd75 933d
000002f0: 8044 6a3e adb6 013d ff8c d13e fd9b 25be
00000300: 8b52 be3e 6286 4cbe aa88 3a3e 1470 273e
00000310: 4d1d 9dbd 0edb 11be 6b81 693e e31d a7be
00000320: c359 d43d 2c6f 39be e707 17bd 5cbc e23d
00000330: 12f3 8cbb 6fce 20be c80f 9a3e c321 123d
00000340: 6511 8abe f3a8 b0bd 46e6 dabe 1e57 763d
00000350: 8b2a 11be 4056 ffbd f14e 903e 0178 51be
00000360: 615f a23e 8870 993e bea7 8cbd 8d8b 073e
00000370: e303 c73e a313 523e 68c4 84bc ca05 cf3e
00000380: a860 3c3e 1fff 76bb ffe6 d33d 2052 573e
00000390: 4174 a73e 2770 26bd bf05 0b3e 55a0 883e
000003a0: 977c 60bc 3964 c73e 0e6e 84bd 8258 60be
000003b0: 8e29 a7bd 4b9c 223f e58d c83d 8b5e fcbc
000003c0: 724b d8be daa6 20be cf13 0e3e d645 b43d
000003d0: be65 b3be add2 0d3f a0af 0d3d 0610 483e
000003e0: c866 e7bd 05ec ccbe 6853 983d 14c7 ae3e
000003f0: 848e 9c3e 96d7 9b3e d9a0 9ebe 76db ce3e
