automata_ex/logs/withPool/15-RABBIT-FACE-train_05-05-2022_13-44-43/models/model_500.pt (torch, 9699 bytes, 3 tensors)

update_module.0.weight f4 [32, 48, 1, 1]
-0.11481842 -0.0003779273 -0.042422682 -0.12769026 -0.0067632333 0.05514909 -0.12766251 -0.074690364
0.08363908 0.18007281 0.008999151 0.24483803 0.17320712 0.21412861 0.1808274 -0.105415925
0.23280515 0.111860335 0.02462597 -0.02202294 0.18965381 0.037086517 0.15961875 0.24993216
0.13749284 0.1646433 0.2612677 0.0072688037 0.18035872 0.2897499 -0.06836542 -0.080722444
0.02727674 0.038043577 0.09510266 -0.009342109 -0.017220229 0.1056474 0.01568453 0.057005994
0.08476547 0.025021378 0.2208025 0.031297706 0.035658143 0.35905978 0.23466665 0.15560709
0.10028955 -0.09016667 -0.024827879 0.016806304 0.12149062 0.16524394 -0.06640816 -0.031918593
0.054780465 0.13800173 0.060855154 -0.11388415 0.051176354 0.21479148 -0.09413721 -0.018639456
0.132107 -0.18465744 -0.013957374 0.13095585 -0.10917956 -0.14881575 -0.029936897 -0.06898381
-0.15848614 0.062263627 -0.29042876 0.05616521 0.112199195 -0.24062909 -0.13602102 0.17155942
-0.123183854 -0.06286861 0.13802584 -0.1011247 -0.016218627 0.12445371 -0.09019436 -0.16660647
0.1883412 -0.1692531 0.10982768 0.22820811 -0.2252549 0.0056941886 0.21907076 -0.32436717
-0.08910177 0.09975482 -0.25904533 0.10639346 -0.01750822 -0.31006977 0.0706592 0.03122175
-0.15540643 0.0821053 0.076896645 -0.21503448 0.03848451 -0.021957805 -0.15981923 -0.055556986
-0.04557098 -0.10778448 0.024470115 0.065178595 -0.20286007 0.012299525 0.44186005 -0.0059896805
-0.085409984 0.091059834 0.029766822 -0.10483454 0.0062084473 0.24074501 0.0235166 0.008154983
-0.055931836 0.023480108 0.22212031 -0.002341681 0.12079262 0.11086811 -0.093906045 -0.15905671
0.13128425 0.03935808 0.06860693 0.28233147 0.044867977 -0.032745764 0.1465244 -0.13001992
-0.032460824 0.13338538 -0.08555086 -0.079242334 0.100341484 0.019930668 -0.040258363 0.08874032
0.042201646 0.1716146 -0.20721734 -0.10345607 -0.09845901 -0.100219265 -0.13315865 -0.117502235
-0.26886165 -0.19588892 -0.007820099 -0.12568487 -0.15568219 -0.07052941 -0.19725645 -0.18248384
0.024632318 -0.18244348 -0.18678758 -0.22649232 -0.16312121 -0.11774472 -0.14265081 -0.09084687
-0.2614608 0.054981153 -0.12250013 -0.10203181 -0.10293279 -0.3208893 -0.18663844 -0.025889514
-0.01770461 -0.062392253 0.06110582 -0.2833562 -0.15868473 0.084363796 -0.103385486 -0.28768182
0.09059009 0.14625295 -0.08205859 0.107431985 0.08734315 -0.062033758 -0.14543049 0.12142696
-0.15068747 0.09707808 -0.067490794 -0.074326254 0.025998231 -0.0069632675 0.05251376 -0.101496674
-0.048371136 -0.10074439 0.09535908 -0.050215445 -0.13402568 0.09558901 0.18992499 -0.046192404
-0.13396631 0.067939155 0.04419223 -0.057878945 -0.046100773 0.099102154 -0.16551974 -0.20122218
0.028160844 -0.010255775 0.13517605 -0.030872324 0.129863 -0.15586635 -0.3496646 0.11504191
0.1928651 -0.04003681 0.0044672093 0.036585182 -0.04881344 0.101842955 0.049518622 -0.1848748
-0.30950007 0.30320895 -0.1902751 -0.28360096 0.23387195 -0.2457269 -0.2829552 0.04424317
-0.16644259 -0.34450537 0.28063568 0.040025674 0.15507503 0.06981582 -0.056503307 0.011385245
00000000: eb25 ebbd 8b24 c6b9 68c3 2dbd 3cc1 02be
00000010: 1d9e ddbb 03e4 613d f6b9 02be 43f7 98bd
00000020: f74a ab3d 0265 383e 2d71 133c d2b6 7a3e
00000030: 355d 313e 8844 5b3e d12a 393e 4ee4 d7bd
00000040: 7964 6e3e 0817 e53d 67bc c93c 7469 b4bc
00000050: 9c34 423e 08e8 173d 1973 233e 37ee 7f3e
00000060: ecca 0c3e 4198 283e e1c4 853e 252f ee3b
00000070: f5af 383e 195a 943e 2b03 8cbd cf51 a5bd
00000080: 7873 df3c 95d3 1b3d 2fc5 c23d a50f 19bc
00000090: 7011 8dbc aa5d d83d d87c 803c 1e7f 693d
000000a0: 8599 ad3d a2f9 cc3c 0d1a 623e 0632 003d
000000b0: 460e 123d afd6 b73e 744c 703e 7757 1f3e
000000c0: 9c64 cd3d 4ea9 b8bd d663 cbbc 60ad 893c
000000d0: 13d0 f83d b535 293e 0001 88bd 12bd 02bd
000000e0: 7b61 603d 5350 0d3e 4143 793d 183c e9bd
000000f0: 4c9e 513d 4cf2 5b3e 02cb c0bd c6b1 98bc
00000100: 0f47 073e d716 3dbe 78ad 64bc 4a19 063e
00000110: 8899 dfbd 2863 18be 393e f5bc 6247 8dbd
00000120: 314a 22be 2508 7f3d 14b3 94be 7e0d 663d
00000130: b1c8 e53d 7967 76be 1849 0bbe 46ad 2f3e
00000140: d147 fcbd 42c1 80bd a556 0d3e 771a cfbd
00000150: eddc 84bc 96e1 fe3d d2b7 b8bd e39a 2abe
00000160: 84dc 403e af50 2dbe 56ed e03d 63af 693e
00000170: 38a9 66be 5196 ba3b 1654 603e 7413 a6be
00000180: fd7a b6bd 414c cc3d 97a1 84be d0e4 d93d
00000190: 666d 8fbc 77c1 9ebe c5b5 903d c1c4 ff3c
000001a0: dd22 1fbe d326 a83d fd7b 9d3d 0032 5cbe
000001b0: efa1 1d3d dbe0 b3bc a7a7 23be b98f 63bd
000001c0: a3a8 3abd 1cbe dcbd 8d75 c83c 5b7c 853d
000001d0: 8dba 4fbe f283 493c 7b3b e23e 1545 c4bb
000001e0: 6eeb aebd 947d ba3d 8dd9 f33c 7eb3 d6bd
000001f0: 3b70 cb3b dc85 763e e2a5 c03c 7a9c 053c
00000200: c818 65bd 5b59 c03c 8273 633e e376 19bb
00000210: 1f62 f73d d20e e33d d051 c0bd c3df 22be
00000220: 616f 063e f035 213d ca81 8c3d c08d 903e
00000230: 7cc7 373d 6c20 06bd 7e0a 163e f123 05be
00000240: a4f5 04bd 2d96 083e 4a35 afbd ce49 a2bd
00000250: d67f cd3d a445 a33c f4e5 24bd 7cbd b53d
00000260: a2db 2c3d bdbb 2f3e c830 54be c7e0 d3bd
00000270: e1a4 c9bd c23f cdbd be5a 08be 03a5 f0bd
00000280: 3ca8 89be 1b97 48be df1f 00bc 89b3 00be
00000290: 276b 1fbe b971 90bd 98fd 49be 0bdd 3abe
000002a0: b7c9 c93c 77d2 3abe 3e45 3fbe 9aed 67be
000002b0: 3f09 27be 2524 f1bd 0e13 12be ec0d babd
000002c0: 31de 85be eb33 613d 59e1 fabd 0ef6 d0bd
000002d0: 6dce d2bd 9a4b a4be 261e 3fbe 3f16 d4bc
000002e0: 4209 91bc 058f 7fbd 194a 7a3d 1014 91be
000002f0: 407e 22be edc6 ac3d c5bb d3bd 084b 93be
00000300: 4c87 b93d 55c3 153e 560e a8bd 4d05 dc3d
00000310: f7e0 b23d 1c17 7ebd bbeb 14be b3ae f83d
00000320: d14d 1abe dfd0 c63d 9d38 8abd 5d38 98bd
00000330: 3efa d43c 1f2c e4bb ab18 573d 7ddd cfbd
00000340: d020 46bd 1353 cebd 9f4b c33d b6ae 4dbd
00000350: 073e 09be 2cc4 c33d b27b 423e 3f34 3dbd
00000360: 772e 09be af23 8b3d e902 353d 7912 6dbd
00000370: 2ad4 3cbd 12f6 ca3d 027e 29be 300d 4ebe
00000380: 92b1 e63c d707 28bc 976b 0a3e f5e7 fcbc
00000390: cefa 043e 6e9b 1fbe 3d07 b3be 189b eb3d
000003a0: 6e7e 453e a3fd 23bd ab61 923b 58da 153d
000003b0: 9af0 47bd 0a93 d03d 0ad4 4a3d d24f 3dbe
000003c0: cb76 9ebe 343e 9b3e 7ad7 42be 2534 91be
000003d0: 217c 6f3e d59f 7bbe 81df 90be 5438 353d
000003e0: ed6f 2abe 0263 b0be 7baf 8f3e f6f1 233d
000003f0: fdcb 1e3e 99fb 8e3d 0370 67bd 2e89 3a3c

update_module.0.bias f4 [32]
0.026783576 -0.091316245 0.13943453 -0.017792841 0.19492088 0.0027693964 0.083314836 -0.19988258
-0.17437541 0.03551434 -0.2903286 -0.0042514186 0.09040876 -0.01909104 0.09783253 0.12177713
-0.0069738994 0.15990227 0.0617224 0.1582782 -0.25127935 -0.0074968687 0.13801499 0.0812505
0.13253666 0.030680045 0.046208665 -0.052574605 0.019498046 -0.08925331 0.08611618 0.055710614
00000000: 3b69 db3c 0304 bbbd edc7 0e3e 4bc2 91bc
00000010: 5799 473e c37e 353b f8a0 aa3d 05ae 4cbe
00000020: 788f 32be 7c77 113d f3a5 94be 7c4f 8bbb
00000030: 3a28 b93d d064 9cbc 6c5c c83d 4a66 f93d
00000040: 4f85 e4bb 6cbd 233e a1d0 7c3d ae13 223e
00000050: b0a7 80be 4ba8 f5bb cd53 0d3e aa66 a63d
00000060: b1b7 073e b854 fb3c 4c45 3d3d 7858 57bd
00000070: 5eba 9f3c 70ca b6bd ae5d b03d d030 643d

update_module.2.weight f4 [16, 32, 1, 1]
0.02150412 0.015879216 -0.009658672 0.04339543 -0.028110566 0.035324007 0.0776835 -0.034972332
-0.043510888 0.04016189 -0.020172175 0.007885776 0.0037506924 -0.042283267 0.033385053 0.016905863
0.010488941 0.00041797385 0.061202284 0.032220762 -0.03335951 0.0017143325 0.047689594 0.0052281674
0.03689315 0.0148168 0.02567084 -0.008727898 0.018210946 0.002164644 0.0058517023 0.008982898
0.021205397 0.0074290237 -0.008649855 0.04553798 -0.02789557 0.035144754 0.059341103 -0.0361457
-0.043959823 0.047355525 -0.019251935 0.008317569 0.0064866096 -0.040761955 0.034410972 0.01840963
0.011538033 -0.0012927285 0.071179956 0.032985553 -0.03504336 0.002193981 0.03429454 0.0031525423
0.044591587 0.014837817 0.026376946 -0.005114781 0.018496525 0.0017214499 0.0009868247 0.009220909
0.022622282 0.0035006895 -0.009255215 0.042075194 -0.027809149 0.0340768 0.060522966 -0.034410685
-0.043440208 0.048543584 -0.019996902 0.010060734 0.006372201 -0.040346514 0.035257965 0.016691888
0.011321667 -0.0016323939 0.07341573 0.033493727 -0.034020454 0.0030462935 0.033366274 0.0034126316
0.044945553 0.014937717 0.025843957 -0.004978353 0.020020928 0.0029527291 -9.206886e-05 0.009265915
0.0233162 0.018933134 -0.00900044 0.0773453 -0.034477707 0.04000929 0.07358631 -0.04083201
-0.056836087 0.06312802 -0.016426915 0.014908446 0.009600466 -0.050606452 0.04166532 0.024031945
-0.0044781114 -0.0019903353 0.077773996 0.042708106 -0.045721784 0.0010607772 0.046311777 0.004720152
0.05205047 0.009458167 0.0359319 -0.004927013 0.023148112 0.0033221259 0.000288009 0.010121097
0.039075878 0.071216285 -0.006285856 0.33443564 0.0018262079 0.040156707 0.02799983 -0.03876271
-0.08197536 0.0070286677 -0.004737819 0.09773751 0.030622942 0.010236864 0.04340464 0.029739864
-0.024282407 -0.010365996 0.0889312 0.11188243 -0.07368225 -0.10220449 0.060631428 -0.042352505
0.015964111 -0.03865229 0.07241307 -0.010233915 0.0015675944 -0.017387014 -0.008331416 -0.015062895
0.22211042 0.32535708 -0.0059526055 0.10105307 -0.0011974117 -0.0329099 -0.056236368 0.13026653
0.1689289 0.1232444 0.029860409 0.31936467 0.069056675 0.17239083 -0.120619565 0.037184477
0.14027874 -0.04304181 -0.027316594 -0.011169709 0.100872874 0.20641518 -0.031455003 -0.097628705
-0.051344328 0.10627263 -0.053334486 0.20005229 0.043323774 0.12354761 -0.026633373 -0.018080784
0.18688011 0.2894535 0.015297466 0.16230218 0.024858639 0.14038803 0.05285736 0.08885178
0.11185668 0.18702054 0.07347586 -0.08634093 0.052525684 0.17574833 -0.13499811 0.009919027
0.048324514 0.023506973 -0.061000932 0.041326534 0.093220875 -0.22984295 -0.05453573 -0.25787067
-0.030016005 0.022961104 -0.2566621 0.25705 -0.028168341 0.2823076 -0.17384222 -0.040505208
-0.0017219213 0.065770715 -0.008540721 0.115154095 0.0008505916 -0.073323295 -0.03778226 0.019609215
0.124135174 0.0026423142 -0.017275786 0.08578408 0.028671231 -0.017843686 0.017010156 0.03927619
0.12203936 0.036471043 0.10091052 -0.07334954 -0.04002801 0.0241972 0.03808678 -0.017269196
-0.010936989 -0.053264946 0.004684266 -0.03593127 -0.0009760468 0.018036807 0.007728775 -0.0024340362
00000000: 6929 b03c 2115 823c 683f 1ebc 68bf 313d
00000010: 2148 e6bc e8af 103d 8718 9f3d 263f 0fbd
00000020: 7938 32bd cb80 243d 1e40 a5bc 5833 013c
00000030: 2dce 753b 3831 2dbd c4be 083d 2a7e 8a3c
00000040: cfd9 2b3c 8023 db39 3faf 7a3d ebf9 033d
00000050: fba3 08bd 74b3 e03a 2a56 433d 0c51 ab3b
00000060: 461d 173d 2ac2 723c a74b d23c 75ff 0ebc
00000070: 1f2f 953c b3dc 0d3b a3bf bf3b 012d 133c
00000080: f1b6 ad3c 2b6f f33b 1fb8 0dbc 0886 3a3d
00000090: 4085 e4bc f2f3 0f3d a80f 733d 830d 14bd
000000a0: 370f 34bd def7 413d 3cb6 9dbc 6a46 083c
000000b0: a08d d43b 02f6 26bd 85f2 0c3d cbcf 963c
000000c0: 050a 3d3c c570 a9ba ccc6 913d dc1b 073d
000000d0: a089 0fbd e5c8 0f3b 6e78 0c3d e29a 4e3b
000000e0: aba5 363d 511a 733c 7714 d83c e599 a7bb
000000f0: 0686 973c 46a2 e13a 5858 813a 4c13 173c
00000100: 5d52 b93c d36b 653b 2fa3 17bc 0a57 2c3d
00000110: 03d0 e3bc 1d94 0b3d eee6 773d 38f2 0cbd
00000120: 5cee 31bd a3d5 463d 8bd0 a3bc c7d5 243c
00000130: e5cd d03b 6342 25bd a86a 103d 6dbd 883c
00000140: 837e 393c 0df6 d5ba fc5a 963d b830 093d
00000150: 0859 0bbd 53a4 473b 13ab 083d 75a6 5f3b
00000160: d418 383d 53bd 743c b5b6 d33c 7421 a3bb
00000170: ee02 a43c 9382 413b 1815 c1b8 10d0 173c
00000180: 9e01 bf3c a919 9b3c 9576 13bc 3667 9e3d
00000190: 7f38 0dbd c8e0 233d 6bb4 963d 773f 27bd
000001a0: f5cc 68bd 4349 813d bd91 86bc 8e42 743c
000001b0: 464b 1d3c b648 4fbd 41a9 2a3d a4de c43c
000001c0: 1fbd 92bb 4970 02bb f947 9f3d b2ee 2e3d
000001d0: c446 3bbd c709 8b3a 6bb1 3d3d 81ab 9a3b
000001e0: e032 553d 6df6 1a3c 542d 133d c872 a1bb
000001f0: 1ca1 bd3c 06b8 593b eaff 9639 f5d2 253c
00000200: 070e 203d d8d9 913d 95f9 cdbb 263b ab3e
00000210: 5e5d ef3a 5c7b 243d e65f e53c a6c5 1ebd
00000220: b3e2 a7bd bd50 e63b b53f 9bbb 9b2a c83d
00000230: f7dc fa3c 85b8 273c 10c9 313d 04a1 f33c
00000240: e6eb c6bc 23d6 29bc 9021 b63d 9e22 e53d
00000250: b8e6 96bd 9650 d1bd a958 783d d279 2dbd
00000260: 2bc7 823c dd51 1ebd 4e4d 943d 27ac 27bc
00000270: bd77 cd3a 366f 8ebc 7e80 08bc 5cca 76bc
00000280: ea70 633e 3495 a63e 130e c3bb e9f4 ce3d
00000290: 78f2 9cba 88cc 06bd 1b58 66bd 9764 053e
000002a0: b3fb 2c3e 8f67 fc3d d19d f43c c483 a33e
000002b0: 966d 8d3d 3987 303e 6407 f7bd c04e 183d
000002c0: 3ba5 0f3e 9c4c 30bd 0dc7 dfbc 2801 37bc
000002d0: 7096 ce3d 805e 533e f6d6 00bd 8ff1 c7bd
000002e0: 6e4e 52bd 77a5 d93d 4375 5abd 82da 4c3e
000002f0: 4574 313d 8806 fd3d 3b2e dabc 271e 94bc
00000300: 805d 3f3e 4033 943e 39a2 7a3c 8b32 263e
00000310: 58a4 cb3c e1c1 0f3e f680 583d ecf7 b53d
00000320: 1d15 e53d 5082 3f3e 837a 963d 83d3 b0bd
00000330: 2c25 573d 5ff7 333e f23c 0abe 6a83 223c
00000340: edef 453d b291 c03c 1ddc 79bd 0346 293d
00000350: 96ea be3d f35b 6bbe dc60 5fbd a007 84be
00000360: 20e4 f5bc ed18 bc3c 3769 83be 0f9c 833e
00000370: 4bc1 e6bc 9f8a 903e b203 32be cae8 25bd
00000380: 17b2 e1ba ccb2 863d 61ee 0bbc e9d5 eb3d
00000390: 3cfa 5e3a 862a 96bd 92c1 1abd 81a3 a03c
000003a0: 953a fe3d ad2a 2d3b f385 8dbc 90af af3d
000003b0: eedf ea3c ec2c 92bc e258 8b3c 12e0 203d
000003c0: c6ef f93d a962 153d 2daa ce3d 4938 96bd
000003d0: 69f4 23bd 3539 c63c e200 1c3d 2178 8dbc
000003e0: 0f31 33bc 582c 5abd 797e 993b ab2c 13bd
000003f0: 64dd 7fba edc1 933c aa41 fd3b 5a84 1fbb
