final_models/Adam/NonSamplePools/15-CARROT-train_05-05-2022_17-31-03/models/model_4500.pt (torch, 9699 bytes, 3 tensors)

update_module.0.weight f4 [32, 48, 1, 1]
000000 eb 95 77 bd 10 fd 85 3c 3e be 2a 3e ce 53 b3 3d
       -0.060445707 0.016356021 0.16674134 0.08756219
000010 04 c8 3b bd 51 5d c2 3c 80 56 5f 3d 88 a1 4c 3d
       -0.045845047 0.023726137 0.054525852 0.049958736
000020 21 24 e1 bd 34 4d 31 3e ef e5 1d 3e 13 1e af bd
       -0.10993219 0.17314607 0.15419744 -0.08550658
000030 29 85 14 3e e9 45 0f bf 97 d8 91 be 48 77 15 be
       0.14503922 -0.5596605 -0.28485557 -0.14596283
000040 3b e1 40 3e be 9d 9a be 8b 33 f9 3c d7 c1 dc 3d
       0.18835919 -0.30198473 0.030420085 0.107791595
000050 ef d8 01 3d 8b f5 35 3e 83 97 e0 3d 9d 10 9e be
       0.031701025 0.17769448 0.109663986 -0.3087205
000060 6a 05 6a be de f2 88 be f1 8f 00 3f 74 cf 8c be
       -0.22853628 -0.26747793 0.5021964 -0.27502024
000070 77 a9 c5 3d a1 63 54 be 69 fe b2 3d e3 58 e2 3d
       0.096514635 -0.2074113 0.08739931 0.1105211
000080 9b ad 3b 3d c1 5c a3 bd 8a c9 99 be 21 6d d4 3d
       0.04581986 -0.07976676 -0.30036575 0.10372377
000090 71 19 0b be 26 f7 b8 3d fd 0b 33 be 5e 30 99 bc
       -0.13583924 0.09031515 -0.17485042 -0.018699821
0000a0 42 1d 32 be 80 ae 4a 3e 30 d2 35 bd da bb 4d 3e
       -0.17393973 0.19793129 -0.044389904 0.20091191
0000b0 b0 ba fb be 92 da 90 be ce e5 de bd a5 b9 4c 3e
       -0.4916587 -0.28291756 -0.108836755 0.19992693
0000c0 cb 46 92 3c e1 a7 02 be 7a 01 14 be 57 6a 0d bd
       0.017856022 -0.12759353 -0.14453688 -0.03452524
0000d0 9d dd bf bb 54 80 5a bd dd 32 29 3d 21 d4 75 be
       -0.005855276 -0.05334504 0.041308273 -0.24006702
0000e0 f6 fb 79 3e ba 78 88 3d f2 c7 fe bc 70 a4 8e bd
       0.24412522 0.06663652 -0.0311012 -0.06964958
0000f0 a6 30 49 bb 6c 14 b7 3e fa 5c ab 3d 44 93 7b be
       -0.0030699163 0.35757768 0.08367343 -0.24567896
000100 53 05 6c be 12 05 91 3e fb a9 05 be f7 2a 05 be
       -0.23048906 0.2832418 -0.13053124 -0.13004671
000110 98 16 57 bd 37 a5 d4 3c 7c 35 3a 3c 17 46 12 3f
       -0.05251178 0.025957687 0.011365291 0.571382
000120 3d 12 9f 3d 7c 17 e4 3d db ad a2 bd ff 93 79 3d
       0.077671506 0.11137292 -0.079433165 0.060932156
000130 2e 84 6d bd 27 9d 82 3e ef 89 2a 3e 15 8d 42 be
       -0.057987384 0.25510523 0.1665418 -0.18999131
000140 1d 66 a2 be b5 bf a2 bd 24 45 98 bb 90 7d d4 bd
       -0.3171853 -0.079467215 -0.004646914 -0.10375512
000150 ab 36 f3 bd 7c bc 88 be 30 e4 1d 3e 12 23 43 3e
       -0.118756615 -0.26706302 0.15419078 0.19056347
000160 ee ba 8e 3c d7 8c b4 be 61 93 fc bd 25 ed 8d be
       0.01742312 -0.35263702 -0.12332798 -0.2771999
000170 35 a4 e1 3d 84 4e 9a 3c c8 89 db bd 0e 87 e0 be
       0.11017648 0.018836267 -0.10719639 -0.4385304
000180 2e b0 39 3d 4c 0f 67 be 07 31 b4 3d 01 7d 61 3d
       0.045334034 -0.22564429 0.08798414 0.055050854
000190 5e 66 b4 bd a3 79 97 bb 61 38 b2 bd ef 63 4a be
       -0.088085875 -0.0046226545 -0.0870216 -0.19764684
0001a0 0a 1b 06 be 1f dc 05 be 8b d4 6a 3c fa 86 3b be
       -0.13096252 -0.13072251 0.014332901 -0.18313208
0001b0 43 3d c1 be cd 3b d9 3d 75 21 93 3e 3a 1b 1c be
       -0.3774205 0.10607109 0.28736463 -0.15244761
0001c0 79 77 a4 3d b8 91 61 be e9 48 c6 bd dd 06 a3 3e
       0.080306 -0.22028244 -0.09681875 0.31841174
0001d0 2e 96 95 bd f4 42 20 3e 59 80 bc 3c af 1d 0e bd
       -0.07304035 0.1565054 0.02301042 -0.034696277
0001e0 b2 f6 98 bd e3 9a 1b 3f de 1d 37 3c e5 5d a0 bd
       -0.074689284 0.60783213 0.0111765545 -0.07830409
0001f0 fd e4 63 3e bc 0e e4 bd df 49 2c 3c f0 22 2d 3e
       0.22255321 -0.11135623 0.010515659 0.16907859
000200 68 f3 59 be 36 09 13 bd 35 41 7a 3e c1 22 e1 bd
       -0.21284258 -0.035897456 0.24438937 -0.10992957
000210 be 60 92 be 13 6d 85 3e f6 3d 53 3d 88 7e 04 be
       -0.28589433 0.2605978 0.051572762 -0.12938893
000220 5d 4b 4b bc a1 95 ab bd bd 24 b5 bd 18 1b 2b 3d
       -0.012408105 -0.08378149 -0.08844898 0.041773885
000230 79 15 da bd 95 00 42 be fd 8c 67 3e 65 e3 08 be
       -0.10648627 -0.18945535 0.22612377 -0.13367994
000240 17 e8 6a bd d9 6e 2a be 8f eb e3 3d 0a e9 b4 bd
       -0.057350244 -0.16643848 0.111289136 -0.08833511
000250 40 87 03 be b4 7e 10 3e 68 28 25 3d 77 57 1c be
       -0.12844563 0.14110833 0.040321738 -0.1526774
000260 a2 ab 1d be 87 b2 f2 3b d6 6f 3c be 86 77 83 3e
       -0.15397504 0.007406536 -0.18402037 0.25677127
000270 c9 dd 8a 3d cb 96 58 3d 83 c7 37 3e 1e 10 e7 bd
       0.067805834 0.052878182 0.17947201 -0.11282371
000280 f1 9a ac be 49 4a 77 3e 95 5e 07 3c 45 b3 c2 bc
       -0.3371196 0.24149431 0.008262296 -0.023767123
000290 19 ca 32 be f7 5e ec 3c a8 af 74 be c3 84 1a 3e
       -0.17459907 0.028853877 -0.23895133 0.15089707
0002a0 e7 18 be bd 43 70 56 be fc 8e ce 3e a1 07 af bb
       -0.092820935 -0.20941262 0.40343463 -0.0053414856
0002b0 33 5c e9 be 37 22 0e 3f 93 14 f7 3d 23 98 56 be
       -0.45578155 0.5552096 0.12064471 -0.20956473
0002c0 8a 3c 62 3d 71 4e 8a be b6 d4 08 be 51 c4 0e 3d
       0.055233516 -0.2701297 -0.13362393 0.03485519
0002d0 1a 61 3e be 9e 0a 46 be 65 e1 98 3e da 9f 16 3d
       -0.18591729 -0.19339988 0.29859462 0.03677354
0002e0 75 f9 56 bd 9d 6c 44 3d 62 f3 7a bd 38 0e 6c be
       -0.052483995 0.047955144 -0.061267264 -0.23052299
0002f0 6a 40 57 3e be 96 10 3e 55 47 91 be 95 13 68 3e
       0.21020666 0.14120004 -0.28374735 0.2266372
000300 02 3b 37 be d1 69 7c 3e 78 eb ac bd 71 7a 8f 3d
       -0.17893603 0.24649741 -0.084433496 0.07005776
000310 11 e4 2f bc 4f 31 1a be 63 c9 ca 3d fd 32 8c bd
       -0.010735528 -0.15057872 0.09901693 -0.06845663
000320 c6 62 90 bd bd ec 87 bd 55 ac 59 3e fd f3 01 be
       -0.070500895 -0.06636951 0.21257146 -0.1269073
000330 be 23 2f 3d c8 b6 b7 bd c8 da 42 3e 93 7c af be
       0.042758696 -0.0897041 0.19028771 -0.3427473
000340 e5 ee ba bc ae e1 ed bd 4c 4b 24 be 84 c0 cf 3d
       -0.022818992 -0.116153106 -0.16044348 0.10144141
000350 07 d7 37 be 04 a9 0b 39 13 c5 b6 3d 5b 63 ca 3d
       -0.1795312 0.00013319036 0.08924308 0.09882232
000360 f6 f2 d0 bd be a4 80 3e 0b 72 81 be 31 4a 34 bd
       -0.10202591 0.25125688 -0.2528232 -0.044016067
000370 28 c4 86 3e 70 d7 2c bd 53 fe ca 3d a7 ed e6 3d
       0.2632153 -0.042197645 0.0991179 0.11275797
000380 b4 75 51 be f8 de 55 bd de de 8b 3e f7 6c 43 be
       -0.20455056 -0.052214593 0.27318472 -0.19084536
000390 ff 2d 11 be a6 5d 8e 3d db c1 60 be ca 06 29 be
       -0.14177702 0.06951456 -0.2194895 -0.16506496
0003a0 6a 2f 6b bd c5 6c 46 be 12 7e 2c be 07 e5 7d 3e
       -0.057418264 -0.1937743 -0.16844967 0.24794398
0003b0 3d 8b 4e be 5c 84 68 be 31 13 33 3e 5e e0 81 be
       -0.20170303 -0.22706741 0.1748779 -0.2536649
0003c0 85 cf ca bd 04 82 8f 3d 5b 3f e8 3d 27 30 55 3c
       -0.099028625 0.070072204 0.11340209 0.013011969
0003d0 2e af 09 3e 8a c7 8b 3e 62 f3 76 3d f1 81 3f bd
       0.13445732 0.27300674 0.0602907 -0.04675478
0003e0 c5 72 7c 3e ff 2c 99 bd 65 92 ec bd 1e 56 c3 3d
       0.24653156 -0.074792854 -0.1155136 0.0953791
0003f0 05 9c 53 bd 5d e8 e7 3e 75 a2 00 be 2a 0b c7 bd
       -0.051662464 0.45294467 -0.12561972 -0.09718926

update_module.0.bias f4 [32]
000000 58 11 61 3d a8 d5 1b 3d 17 4c d9 bb fd fe b7 3b
       0.05494818 0.038045555 -0.006631385 0.005615114
000010 35 0f ef 3a fc 44 e2 bc cd e3 a7 3c da b8 26 b9
       0.0018238785 -0.027620785 0.020494366 -0.00015899856
000020 7d 58 9b be 15 b8 8b be cc 5f 7a 3c 64 b7 2e 3d
       -0.3034095 -0.2728888 0.015281629 0.042655364
000030 54 0f 9b 3b f8 2c 1f 3c d3 5c 88 be 09 15 29 be
       0.004732052 0.009715311 -0.2663332 -0.1651193
000040 d9 59 f2 bb 28 bb ec 3c 83 e3 9d 3b 1c e3 45 b9
       -0.0073959646 0.028897837 0.0048183813 -0.00018871989
000050 18 54 61 bd 66 8d 71 be c7 bf be bc 3e e6 f8 3b
       -0.05501184 -0.23589095 -0.023284806 0.0075958064
000060 f9 28 b5 3b d3 23 59 bd 76 bc 95 b7 46 af 83 be
       0.005528566 -0.05301268 -1.7849943e-05 -0.2571966
000070 e3 33 c9 bb f9 6b 18 3a 0d 8e 0f be 40 03 80 3b
       -0.0061402186 0.0005814429 -0.14019032 0.0039066374

update_module.2.weight f4 [16, 32, 1, 1]
000000 51 5c e5 bd 6b 4f a0 3d 47 5d 3d bd b7 9e 5f 3c
       -0.111992486 0.07827648 -0.046231534 0.01364868
000010 1a 90 8e 3e 52 83 42 bd 6d cf fb 3d a6 54 12 3c
       0.27844316 -0.047488518 0.12295423 0.008931315
000020 f2 6c 5d be d6 03 79 bd 22 74 1b 3d ea 87 fc 3d
       -0.2162359 -0.060794674 0.03795255 0.12330611
000030 ef 1f 0b 3e 13 13 e3 3d 9f 89 1e be 81 68 8c bd
       0.135864 0.110876225 -0.15482186 -0.0685587
000040 09 a9 5d 3e fc 05 24 3d 5f 55 b8 3d a5 a6 52 3d
       0.21646513 0.04004477 0.09000658 0.051428456
000050 2b 7b 10 3e 82 9e 0e be 8e 5b 2e 3e 0b 4f a8 3d
       0.14109485 -0.13927653 0.17027113 0.08218201
000060 fd 35 5f 3d 73 9c 85 3e c0 9e 1f 3c 2e 5f 5e 3b
       0.054494847 0.26095924 0.009742439 0.0033931243
000070 25 8a 02 3e 5d da 85 3d c8 63 cc bb 59 bf 07 3e
       0.1274801 0.0653579 -0.006237481 0.13256587
000080 7c cd b2 bd 0d 7b 69 3d 4c 97 1b 3b b3 5c 1c 3d
       -0.08730599 0.057002116 0.0023741303 0.038174342
000090 5d 8a de 3c 9d 7d bd bc 24 a0 1f 3d 1d f6 46 3c
       0.027165586 -0.023131186 0.03897108 0.012143639
0000a0 1d d8 46 be 39 ee 20 bd 22 da 3d 3d 6f d5 c5 3d
       -0.19418378 -0.039289687 0.046350606 0.0965985
0000b0 bb 3a ac 3d 84 07 06 3d 49 e9 d9 bd ff 40 95 bd
       0.084096394 0.03272201 -0.10640199 -0.07287788
0000c0 e2 0e 11 3e cf e1 76 3d 91 73 a5 3d e4 a6 0a 3d
       0.14165834 0.06027394 0.08078683 0.033850566
0000d0 50 a3 7a 3d f1 ba b8 bd 68 6a da 3d 2e 13 9c 3d
       0.061190903 -0.09020031 0.10664827 0.07620846
0000e0 94 fc 0b 3e 9f eb 05 3e 09 da cd bc ba 98 ea bc
       0.1367057 0.13078164 -0.025128381 -0.028637279
0000f0 fc f6 68 3d 6d 48 14 3e be df ce ba f2 57 29 3e
       0.056876168 0.14480753 -0.0015783233 0.16537455
000100 70 dd 8b bc 5c 33 83 3c ca 93 a1 3c 62 22 b1 3c
       -0.017073363 0.016015701 0.019723792 0.02162284
000110 fd 3b b4 3c 48 e4 e4 3b 33 e0 26 bb 32 bf 97 3c
       0.02200126 0.006985221 -0.0025463223 0.018523786
000120 9d db 6a bd 3a 7f 15 bc 37 60 48 3b cc 30 50 3c
       -0.057338346 -0.009124571 0.0030574927 0.012706947
000130 52 2c f0 3a 82 52 fb bb 44 df cf bc f2 95 2e bd
       0.0018323755 -0.007669748 -0.025375016 -0.042623468
000140 29 2e 35 3b 54 cd fb 3c 13 90 6d 3c d8 33 df 3b
       0.0027645922 0.030737557 0.014499682 0.0068116
000150 e2 34 a4 3c a9 3a 31 bd 0a 20 9f 3b 1b ad 8e 3c
       0.020044748 -0.043268833 0.0048561143 0.017416527
000160 f7 8e 26 3d 46 5f 88 3c fb c3 b5 3c cc 8f fc bb
       0.040663686 0.016646992 0.022188177 -0.0077075716
000170 90 1d a3 3c 63 3b f1 3c b0 59 4e 3c 9e 5b 0b 3d
       0.019911557 0.029447263 0.012594625 0.03402292
000180 75 61 1c be 41 af e0 3d 54 11 2c 3d 4f 91 b2 3d
       -0.15271552 0.10970927 0.042008713 0.08719122
000190 69 96 17 3e 59 d9 1a bd 45 3e 93 3d 5b f6 16 3d
       0.1480347 -0.037804935 0.07189611 0.036856037
0001a0 98 6e aa be 5b 5f 1d be b8 91 80 3d 9d 67 1b 3e
       -0.332875 -0.15368406 0.06277794 0.15176244
0001b0 7b 57 0f 3e 67 13 9b 3d 6c a4 2c be 1e 21 d4 bd
       0.13998215 0.0757206 -0.16859597 -0.10357879
0001c0 80 f5 52 3e 27 98 dd 3d b9 29 dd 3d 35 ec e1 3d
       0.20601463 0.108200364 0.107989736 0.11031381
0001d0 28 cc 0f 3e 1f e7 42 be de eb 15 3e 24 cb 0c 3e
       0.14042723 -0.19033478 0.14640757 0.13749367
0001e0 18 79 81 3e bc f1 43 3e 42 12 39 3d 08 cd 10 be
       0.252877 0.19135183 0.045183428 -0.14140713
0001f0 9d 8b 06 3e 40 17 77 3e cb ee d3 bc 0e 16 7b 3e
       0.13139196 0.24129963 -0.025870701 0.24520132
000200 94 ba 00 3e 53 36 51 3d 55 2f 3c 3e 7e 70 66 be
       0.12571174 0.0510772 0.1837743 -0.2250385
000210 d8 41 dc bd b4 b3 49 3d f7 ee 94 bc 9a 3c 7f 3e
       -0.10754746 0.049243644 -0.018180354 0.24925461
000220 16 05 80 be 7f 73 f9 3c bf ea e8 bd 11 bf 3b bd
       -0.2500388 0.03045058 -0.11372899 -0.045836512
000230 81 a4 90 be 62 65 25 3d f2 1b c3 3d ab 73 f6 bc
       -0.28250507 0.04037989 0.095268145 -0.030084452
000240 cf 15 0c be e3 a5 4d bd 72 b5 84 3d 9e d2 1e be
       -0.13680194 -0.05020703 0.064799204 -0.15510032
000250 df e7 1a be b5 e3 a9 be 53 64 95 3d 3c dc a3 3d
       -0.15127514 -0.3318154 0.07294526 0.08000991
000260 d2 b7 b0 3a 0e bb 81 3d a1 57 57 be 4d 3a cb 3d
       0.0013482517 0.06334506 -0.21029522 0.09923229
000270 6c 8f 10 bd c5 01 78 be 76 5e 52 bb 07 4b e4 3d
       -0.035293028 -0.24219425 -0.003209976 0.11147123
000280 52 9a dc 3d 5d d4 19 bd 96 36 d8 bc 31 48 9f 3e
       0.10771622 -0.03755604 -0.026393216 0.31109765
000290 e6 32 e7 3c ab 7c ac 3d 3d 41 54 be 63 46 f3 bc
       0.028222512 0.08422216 -0.20728011 -0.029696649
0002a0 dc 4b a4 3e 4d c0 2d 3e 3c cb 64 3d b8 3d 93 bd
       0.32089126 0.16967888 0.055857882 -0.07189506
0002b0 a3 99 bc 3e fa dd 96 bc b1 9c 47 3e 74 2a d9 3e
       0.36835966 -0.018416394 0.19493367 0.42415202
0002c0 f3 87 2b be b4 88 e1 bc 1a bb 34 be 4d 1b 0b 3d
       -0.1675108 -0.027531005 -0.17649499 0.033961583
0002d0 15 f7 a2 3e 7f 78 06 3e 65 9c 6b be c4 da 0a be
       0.31829134 0.13131903 -0.23008879 -0.13560015
0002e0 d9 7d b3 bc 73 ef 65 bd 41 b6 25 3e 12 82 87 3e
       -0.021910595 -0.05613656 0.16182806 0.26466423
0002f0 7a 2c d7 bd 1d ac 3c 3e 48 5b 1b 3d 4b 3a b9 bd
       -0.1050653 0.18425031 0.03792885 -0.090443216
000300 49 85 80 3d c3 b7 7c bc 93 ae 09 3d c9 32 96 bb
       0.06275422 -0.015424672 0.033613753 -0.004583691
000310 cc ee 93 3e 94 14 0c be de f6 02 3e f0 99 23 be
       0.28893125 -0.13679725 0.12789485 -0.15976691
000320 ab 63 07 3e 9e f9 d4 3d d5 fc 02 be ce f3 a6 3c
       0.13221614 0.10399173 -0.1279176 0.020379927
000330 ef 26 b3 bd b3 aa 52 3d 6e 93 91 3b 7e 80 a4 3e
       -0.0874766 0.051432323 0.004442624 0.32129282
000340 c7 6f 51 3d 1d 10 d3 3c 2d 88 d4 3d 0c ca c3 3e
       0.05113199 0.02576452 0.10377536 0.38240087
000350 c7 bd 41 3e ed 54 e9 bd 94 a2 51 3e 19 21 11 3c
       0.1892005 -0.113931514 0.20472175 0.008857989
000360 1a 7d 03 be 00 9b f0 3b af 7c f6 3e 5b c5 5d bd
       -0.12840691 0.007342696 0.48142 -0.05414329
000370 20 ce 76 3c e3 aa 6f bd 90 e1 21 3b 16 a3 ff 3c
       0.0150637925 -0.05851258 0.0024701096 0.031205695
000380 cc 10 84 be fc 47 d5 3d 4a 0c 61 bd e5 96 0b 3e
       -0.25794065 0.104141206 -0.05494336 0.1363178
000390 d3 b0 a9 bc de 77 8d 3e e3 1d 9a bd a2 38 06 3e
       -0.0207142 0.27630514 -0.07525232 0.13107541
0003a0 76 d4 10 3d 13 05 3c bd 0c 6e e3 bd ee ed 08 bd
       0.03535887 -0.045903277 -0.11104974 -0.033430032
0003b0 3a 2b f2 3d 91 56 ad bd 73 bf f4 bd 49 e5 a3 3e
       0.11824651 -0.08463777 -0.119505785 0.32010868
0003c0 59 e0 4e be f3 32 1c bd d5 99 7e be fa 38 b2 3c
       -0.2020277 -0.038134526 -0.2486337 0.021755684
0003d0 c0 23 20 3e a2 e7 d0 bd a8 67 15 be 96 16 5c 3e
       0.15638638 -0.102004305 -0.14590323 0.21492991
0003e0 16 1f d6 bd 26 5e bc bd 86 72 88 3e ca 43 4f bd
       -0.10455148 -0.09197645 0.26649874 -0.050601758
0003f0 8d 8f f4 bc 8a 7f 2a 3e ed 89 3c 3b 21 12 79 bd
       -0.029853607 0.16650215 0.0028768734 -0.060808305
