automata_ex/logs/withoutPool/9-RABBIT FACE-train_05-05-2022_16-07-21/models/model_9500.pt (torch, 9699 bytes, 3 tensors)

update_module.0.weight f4 [32, 48, 1, 1]
-0.09691231 -0.2669335 0.05709616 0.03555512 -0.018601727 0.17346403 -0.011998056 -0.055671763
0.085692495 -0.03494391 -0.09590925 0.011760117 -0.014101618 -0.01041023 0.1420005 -0.063763216
0.30502048 0.5006351 0.15892486 0.15645751 0.25915498 0.046160392 0.13960637 0.36495176
-0.008242341 0.05700183 0.2755514 0.21515231 0.083196916 0.1479205 0.14750212 0.17156364
-0.101345085 -0.2914114 0.31614134 0.41608787 -0.10434958 0.17223871 -0.00999282 0.0356931
-0.007928571 0.23120199 -0.21225755 0.23370993 0.43319014 -0.13908309 0.13776848 -0.12125506
0.12310723 -0.039191477 -0.04074885 0.16604227 -0.16611251 -0.08129598 -0.005774178 -0.14699958
-0.070284806 0.13055912 -0.047703292 0.109944455 0.008951536 -0.06778144 -0.084255435 0.043088716
-0.09160878 0.104124084 -0.16389216 -0.2662387 -0.07579842 -0.13741061 -0.13259652 -0.057372786
-0.029529357 0.12299468 -0.11370033 0.090809464 -0.25896633 0.101165056 -0.15779749 -0.16695286
-0.124196135 -0.002386153 0.0851984 -0.117886536 -0.1666453 -0.07725013 -0.025144804 0.048982058
0.2787178 0.02877234 -0.20117544 0.04266269 0.0156568 -0.03796514 0.06309893 0.015059505
-0.010735236 -0.18968683 -0.043636754 0.05537058 -0.100584395 0.13670741 0.09926425 -0.0466078
0.19186506 -0.24682748 -0.017884038 -0.09597241 -0.17661439 0.22848985 -0.018672785 0.107776634
0.36857438 0.05980377 0.031959526 0.05599137 -0.043539386 -0.10918675 0.34330934 0.30765668
-0.10619663 -0.0397271 0.07301502 0.18735301 0.09839279 0.46949986 0.27746785 0.046418883
-0.09268953 -0.21396685 0.34942505 0.23220733 -0.34817564 0.29983887 0.25494048 -0.12963729
0.10759669 0.23904543 -0.20954885 0.4153802 0.24660526 0.06987174 0.13687976 0.29356936
-0.07605155 0.06335313 -0.12979332 -0.07723452 -0.08908114 -0.0460965 -0.15099075 0.04995613
0.007601469 -0.06413856 0.013332867 -0.057581455 -0.0268086 0.27992812 -0.16914865 0.18173917
-0.10988438 0.08453947 -0.08973276 -0.20452057 0.32706994 0.024389882 -0.37625682 0.16720623
-0.045940544 -0.2006364 -0.20715277 -0.010604212 -0.10146813 -0.24537754 0.24769986 -0.34464115
0.274771 -0.186025 -0.29316533 0.102066666 -0.17501287 -0.30667192 -0.16115703 0.108950324
0.060511783 -0.3653855 0.07220146 -0.24541876 0.101875015 -0.030388545 -0.17778465 -0.04608341
0.05764952 0.06045607 0.09160353 0.13308834 0.024371268 0.06464685 0.06970331 -0.1574559
0.022163296 0.23798881 0.1707088 0.20605545 -0.012218034 0.10809492 0.047286145 -0.15421955
-0.043409448 -0.04931657 -0.19071051 0.009573193 0.20000634 -0.01726793 -0.10738058 0.05146049
-0.037899833 0.09913478 0.07768294 -0.1040098 -0.0370657 0.16788712 0.008325171 -0.07503587
0.45271203 -0.17936634 -0.004204885 0.08223644 -0.0902455 0.0017100369 0.05779879 -0.080084935
-0.001097343 0.25027195 -0.12267352 -0.012067936 0.23855583 -0.07252628 0.2533505 0.14686379
0.029190078 0.18918867 0.021582589 0.0046054926 -0.0930126 0.13930333 0.01899247 0.08862696
-0.07811361 0.033479273 0.09940738 0.05214482 -0.051042393 0.23912135 -0.080976635 -0.15605244
00000000: f679 c6bd 82ab 88be aadd 693d 3fa2 113d
00000010: a662 98bc 8ea0 313e 7f93 44bc 1308 64bd
00000020: 8c7f af3d 5821 0fbd 126c c4bd 81ad 403c
00000030: 790a 67bc ab8f 2abc 9468 113e 4a96 82bd
00000040: a52b 9c3e 9f29 003f 33bd 223e 6636 203e
00000050: f6af 843e ae12 3d3d f9f4 0e3e f5da ba3e
00000060: e20a 07bc c07a 693d 1315 8d3e e350 5c3e
00000070: 2563 aa3d 7978 173e cc0a 173e 61ae 2f3e
00000080: 038e cfbd e033 95be 47dd a13e 7809 d53e
00000090: 3cb5 d5bd 585f 303e edb8 23bc ee32 123d
000000a0: d6e6 01bc 37c0 6c3e 0b5a 59be a851 6f3e
000000b0: 19cb dd3e cc6b 0ebe 2e13 0d3e 9354 f8bd
000000c0: a51f fc3d 3e87 20bd 44e8 26bd fc06 2a3e
000000d0: 6619 2abe 827e a6bd 5135 bdbb 0f87 16be
000000e0: 7bf1 8fbd 4ab1 053e 8764 43bd 8f2a e13d
000000f0: 77a9 123c ffd0 8abd 1d8e acbd cb7d 303d
00000100: 629d bbbd 023f d53d 59d3 27be 7050 88be
00000110: 343c 9bbd 5eb5 0cbe 62c7 07be baff 6abd
00000120: 8de7 f1bc a3e4 fb3d b8db e8bd 50fa b93d
00000130: 3c97 84be a02f cf3d aa95 21be b1f5 2abe
00000140: 8b5a febd 0161 1cbb 807c ae3d 7f6e f1bd
00000150: 11a5 2abe 5135 9ebd 7afc cdbc 69a1 483d
00000160: 19b4 8e3e f8b3 eb3c ef00 4ebe 13bf 2e3d
00000170: b042 803c 5681 1bbd 033a 813d 24bc 763c
00000180: d8e2 2fbc 443d 42be 74bc 32bd 43cc 623d
00000190: 31ff cdbd 07fd 0b3e 0e4b cb3d d2e7 3ebd
000001a0: 4678 443e 58c0 7cbe 8c81 92bc 2f8d c4bd
000001b0: 67da 34be 3ef9 693e abf7 98bc ffb9 dc3d
000001c0: c8b5 bc3e ccf4 743d fee7 023d 3557 653d
000001d0: 5b56 32bd 4e9d dfbd 3ec6 af3e 2d85 9d3e
000001e0: 9e7d d9bd e2b8 22bd e688 953d 78d9 3f3e
000001f0: 2982 c93d 4962 f03e 4410 8e3e ba21 3e3d
00000200: 02d4 bdbd 201a 5bbe d7e7 b23e c2c7 6d3e
00000210: 1444 b2be 7b84 993e 8f87 823e a3bf 04be
00000220: a75b dc3d 53c8 743e f993 56be b7ac d43e
00000230: 1786 7c3e ea18 8f3d 352a 0c3e b94e 963e
00000240: eac0 9bbd 49bf 813d 8ae8 04be 222d 9ebd
00000250: 2c70 b6bd afcf 3cbd 529d 1abe cd9e 4c3d
00000260: be15 f93b 145b 83bd 1972 5a3c 88da 6bbd
00000270: b69d dbbc bd52 8f3e 4e35 2dbe d519 3a3e
00000280: 100b e1bd 0823 ad3d cfc5 b7bd d76d 51be
00000290: b675 a73e 4acd c73c bca4 c0be 1c38 2b3e
000002a0: 272c 3cbd a173 4dbe db1f 54be 4abd 2dbc
000002b0: 86ce cfbd 4044 7bbe 08a5 7d3e ce74 b0be
000002c0: c9ae 8c3e 567d 3ebe c419 96be 5408 d13d
000002d0: 9336 33be 1a04 9dbe 5906 25be 5921 df3d
000002e0: 34db 773d cf13 bbbe 5cde 933d 0e4f 7bbe
000002f0: d9a3 d03d 66f1 f8bc 2e0d 36be f5c1 3cbd
00000300: e721 6c3d c9a0 773d a29a bb3d 4f48 083e
00000310: 41a6 c73c 9165 843d 9cc0 8e3d 1f3c 21be
00000320: cd8f b53c 57b3 733e 4ace 2e3e 3300 533e
00000330: 262e 48bc df60 dd3d 1eaf 413d bbeb 1dbe
00000340: 1bce 31bd 2c00 4abd 9e49 43be e2d8 1c3c
00000350: 76ce 4c3e 7975 8dbc 59ea dbbd 3cc8 523d
00000360: db3c 1bbd 2d07 cb3d 3c18 9f3d 1703 d5bd
00000370: 34d2 17bd 9aea 2b3e 4c66 083c 68ac 99bd
00000380: dfc9 e73e cfab 37be 22c9 89bb 946b a83d
00000390: a2d2 b8bd 5123 e03a 6dbe 6c3d 9203 a4bd
000003a0: b9d4 8fba a523 803e 413c fbbd 98b8 45bc
000003b0: fb47 743e a988 94bd 28b7 813e 7663 163e
000003c0: 0820 ef3c adba 413e f8cd b03c ace9 963b
000003d0: 647d bebd 88a5 0e3e 1996 9b3c 0d82 b53d
000003e0: 07fa 9fbd 9021 093d 1996 cb3d cf95 553d
000003f0: d411 51bd 3adc 743e 14d7 a5bd 36cc 1fbe

update_module.0.bias f4 [32]
-0.005035479 -0.3507198 -0.026740616 -0.01183628 -0.3161993 0.04169659 0.021300124 0.011971403
-0.19398035 -0.24424396 0.003913883 -0.22598466 -0.013200024 -0.09529298 0.033235587 -0.024600621
0.00058072683 -0.014856801 0.01744795 -0.031402804 -0.031965245 0.0010907312 -0.011324015 0.0032170762
-0.019527538 -0.011534916 -0.022731198 -0.032082986 -0.016468273 -0.08554596 -0.060626674 -0.033561345
00000000: a900 a5bb 8c91 b3be 230f dbbc f5ec 41bc
00000010: e0e4 a1be 0bca 2a3d 997d ae3c b423 443c
00000020: c9a2 46be 171b 7abe 0840 803b 8668 67be
00000030: ea44 58bc f728 c3bd 0a22 083d 3e87 c9bc
00000040: eb3b 183a f169 73bc 01ef 8e3c 3aa0 00bd
00000050: fded 02bd def6 8e3a 5d88 39bc 95d5 523b
00000060: 37f8 9fbc f2fc 3cbc c736 babc 7369 03bd
00000070: 79e8 86bc b832 afbd ad53 78bd 9f77 09bd

update_module.2.weight f4 [16, 32, 1, 1]
-0.006103458 -0.12219055 0.13498597 0.19112901 -0.12875262 -0.00060071924 0.029183857 -0.033548605
-0.057502512 -0.12862244 -0.0551874 -0.11205827 0.09458247 -0.060910255 0.026719483 0.08103471
0.01546836 0.12297618 0.040283937 0.22704253 0.111666046 0.06631107 0.14298211 0.047073066
0.15364155 0.16780795 0.10638769 0.17451654 0.2018225 0.019149482 0.17075135 -0.14906271
-0.0077514173 -0.15188839 0.10846661 0.18591282 -0.13109162 -0.007534783 0.020238897 -0.02111956
-0.04235575 -0.112218544 -0.054936938 -0.1526026 0.1155092 -0.011285339 0.04320351 0.13104717
0.0015970066 0.0907234 0.040445376 0.19234265 0.116329014 0.053273592 0.16673279 0.08544655
0.13263251 0.16232595 0.08883843 0.13107288 0.158091 0.055205625 0.18366802 -0.12281392
-0.007162829 -0.15030287 0.10923801 0.18416587 -0.13250771 -0.005233327 0.02093646 -0.02342666
-0.03573818 -0.11415909 -0.05945596 -0.1639028 0.116000645 0.004349428 0.045896824 0.14026086
-0.0025597308 0.09841953 0.037940897 0.20830658 0.1272767 0.06682889 0.17652765 0.09126024
0.12530209 0.16059053 0.08519225 0.12126768 0.15420717 0.06284403 0.18513362 -0.1361964
-0.008074713 -0.18555814 0.22132558 0.20127998 -0.19708574 0.00162757 0.013817448 -0.012649533
-0.051328953 -0.16701804 -0.0628707 -0.18774211 0.16594887 -0.0107065365 0.037171666 0.067765325
0.07367116 0.19644645 0.047725737 0.25713858 -0.04052164 0.061415736 0.12474845 0.09423977
0.12243353 0.10924998 0.091369 0.19718264 0.20457648 0.20598345 0.2888219 -0.02975061
0.056063373 -0.034170654 -0.14912702 -0.014503706 0.039177615 -0.002311287 -0.01628818 0.08382309
-0.24854599 0.13465373 -0.2391415 0.0990144 0.29299915 -0.14725305 -0.15453422 -0.0828028
-0.21756512 -0.31207857 0.057532705 0.041819792 -0.089245915 0.55578595 0.13193202 -0.017658401
-0.12277744 0.15505737 0.23712483 0.07054122 -0.018239068 0.12949108 0.18784195 0.07741846
0.013490745 0.027415698 -0.096140325 -0.17952517 0.052352276 -0.039599758 0.010670549 0.019551914
-0.1363104 0.04536223 0.009526573 -0.08507222 -0.0009103323 0.18122672 -0.02181492 0.08977832
-0.027754527 -0.09251092 -0.13048251 0.442115 0.10990196 0.16907138 0.013113928 0.023779437
-0.029822959 0.110832594 0.089922026 -0.09373342 -0.06826094 0.14258988 -0.11289428 0.3399237
-0.12782848 0.21034443 -0.15848146 -0.050918218 0.07674975 0.046423726 -0.22929831 -0.055617258
0.14625393 0.017282898 0.012251716 -0.09315118 -0.0877764 0.09879796 0.08676868 0.062729254
-0.10141276 0.24324846 -0.14091453 0.15986876 -0.14724487 0.31497005 -0.006300348 0.05566936
-0.21179967 0.000933275 -0.14053468 -0.21540105 -0.024737269 -0.06334676 0.3156864 0.117693275
-0.12054169 0.17462622 0.02038052 0.12676251 0.07847314 -0.21981375 0.04400029 -0.12088689
0.19016138 -0.14066559 0.04640192 0.008944657 -0.15291308 0.22193637 0.12616393 0.2770591
0.01979518 0.19829103 -0.20173405 0.36235955 -0.0383666 -0.09231388 -0.09313246 0.09664537
0.0019691945 -0.042121317 -0.099765345 -0.19721667 0.14139389 -0.17322554 -0.14143078 -0.04686894
00000000: 84ff c7bb 0a3f fabd c339 0a3e 53b7 433e
00000010: bad7 03be 9679 1dba fc12 ef3c 436a 09bd
00000020: c187 6bbd 9ab5 03be 2f0c 62bd ce7e e5bd
00000030: 74b4 c13d 087d 79bd d1e2 da3c 87f5 a53d
00000040: 016f 7d3c efda fb3d c500 253d d67d 683e
00000050: 2bb1 e43d 19ce 873d e769 123e b0cf 403d
00000060: 3654 1d3e d9d5 2b3e cae1 d93d 77b4 323e
00000070: 8faa 4e3e 60df 9c3c 71d9 2e3e e5a3 18be
00000080: 9aff fdbb a188 1bbe be23 de3d ee5f 3e3e
00000090: e23c 06be 57e6 f6bb 0bcc a53c ed02 adbc
000000a0: 397d 2dbd d6d2 e5bd 8e05 61bd db43 1cbe
000000b0: 1690 ec3d 24e6 38bc 2af6 303d 3b31 063e
000000c0: a652 d13a 31cd b93d 0daa 253d 79f5 443e
000000d0: e83d ee3d 6935 5a3d 00bc 2a3e 9afe ae3d
000000e0: d1d0 073e c638 263e ecf0 b53d f837 063e
000000f0: 9be2 213e 4b1f 623d 7813 3c3e dd85 fbbd
00000100: 2ab6 eabb ffe8 19be 2eb8 df3d fa95 3c3e
00000110: 1ab0 07be 547c abbb f082 ab3c 44e9 bfbc
00000120: 3362 12bd 3ecc e9bd 1888 73bd 23d6 27be
00000130: bf91 ed3d a685 8e3b 4ffe 3b3d 8ba0 0f3e
00000140: 28c1 27bb 2e90 c93d ea67 1b3d 524e 553e
00000150: d354 023e 96dd 883d aac3 343e a6e6 ba3d
00000160: 314f 003e d871 243e 4679 ae3d 305b f83d
00000170: 7ce8 1d3e 5fb4 803d ab93 3d3e 1277 0bbe
00000180: cd4b 04bc f402 3ebe 2ca3 623e 571c 4e3e
00000190: d8d0 49be 3054 d53a 9462 623c fd3f 4fbc
000001a0: 4f3e 52bd c706 2bbe 5bc2 80bd 783f 40be
000001b0: 80ee 293e 786a 2fbc 5141 183d 8cc8 8a3d
000001c0: e8e0 963d 4229 493e 107c 433d aba7 833e
000001d0: 05fa 25bd 118f 7b3d 1e7c ff3d c800 c13d
000001e0: 6ebe fa3d 74be df3d ac1f bb3d 3fea 493e
000001f0: 7f7c 513e 53ed 523e 77e0 933e 8db7 f3bc
00000200: b5a2 653d 87f6 0bbd c1b4 18be f4a0 6dbc
00000210: b578 203d f678 17bb ca6e 85bc 71ab ab3d
00000220: d782 7ebe abe2 093e 82e1 74be 10c8 ca3d
00000230: fc03 963e 81c9 16be 383e 1ebe 8494 a9bd
00000240: 64c9 5ebe c3c8 9fbe 6aa7 6b3d 3b4b 2b3d
00000250: 90c6 b6bd fd47 0e3f 3019 073e 5aa8 90bc
00000260: bd72 fbbd 5cc7 1e3e dad0 723e ea77 903d
00000270: 196a 95bc 4f99 043e a459 403e 928d 9e3d
00000280: 4908 5d3c e396 e03c 38e5 c4bd 72d5 37be
00000290: 576f 563d 5b33 22bd 87d3 2e3c 562b a03c
000002a0: f494 0bbe bfcd 393d 5815 1c3c 583a aebd
000002b0: 5ea3 6eba 7f93 393e 34b5 b2bc b2dd b73d
000002c0: 765d e3bc 5d76 bdbd 359d 05be e65c e23e
000002d0: 4714 e13d 0c21 2d3e cddb 563c 18cd c23c
000002e0: 474f f4bc 33fc e23d 0a29 b83d 4ff7 bfbd
000002f0: 64cc 8bbd 1503 123e 1e35 e7bd 7b0a ae3e
00000300: 78e5 02be 8864 573e f748 22be 9f8f 50bd
00000310: f92e 9d3d ce26 3e3d 2dcd 6abe ecce 63bd
00000320: 97c3 153e dd94 8d3c 6cbb 483c 0cc6 bebd
00000330: 1dc4 b3bd 9656 ca3d c7b3 b13d 3278 803d
00000340: 7eb1 cfbd 2016 793e e64b 10be a3b4 233e
00000350: 5cc7 16be c143 a13e 2673 cebb 8e05 643d
00000360: 03e2 58be 06a7 743a 53e8 0fbe 1892 5cbe
00000370: d0a5 cabc f2bb 81bd a6a1 a13e 2c09 f13d
00000380: 90de f6bd 37d1 323e 0cf5 a63c 08ce 013e
00000390: 87b6 a03d db16 61be a639 343d 8c93 f7bd
000003a0: aab9 423e a40a 10be f10f 3e3d 9c8c 123c
000003b0: 3f95 1cbe 4a43 633e 1e31 013e b1da 8d3e
000003c0: 8029 a23c ce0c 4b3e 5f93 4ebe 3187 b93e
000003d0: 4c26 1dbd 0f0f bdbd 3bbc bebd 02ee c53d
000003e0: 9a0d 013b 6787 2cbd c651 ccbd 2bf3 49be
000003f0: 8fc9 103e 0962 31be 3bd3 10be a5f9 3fbd
