automata_ex/logs/withoutPool/9-RABBIT FACE-train_05-05-2022_16-07-21/models/model_12500.pt (torch, 9699 bytes, 3 tensors)

update_module.0.weight f4 [32, 48, 1, 1]
000000 12 b6 f3 bd d0 96 8e be f8 55 70 3d 26 08 87 3c
       -0.118999615 -0.27849436 0.058675736 0.016483378
000010 b4 05 d0 bc f2 ef 32 3e 69 37 10 bd 9a e9 77 bd
       -0.025393344 0.17474344 -0.035209093 -0.060525514
000020 d0 23 b6 3d 84 e6 d9 bc f9 fb f7 bd 06 9f a3 bc
       0.088935494 -0.026599176 -0.12108607 -0.01997329
000030 d7 a6 fa bb c5 9d 5b bc 99 2f 46 3e da 4f b6 3b
       -0.0076492834 -0.013404314 0.19354095 0.0055637183
000040 d4 74 9b 3e db f3 06 3f 33 85 2a 3e 47 6c f0 3d
       0.3036257 0.52715844 0.16652374 0.11739402
000050 96 c1 55 3e f2 47 7b 3d 9e e6 06 3e 44 33 b3 3e
       0.20874628 0.06134791 0.13173911 0.3500005
000060 10 42 d3 bc 0f 5e 8a 3d 1b 3c 86 3e 21 f4 4a 3e
       -0.025788337 0.067562215 0.26217732 0.1981969
000070 cb 10 02 bd 6c 39 f8 3d 61 c5 06 3e a3 fb 4a 3e
       -0.031754296 0.12120327 0.13161232 0.19822554
000080 d7 34 4a be 56 04 af be 84 24 aa 3e b1 85 c7 3e
       -0.1974672 -0.34182996 0.33230984 0.38969186
000090 e0 4c fd bd f9 20 0f 3e 9a 78 98 3a 60 6c 3f 3d
       -0.12368178 0.13977422 0.0011632622 0.046734214
0000a0 87 cb 36 bd cd 23 54 3e 05 5a 86 be c2 29 71 3e
       -0.044627693 0.20716782 -0.26240554 0.23551086
0000b0 27 4d f6 3e 81 8c 12 be 84 ac ac 3d 05 4c 1c be
       0.48105738 -0.1431141 0.08431342 -0.15263374
0000c0 57 5f f3 3d 1a 83 52 bd b3 c0 f6 bc 3a 47 2d 3e
       0.11883419 -0.05139456 -0.030121183 0.16921702
0000d0 1b d4 34 be 8c 72 9d bd f9 3b 7f 3b b5 ba 1c be
       -0.17659037 -0.07687864 0.0038945659 -0.15305598
0000e0 b8 09 8e bd fa fc 03 3e cb 5f 2a bd d3 11 e3 3d
       -0.069354475 0.12889472 -0.04159526 0.11087384
0000f0 da e8 68 3b fa eb 90 bd 43 ab a7 bd 49 b5 1c 3d
       0.003553918 -0.07076259 -0.081869625 0.038258824
000100 83 d7 db bd 11 41 b6 3d a0 87 22 be 39 92 9c be
       -0.10734465 0.08899129 -0.1587205 -0.3058031
000110 e3 1c ad bd 24 3e 10 be 2d f3 04 be 7a 7f a7 bd
       -0.08452775 -0.14086205 -0.12983389 -0.08178611
000120 91 59 64 bd 52 aa d0 3d 5f 7b ce bd 22 14 bb 3d
       -0.05574948 0.10188736 -0.10082125 0.091346994
000130 47 b6 91 be 34 57 cd 3d b5 dd 2e be e5 72 0e be
       -0.2845938 0.10026398 -0.17076762 -0.13911016
000140 9b 50 d3 bd 2f 0d 51 bc b5 6c 93 3d 99 86 fe bd
       -0.10318109 -0.012759491 0.071984686 -0.12428016
000150 d4 d4 45 be 90 56 06 bd ab 68 21 bd f2 2e 5d 3d
       -0.19319469 -0.032797396 -0.03940646 0.05399985
000160 c2 85 8c 3e e4 71 0d 3d c0 d8 56 be c3 33 6d 3d
       0.274458 0.034532443 -0.20981121 0.057910692
000170 27 b4 11 3d 52 24 03 bd 6d 27 c6 3d 56 3c fe bb
       0.035572197 -0.03201706 0.096754886 -0.0077586574
000180 39 c5 0f bc 90 a9 45 be 0d 42 57 bd cc c7 6d 3d
       -0.008775049 -0.19302964 -0.052553225 0.05805187
000190 db 92 f3 bd b5 bd 11 3e 10 cd ce 3d 3d 43 83 bd
       -0.11893245 0.14232524 0.10097706 -0.06409309
0001a0 0c df 4b 3e eb 95 98 be 7c ca bb bc 79 81 f0 bd
       0.19909304 -0.29801878 -0.0229237 -0.11743445
0001b0 6b 57 1d be eb 48 6a 3e 76 63 1e 3d 9d 59 12 3e
       -0.15365379 0.22879378 0.038669072 0.14291997
0001c0 d5 ee c1 3e 98 d8 d4 3d 2a e6 43 3b 6c df 2f 3d
       0.37877527 0.103928745 0.0029891827 0.04293768
0001d0 ae ff f4 bd a7 31 09 be cf 52 9f 3e 5a 58 a5 3e
       -0.119628295 -0.13397847 0.31117865 0.3229397
0001e0 db ac 22 be 5c 55 04 be 27 10 35 3d ef 84 65 3e
       -0.15886252 -0.12923187 0.044204857 0.22413991
0001f0 33 31 b1 3d 4d 5e f8 3e 08 c0 92 3e d4 1c fd 3a
       0.08651962 0.48509446 0.28662133 0.001931096
000200 8a 89 7c bd b2 4e 44 be 39 76 ce 3e 64 db 84 3e
       -0.061654605 -0.19170645 0.40324572 0.25948632
000210 2b ae b2 be 21 48 8f 3e db 23 9c 3e 94 a5 29 be
       -0.34898505 0.27984717 0.30496106 -0.1656707
000220 05 4c c9 3d c0 1a 8b 3e a1 35 42 be 4e 34 e9 3e
       0.09828953 0.27168846 -0.1896577 0.45547718
000230 76 25 7f 3e 95 ec a7 3d 24 13 42 3e 0b 33 9f 3e
       0.24916634 0.08199421 0.18952614 0.3109363
000240 b8 b2 cb bd 89 62 97 3d 0d 82 0d be f6 30 c4 bd
       -0.09946197 0.07391841 -0.13819142 -0.09579651
000250 c4 54 a9 bd c6 af 4f bd e7 cc 2c be 6a 88 56 3d
       -0.08268121 -0.05070474 -0.16875039 0.05237619
000260 e7 a9 dc 3b 42 2b 8d bd a1 7b d4 3c 95 8c 78 bd
       0.006734121 -0.068930164 0.025937857 -0.060680944
000270 67 81 bd 3b 20 15 a1 3e 29 da 37 be b0 d6 4a 3e
       0.005783248 0.3146143 -0.17954315 0.1980846
000280 6d d8 07 be a4 82 91 3d b9 38 b7 bd cc a2 75 be
       -0.13266154 0.07104996 -0.08946366 -0.23987883
000290 ea 3d c4 3e 1a 28 2b 3b ed 5c cb be 33 07 52 3e
       0.38328487 0.0026116432 -0.39719334 0.20510559
0002a0 af 91 71 bd 6f 62 4c be bc 31 2f be c7 6f 82 bc
       -0.058976825 -0.19959424 -0.17108816 -0.01592244
0002b0 83 43 9c bd 19 26 7c be aa 68 81 3e d1 75 b7 be
       -0.07630064 -0.24623908 0.25275165 -0.35832074
0002c0 20 49 9c 3e 4f 4d 3f be d0 67 a1 be 9d 07 fd 3d
       0.3052454 -0.18681835 -0.31524515 0.12354968
0002d0 de 0f 3c be 55 58 a0 be f7 71 1e be f8 70 f4 3d
       -0.18365428 -0.31317392 -0.15473162 0.119356096
0002e0 c0 43 aa 3d 59 1d d2 be 18 bd 59 3d d5 d6 80 be
       0.083137035 -0.41038015 0.05315885 -0.25163904
0002f0 30 05 01 3e a9 3a ff bc 53 4a 2e be c2 64 75 bb
       0.12599635 -0.031155901 -0.1702054 -0.003744409
000300 71 f8 6a 3d 63 0d 71 3d ff 0a bf 3d a6 0a 0e 3e
       0.05736584 0.058850657 0.09328269 0.1387125
000310 b9 e6 a5 3c d7 30 97 3d b5 b7 a6 3d be ab 1e be
       0.020251619 0.07382362 0.08140508 -0.15495202
000320 c6 66 09 3d 19 48 71 3e 7e 19 33 3e 4f 24 48 3e
       0.033545278 0.2356266 0.17490193 0.195451
000330 c8 39 12 bd a7 86 e0 3d 4e 8c 5d 3d 6e b0 2f be
       -0.035699636 0.10963183 0.054088883 -0.17157146
000340 0f 1a 1a bd a8 04 04 bd 4e 08 6f be db f1 95 3b
       -0.037622508 -0.032231003 -0.23343012 0.0045759506
000350 22 52 51 3e a2 40 0e bd b2 9a f0 bd 75 78 3a 3d
       0.20441487 -0.034729607 -0.11748256 0.045525033
000360 3b 3e 2f bd aa 38 ac 3d 4e 56 94 3d 72 1f e6 bd
       -0.042783957 0.08409245 0.07243024 -0.112364665
000370 6d 54 b1 bc 84 73 2e 3e 4a d3 e2 bb 60 56 8b bd
       -0.021646703 0.17036253 -0.0069221603 -0.06803584
000380 5e 37 00 3f a2 13 36 be f2 0a c6 bc 21 5f 94 3d
       0.50084484 -0.17780927 -0.024175141 0.07244707
000390 04 9f df bd e6 92 88 bc c1 95 82 3d 40 1f 4c bd
       -0.10919002 -0.01667161 0.063762195 -0.04983449
0003a0 fa 37 ba 3c b2 0e 9f 3e 2b 5a 16 be 1b f8 a1 bc
       0.02273177 0.310659 -0.14682834 -0.019771626
0003b0 c1 c8 52 3e 4b 86 ab bd 4b 52 84 3e 15 7f 1c 3e
       0.20584394 -0.08375224 0.25844035 0.15282853
0003c0 2e 9a 35 bc d4 03 44 3e f9 2a 17 3d db 1b c2 bc
       -0.011084123 0.19142085 0.036906216 -0.023694923
0003d0 29 39 d5 bd fe 96 0d 3e 04 98 57 bc 47 e6 93 3d
       -0.10411293 0.1382713 -0.013158802 0.07221656
0003e0 b5 6e ab bd b7 9a e2 3c 6c 46 06 3e da 57 7c 3d
       -0.08370725 0.027661664 0.13112801 0.06160722
0003f0 f5 a9 02 bd c1 62 61 3e ce 35 93 bd 2d f4 31 be
       -0.031900365 0.22010328 -0.07187997 -0.17378302

update_module.0.bias f4 [32]
000000 e5 44 53 bb bb 61 bf be e2 ff 1d bd d5 81 5f bc
       -0.003223711 -0.3737925 -0.038574107 -0.013641794
000010 ec 9e ad be 14 40 dc 3c 75 bb 8a 3c 61 e9 34 3b
       -0.3391031 0.026886024 0.01693509 0.0027604925
000020 14 5b 6a be 9b b4 85 be 97 e8 95 3b 6f 67 76 be
       -0.22886306 -0.26114354 0.004574846 -0.24062894
000030 60 b9 bb bc 88 3a ea bd 79 41 b3 3c 14 90 99 bc
       -0.022915542 -0.11436945 0.021881806 -0.01874546
000040 18 cc d5 bb 3b 31 d7 bc e8 9e 1c 3c 8a 12 22 bd
       -0.006524574 -0.026268592 0.009559371 -0.03956846
000050 23 63 12 bd e1 3f 07 3b 0c df 6c bc 82 79 33 ba
       -0.035739075 0.002063744 -0.014457475 -0.0006846414
000060 b3 a9 ca bc 1b d2 7b bc bc dd b3 bc 4a b2 09 bd
       -0.024739122 -0.015369917 -0.021956317 -0.033617295
000070 84 05 60 bc 5d 75 b9 bd ec 0b 80 bd 87 f6 21 bd
       -0.01367319 -0.090555884 -0.06252274 -0.039541747

update_module.2.weight f4 [16, 32, 1, 1]
000000 d4 5c 85 bb 02 47 20 be ff b0 1b 3e 8e ad 50 3e
       -0.004069904 -0.15652087 0.15204237 0.20378706
000010 ad 48 16 be e5 61 de 3b c0 2b 2d 3d d3 4e 48 bd
       -0.14676161 0.0067865723 0.04227805 -0.048903298
000020 06 08 82 bd ca d2 0e be 74 be 72 bd b3 08 e7 bd
       -0.063491866 -0.13947597 -0.05926366 -0.11280956
000030 3f 0e cc 3d aa 5e 9f bd 65 da eb 3c 0f d2 a9 3d
       0.09963655 -0.077817276 0.028790662 0.082920186
000040 cf bd ab 3c 9e d4 09 3e 0c 7e 3f 3d e7 61 7f 3e
       0.020964531 0.13460013 0.046751067 0.2493969
000050 4d 42 fd 3d a2 6a 84 3d af ea 2f 3e 65 af 5b 3d
       0.123661615 0.06465651 0.17179368 0.053634066
000060 b2 f2 39 3e 1b 1c 43 3e ff 6d e5 3d 87 ae 48 3e
       0.18158987 0.1905369 0.11202621 0.19597827
000070 4d 3e 6c 3e 6b fd bb 3c 1e 8a 35 3e a7 62 27 be
       0.23070641 0.022947988 0.17728469 -0.16346227
000080 40 31 ef bb d8 da 31 be c4 19 02 3e cf c0 4b 3e
       -0.007299572 -0.17368639 0.12705141 0.1989777
000090 10 c9 18 be 76 c0 ac ba 5a 56 fd 3c 99 5c 07 bd
       -0.1492045 -0.0013179916 0.030924965 -0.033047292
0000a0 42 14 3d bd 73 bd f7 bd 26 c7 67 bd 62 91 24 be
       -0.046161897 -0.120966814 -0.056586407 -0.16071084
0000b0 f8 91 fe 3d 2a 0b d5 bc fd 95 3f 3d 0a fd 1a 3e
       0.12430185 -0.0260063 0.0467739 0.15135589
0000c0 f0 10 44 bb f3 34 c8 3d 77 a5 4b 3d a1 c0 51 3e
       -0.0029917322 0.09775724 0.049718346 0.20483638
0000d0 9c 0c fe 3d 5c 50 3f 3d f7 3f 4c 3e 64 72 bf 3d
       0.12404749 0.046707496 0.19946276 0.0934799
0000e0 49 29 24 3e 78 27 45 3e b5 72 b8 3d cf 25 15 3e
       0.16031374 0.19253337 0.09006254 0.14565204
0000f0 cb 3b 2a 3e 33 3c 67 3d 0e d3 43 3e a5 42 07 be
       0.16624372 0.056453895 0.1912348 -0.13209017
000100 f3 5e 18 bc 1d fd 2e be 2e 2a 03 3e 10 ab 46 3e
       -0.009299981 -0.17088743 0.12809059 0.19401193
000110 ad 7e 1c be 2c 09 5f 3b c1 e7 fa 3c 90 02 0e bd
       -0.15282698 0.0034032566 0.030628087 -0.034670413
000120 29 59 1e bd 93 12 fc bd 88 0c 81 bd ee f6 31 be
       -0.03865925 -0.1230823 -0.06301218 -0.17379352
000130 f1 fd fe 3d 0a 74 21 bc 49 df 55 3d 98 9b 24 3e
       0.12450779 -0.009854326 0.052214894 0.1607498
000140 32 7d ed bb de 9b dc 3d 9b 2b 41 3d 46 f2 5f 3e
       -0.0072475905 0.10771917 0.047160726 0.21869764
000150 ea 14 09 3e 4b 32 6e 3d 8a 05 55 3e c8 ac cc 3d
       0.13386884 0.05815343 0.20802894 0.09993893
000160 0c 0a 1e 3e 91 8b 42 3e 42 dc b2 3d 8f 11 0a 3e
       0.1543352 0.18998553 0.08733417 0.1348326
000170 e3 94 27 3e d4 a8 7a 3d 88 e9 46 3e 14 1c 18 be
       0.1636539 0.061196163 0.19425023 -0.14854461
000180 69 11 0b bc 7e ad 60 be 91 06 77 3e 36 9b 55 3e
       -0.008488038 -0.21941182 0.24123599 0.2085999
000190 ad ad 58 be aa 16 2e 3c 11 1f a2 3c af 4f 97 bc
       -0.21160002 0.010625521 0.019790204 -0.018470613
0001a0 58 c5 85 bd 3c 11 3b be 37 80 81 bd 16 a3 57 be
       -0.06531781 -0.18268293 -0.06323283 -0.21058306
0001b0 f8 00 31 3e c1 ca 84 3a ef e0 2e 3d 07 5c a2 3d
       0.17285526 0.0010131226 0.042694982 0.07927709
0001c0 b2 f9 ad 3d 6a f8 5e 3e 3f 6a 69 3d 09 59 8f 3e
       0.08494891 0.2177445 0.05698609 0.27997616
0001d0 41 b0 64 bd d2 c0 88 3d 32 3d 19 3e 88 88 d7 3d
       -0.05583215 0.066774026 0.1496475 0.10524088
0001e0 5e 3e 1c 3e e4 28 04 3e 29 94 d6 3d be f3 5b 3e
       0.15258166 0.12906224 0.10477478 0.21479699
0001f0 09 40 67 3e 61 6b 69 3e 60 8c 9f 3e 4d 14 43 bd
       0.22583021 0.22794868 0.31161785 -0.047626782
000200 b5 f5 93 3d 2d dd c9 bc 0a d3 23 be d1 4a 5b bd
       0.07224599 -0.024641598 -0.15998474 -0.053538147
000210 fe d5 08 3d 91 18 8d bc a2 c0 c4 bb 9a 76 a8 3d
       0.033407204 -0.017223628 -0.006004409 0.082257465
000220 78 38 92 be c8 69 16 3e 72 a3 80 be 28 9d d7 3d
       -0.28558707 0.1468879 -0.251247 0.10528022
000230 bc a0 a5 3e d4 c4 26 be a6 a1 0a be 9c da 00 be
       0.32349193 -0.16286021 -0.13538226 -0.12583393
000240 bb b2 66 be 95 47 a9 be 5d 42 71 3d 78 f7 a0 3c
       -0.22529118 -0.33062425 0.05890118 0.019649252
000250 95 59 00 be 88 7a 0e 3f b6 8a f9 3d 5d 82 8a bb
       -0.12534173 0.5565572 0.1218466 -0.0042269663
000260 c8 31 8a bd ba ca 1f 3e 0a 6c 73 3e 38 3b df 3c
       -0.06747776 0.15604678 0.23771682 0.027249917
000270 bd ab 86 bc 2d 8c 0f 3e 5a af 3d 3e ae c3 3c 3e
       -0.016439313 0.14018317 0.18523923 0.18434021
000280 c7 65 8c 3c bb 55 09 3d ee d3 0a be 38 41 45 be
       0.017138375 0.033529025 -0.13557407 -0.1926316
000290 91 94 8d 3d 7f cc 28 bd 85 36 d6 3c e9 9b dd 3c
       0.069131024 -0.041210648 0.026149044 0.027051883
0002a0 00 7b 10 be 36 88 1b 3d a4 13 ec 3b 2d 2e d3 bd
       -0.14109421 0.037971698 0.00720449 -0.10311542
0002b0 99 99 74 bb 1a c5 5a 3e 9a fe 27 bd 29 0f 29 3e
       -0.0037322997 0.21364251 -0.04101429 0.1650969
0002c0 8a bf fe bc 73 a7 fa bd 58 b6 0d be 65 a1 f5 3e
       -0.031097192 -0.1223897 -0.1383909 0.47974697
0002d0 71 30 d6 3d f5 52 47 3e 38 89 09 3d 1b 1b 31 3d
       0.10458458 0.1946524 0.033578128 0.04323874
0002e0 3f 35 4d bd dc 15 d0 3d 33 e8 c7 3d 32 cb fa bd
       -0.050099608 0.10160419 0.09761085 -0.12245788
0002f0 dd 45 ed bd e1 cd 5d 3e 7c 38 df bd 94 d8 cc 3e
       -0.11585591 0.21660568 -0.108994454 0.40008986
000300 af 31 31 be 3b 88 55 3e 26 e4 ca bd f8 27 83 bd
       -0.17304109 0.20852749 -0.09906797 -0.06404108
000310 3c 59 ae 3d 57 3c 3a 3d 84 01 9a be 10 0a 4b bd
       0.08513114 0.0454677 -0.3007928 -0.049570143
000320 51 02 2b 3e df ca 88 3c d8 b2 f3 3a 3e ce dd bd
       0.16700102 0.016698299 0.0018592728 -0.10830353
000330 cb 80 af bd ee 5b 02 3e f7 9b f3 3d 77 8a 84 3d
       -0.08569487 0.12730381 0.11894982 0.064717226
000340 b1 41 eb bd 8b 80 85 3e 8e 50 40 be 34 cf 07 3e
       -0.11487139 0.26074633 -0.18780729 0.13262635
000350 f5 f2 31 be e9 3a a0 3e 3d 0a 0c 3d e9 00 a6 3d
       -0.17377837 0.31294945 0.03418945 0.08105642
000360 b9 bc 78 be 11 0b 07 3c 5c 6d 15 be c1 03 57 be
       -0.24290742 0.0082423845 -0.14592499 -0.20997526
000370 95 69 4c ba d6 19 91 bd fa bd ab 3e fb bf 09 3e
       -0.00077977154 -0.07085006 0.33543378 0.13452141
000380 cc 19 39 be b1 d1 24 3e aa cd 8a 3d 8e 66 18 3e
       -0.18076247 0.16095616 0.067775086 0.14882872
000390 da 9b ca 3d 33 5f 8b be ed b8 8d 3d b2 2b 04 be
       0.098930076 -0.2722107 0.069200374 -0.12907293
0003a0 c5 19 4c 3e da c9 13 be f9 fa 89 3d db 30 5f 3b
       0.19931705 -0.14432469 0.06737322 0.003405622
0003b0 79 b5 40 be 02 10 41 3e bf 39 db 3d db ce a2 3e
       -0.18819226 0.18853763 0.107043736 0.31798443
0003c0 d0 b0 35 3d 32 39 46 3e 3d d2 49 be df bb b2 3e
       0.044358075 0.19357756 -0.19709106 0.3490896
0003d0 d2 e7 11 bd e9 7d c0 bd a7 14 ab bd af cf f0 3d
       -0.03562147 -0.093990155 -0.083535485 0.117583625
0003e0 9d d8 1b bc 57 fa a4 bc 41 f2 db bd 35 bb 4d be
       -0.009512094 -0.020138903 -0.10739566 -0.20090945
0003f0 58 ad 14 3e 69 ea 45 be 16 d1 0c be 4e c7 90 bd
       0.1451925 -0.19327702 -0.13751635 -0.07069264
