automata_ex/logs/withoutPool/9-RABBIT FACE-train_05-05-2022_16-07-21/models/model_19500.pt (torch, 9699 bytes, 3 tensors)

update_module.0.weight f4 [32, 48, 1, 1]
00000000: a8c0 14be 530d 88be 1151 9c3d b0b8 bcbc
00000010: 1207 abbc 3cc9 283e 7424 9fbd 7fc4 55bd
00000020: c39e ab3d 2907 2bbb 0ba7 03be 8035 dbbd
00000030: b92f 1abd 15a1 c7bc aed6 113e 127a 4a3d
00000040: 35d0 723e 0acb 093f 88aa 623e b06b e33c
00000050: 1cd0 1b3e ed80 883d 8d21 653e efcb a23e
00000060: 8741 58bd f251 d23d caa8 343e 4336 563e
00000070: cf65 29be 9d34 ae3d 2e69 fa3d 9cc5 363e
00000080: 2dc5 abbe c854 ccbe 791f c03e 10f4 963e
00000090: 80d2 32be 78cc c53d 58c8 b53d 5117 ab3d
000000a0: 2ab7 2dbe f375 683d a594 98be c9d6 783e
000000b0: c182 0b3f e05c 15be 5a45 0f3d 3910 55be
000000c0: 2992 f73d b198 77bd 332e 1fbd 5b0e 363e
000000d0: 6219 3abe b409 aabd bcaf 9f3c 511c 15be
000000e0: 372d b3bd cb2d 083e 5c36 dfbc ce0f ba3d
000000f0: 0271 f7bb c8b3 c0bd 59b1 89bd 6968 4e3c
00000100: 23a4 1bbe cb9c 4c3d eed3 12be 30ef aebe
00000110: d784 c0bd 82f6 17be a84e 1dbe dce9 eebd
00000120: 9868 06be 0dca bc3d a563 d9bd e623 dc3d
00000130: 09b7 9abe d2ee 963d 999f 5fbe 81bf 8fbd
00000140: 20c8 e0bd 222c 48bd b0b9 ba3d 8662 15be
00000150: 4cbf 66be 319b 3c3d 184b 96bd bf1f 2b3d
00000160: 5b39 7d3e 2857 a63c f4d6 66be e9a1 503d
00000170: c05b 5d3d 0ebc e2bc 345d e23d ea14 00bd
00000180: e136 f63b b90b 28be cb81 93bd b2b4 923d
00000190: 2201 e6bd 72b7 173e f2f7 dd3d 14ba 5dbd
000001a0: 696b 593e 7406 ccbe 2a3d 0dbd b0a2 f1bd
000001b0: 6721 52be 0dd1 873e 6486 0b3e 081b 313e
000001c0: d231 d53e a04c fe3d 195d adbd c99f ccbb
000001d0: a516 eabd 6cad 8abe 06f1 843e 7f09 b23e
000001e0: 22e1 48be 1440 20be 2a29 22bc 365c 8c3e
000001f0: 820b 9f3d 20a4 ff3e b668 a63e 97c9 893c
00000200: af89 e1bd 0cbf 0ebd 2210 eb3e 70a0 a93e
00000210: 1873 aebe 93ae 8c3e 8bd3 a03e f0a1 24be
00000220: db01 a83d 69c3 c23e cf11 5cbe 9471 ef3e
00000230: 3b3d 693e 6e32 23bd 4abb 5e3e efcd 933e
00000240: a9f7 03be 11c1 af3d af24 22be f9b2 fdbd
00000250: fd9b a3bd f179 90bd 55e6 3fbe 39d2 453d
00000260: 9fdd bbbb 330c 91bd 5e8c 353d 033d 82bd
00000270: bade 9b3d 0174 c63e fbc8 6abe 64f7 613e
00000280: 1b7b 2ebe d328 603d 10e1 a7bd 85cc 8ebe
00000290: 5f4c f43e 344f 9cbc a4e6 eabe 8d4d 8a3e
000002a0: 01c3 b5bd d8f9 26be 534d f6bd 1c97 50bd
000002b0: dcde 76bd cb00 98be 42d2 883e 01df bdbe
000002c0: df5d a33e 1623 74be 364d a9be e006 573d
000002d0: b2c2 47be 0de2 adbe 5651 40be 58d0 f63d
000002e0: 87e2 053e e9e3 e1be 1b65 103d a32a 7fbe
000002f0: 852f 533e 4d67 84bc 3e44 02be 445b fd3c
00000300: a2df 7d3d dff2 353d 0b1d c43d dffb 173e
00000310: ecab 823a c5f8 c33d e3e4 c63d f6a5 22be
00000320: 451b 593d 2f83 743e ddc0 373e 554e 433e
00000330: 45d2 acbd 6584 ce3d 9181 a43d 9adc 80be
00000340: f2a4 81bd 258c 973b 3609 9cbe 902d 303d
00000350: 623c 663e eb10 33bd 82dd dbbd f5f2 dd3c
00000360: 4fe7 6fbd e15b 643d a659 a13d ace8 15be
00000370: 880e 98bb 67b3 3e3e ee58 dabc 5b9d 3bbd
00000380: ab1a 093f ce85 27be c646 8fbd 851d 3c3d
00000390: d514 f2bd 38cb 56bd 7a68 6d3d 11f7 6abc
000003a0: dfe6 a53d 21bf b13e 3031 4ebe 8a74 bfbc
000003b0: 1eab 073e af02 f6bd 537a 8c3e d62f 083e
000003c0: f092 98bd 76c9 553e bb5d 883d cb8d 82bd
000003d0: a169 e0bd 1f4b 1c3e 94fd 78bd f613 5c3d
000003e0: a411 87bd 759a ae3c 8aae 163e f50b 5d3d
000003f0: e6d2 aabd 6fee 2b3e 3ef1 04bd 3aab 1bbe
-0.14526618 -0.26572666 0.0763265 -0.023037285 -0.020877395 0.16483015 -0.07770625 -0.052189346
0.08379891 -0.0026096797 -0.1285669 -0.10703564 -0.037643168 -0.024368802 0.1424205 0.04943282
0.23712237 0.5382544 0.22135365 0.02776131 0.15216106 0.06665216 0.2237608 0.31796214
-0.052796867 0.10269536 0.17642513 0.20919137 -0.16542743 0.08506129 0.12227093 0.1784882
-0.3354887 -0.39908433 0.37524012 0.2948308 -0.17463112 0.0965814 0.08876103 0.083540566
-0.16964403 0.05675311 -0.29800907 0.24300684 0.5449639 -0.1458621 0.03497825 -0.2080697
0.12088425 -0.060448352 -0.03886242 0.17778914 -0.18173745 -0.08302632 0.019492976 -0.14561583
-0.087488584 0.13298719 -0.0272476 0.09085046 -0.0075513134 -0.094092906 -0.067232795 0.0125981355
-0.15199332 0.049954217 -0.14338657 -0.3416686 -0.09400337 -0.14840129 -0.15362036 -0.11665699
-0.13125837 0.09218226 -0.10614709 0.107490346 -0.3021777 0.0736977 -0.21838225 -0.07018948
-0.10975671 -0.048870213 0.09117448 -0.14588365 -0.22533911 0.04604644 -0.07338542 0.041778322
0.2472891 0.020305231 -0.22542936 0.05093566 0.054042578 -0.027677562 0.11052933 -0.031269945
0.0075138663 -0.16410722 -0.072024904 0.07163371 -0.11230685 0.14816073 0.108383074 -0.054132536
0.2123238 -0.39848673 -0.03448216 -0.11798608 -0.20520554 0.2652668 0.13625485 0.17295468
0.41639572 0.12416959 -0.084650226 -0.006244634 -0.114301 -0.27085435 0.25965136 0.3477287
-0.19617131 -0.15649444 -0.00989751 0.274141 0.07765867 0.49929905 0.32501763 0.016819758
-0.11012589 -0.034850165 0.45910746 0.33130217 -0.34072185 0.2747694 0.31411394 -0.16077399
0.08203479 0.3803971 -0.21491168 0.4676634 0.22777264 -0.039843015 0.21751133 0.28868052
-0.12887444 0.08581746 -0.15834306 -0.12387652 -0.07988737 -0.070545085 -0.18740208 0.048296187
-0.0057332064 -0.07082405 0.044323318 -0.06359293 0.07610841 0.3876038 -0.2292823 0.22067028
-0.17039149 0.054726433 -0.08197224 -0.2789041 0.47714517 -0.019080736 -0.4587909 0.27012292
-0.08875085 -0.16306245 -0.12026467 -0.05092536 -0.06027113 -0.29688105 0.26722914 -0.370842
0.31907555 -0.23841509 -0.3306672 0.05249679 -0.19507864 -0.33961526 -0.18781027 0.12051457
0.13074695 -0.44119194 0.03525267 -0.24918608 0.20623596 -0.016162539 -0.12721345 0.030927308
0.06198085 0.044421073 0.09575852 0.14842175 0.000996945 0.095689334 0.097116254 -0.15883622
0.053004522 0.23878168 0.17944665 0.1907285 -0.08438543 0.10083846 0.08032525 -0.25168306
-0.06330289 0.004624861 -0.30475777 0.0430122 0.22483972 -0.043717306 -0.10735609 0.02709339
-0.058570202 0.055751685 0.07878427 -0.14639539 -0.004640404 0.18623124 -0.026653733 -0.045804363
0.5355632 -0.16359636 -0.06995921 0.04592659 -0.1182038 -0.0524399 0.057960965 -0.014341132
0.08100676 0.34716132 -0.20135951 -0.023371 0.1324887 -0.120122306 0.27437076 0.13299498
-0.07449901 0.20877632 0.06658503 -0.06374701 -0.10957647 0.15263031 -0.060788706 0.053729974
-0.065951616 0.021313885 0.14715019 0.05396648 -0.08341007 0.16790174 -0.03245663 -0.15202036

update_module.0.bias f4 [32]
00000000: 31aa ebba 402f d8be 053e 4cbd 5e98 87bc
00000010: af4a c1be 108d 553c 1d3d 593c aef6 f1bb
00000020: e035 92be 5355 98be f483 9f3a e04f 70be
00000030: d8ef d2bc 4481 fcbd 6432 3b3c 40de 35bc
00000040: c57c 36bc f159 1ebd d63c 1e3b b964 4cbd
00000050: 17d9 1dbd 0a3b 443b 183a c1bc 8627 69bb
00000060: 6d43 1cbd 1916 13bc 7e3a 9bbc 765f 28bd
00000070: 66ca 4dbc 11a1 d8bd 8f37 76bd c37a 37bd
-0.0017979798 -0.4222355 -0.049863834 -0.016552147 -0.37752292 0.01303412 0.013259199 -0.007384143
-0.28556728 -0.29752597 0.0012170062 -0.2346797 -0.025749132 -0.12329343 0.011425588 -0.011100352
-0.011138146 -0.038659994 0.0024145148 -0.049900744 -0.03853711 0.0029942417 -0.023587272 -0.0035576536
-0.03815024 -0.008977436 -0.01894879 -0.041106664 -0.012560463 -0.10577596 -0.06011158 -0.04479481

update_module.2.weight f4 [16, 32, 1, 1]
00000000: 1036 bc3b 8469 60be 67b4 313e 3082 6c3e
00000010: 0474 2fbe 1c76 5c3c db18 6a3d dc23 8ebd
00000020: 0f4e b7bd 46b7 23be 3ed3 9bbd 11c1 e6bd
00000030: df49 ba3d 772f b4bd cc75 f83c d628 9c3d
00000040: f745 f43c ea81 153e 4446 4e3d 0cb3 983e
00000050: 6eed 0d3e 6ef9 893d 03dd 4d3e 79f8 893d
00000060: 784d 663e 41cb 6c3e 2c63 ef3d 9013 6c3e
00000070: 5780 863e df4e b83c 7531 3a3e 62d6 5cbe
00000080: d90c 4dbb 3438 61be 6b40 193e d6d8 5d3e
00000090: e4d9 34be 6237 4d3b 5cae 383d a883 46bd
000000a0: 429b 80bd 3c40 09be 98b9 8fbd 84d0 1fbe
000000b0: 0ab3 023e 6d51 07bd d94d 5f3d 7d49 403e
000000c0: 008b 41bc b1a3 e13d 0a2d 523d eb53 683e
000000d0: db7d 0d3e b07c 113d eacb 743e 3519 d63d
000000e0: 0301 523e b636 703e ca98 aa3d 1036 313e
000000f0: e7d8 3d3e 3d2a 5d3d 1d39 523e 0f6e 3bbe
00000100: fe78 08bc 3b17 5cbe c7b5 1f3e f481 573e
00000110: bf37 39be 03e4 043c eb9b 443d b232 4cbd
00000120: c0b6 67bd b8fe 0bbe 49a7 97bd 8961 2dbe
00000130: 3324 063e 9ea7 99bc ca29 7a3d fb2c 483e
00000140: 6de6 75bc eb87 f63d 8bf5 4e3d 5895 743e
00000150: 3f35 153e 987f 143d a93c 7b3e 5271 e23d
00000160: d836 4f3e a56f 6f3e 1ed1 ae3d 13fa 283e
00000170: 681a 3e3e 83d9 693d 1844 553e 73fd 4dbe
00000180: 18c8 93bc f740 90be 7cb3 973e 7a38 693e
00000190: 8077 7cbe 742f ca3c 5b0f b13c bd21 99bc
000001a0: dac2 b4bd 8db1 51be de22 8dbd 378c 82be
000001b0: d249 3d3e f380 cd3c 2f58 6c3d bad6 913d
000001c0: b61b bc3d 52a1 7a3e 6f98 a03d 5f7a 9a3e
000001d0: 82be 8fbd 461a 9c3c 3799 3b3e f869 093e
000001e0: 812f 653e 8e55 233e 3a8b cc3d 3c2c 763e
000001f0: e7f3 693e 0ad2 933e 17e6 af3e eb9c 8dbd
00000200: c8e3 483d 044e 10bd 094f 0fbe 84bc d5bd
00000210: 599b 523d bdf3 98ba a2f6 8abc f759 d13d
00000220: 8dbc b7be 40f6 2f3e bc47 89be 7dca cf3d
00000230: 2652 d63e 5366 22be 1769 c5bd 576a 1fbe
00000240: 4c43 7bbe d956 b1be cb75 983d 6452 8a3b
00000250: f7ec 37be 9c44 f33e 8e7d d93d 39ac a0bb
00000260: 817f 03bd 563d 203e 3417 733e 77f7 78bd
00000270: 8357 24bd 6c05 263e 47de 493e 68cb aa3e
00000280: eafc 6e3c 44e4 a23c deb5 1abe afaf 3cbe
00000290: 4038 ce3d 8fba 91bd 4def 083d a978 2f3d
000002a0: 06bd 33be 2e78 233d 9a5e f0bc 6a1d 20be
000002b0: b97d bfbc 8be2 6d3e 0343 4cbd 9c98 af3e
000002c0: 13eb e4bc ca4f 32be 81de 1abe 5aae f83e
000002d0: 2ee2 8b3d 6ff3 6d3e 1b9f 103d 87a0 483d
000002e0: 7ac6 67bd aa1c bf3d e26c 103e a5cc 29be
000002f0: 8d95 27be fcfe a33e 1100 aebd 4eaf fd3e
00000300: 03fd 7bbe e147 5e3e e2f4 e2bc 1d07 c1bd
00000310: 9338 d43d 3925 ea3c 4002 bdbe 14df e8bc
00000320: 164c 6d3e aeef 09bc f757 183c 9dc5 f4bd
00000330: 4512 acbd 25fd 543e 7c63 0f3e d742 9d3d
00000340: cf3b edbd 5fe8 913e 395d 84be 566c d83d
00000350: c144 5dbe 900f a63e 7419 9d3d 1ea1 d73d
00000360: 9cc8 8cbe da34 643a 9fdc 0fbe 9fea 37be
00000370: 6c77 8b3a 8f65 e9bc 5e06 ba3e ce6a 263e
00000380: d783 7dbe 6c09 2b3e 9b8a 4d3e e2ac 323e
00000390: b623 cc3d 8e81 b4be 453c d43d 4b66 22be
000003a0: b7c4 813e ec02 1bbe 62b3 943d 8884 423d
000003b0: be82 61be f412 263e 1f90 d83d 8004 aa3e
000003c0: 8293 6b3d a169 3a3e ded3 5dbe 1d9a a33e
000003d0: cd4d d9bc 8b5b 23be c85b 27bd 1bc7 f93d
000003e0: b44f c0bc ae99 ab3c 76d2 00be c9eb 09be
000003f0: 36d3 d83d de0b 74be 4719 3ebe ecaf bbbd
0.0057437494 -0.21915251 0.17353974 0.23096538 -0.171341 0.013455894 0.05715261 -0.069404334
-0.08950435 -0.15987882 -0.076086506 -0.11267293 0.09096121 -0.08798116 0.030329607 0.07624976
0.029818518 0.1460034 0.05035998 0.29824102 0.13860103 0.06737028 0.2010384 0.067368455
0.2249049 0.2312441 0.116888374 0.23054338 0.2626979 0.022498546 0.18182929 -0.21566156
-0.0031288175 -0.21994096 0.1496598 0.21664748 -0.17661244 0.0031313528 0.045088157 -0.0484654
-0.06279613 -0.1340341 -0.07017821 -0.15606886 0.1276361 -0.033036638 0.0545176 0.18778034
-0.011812925 0.1101755 0.051312484 0.22688262 0.13817541 0.035519302 0.23905912 0.104540266
0.20508198 0.2345837 0.083299235 0.1730578 0.18539773 0.05399536 0.205296 -0.18303703
-0.008329628 -0.21493237 0.15596686 0.21045667 -0.18087672 0.008111003 0.048000257 -0.049853034
-0.05657077 -0.13671386 -0.07404954 -0.16931738 0.13099746 -0.018756684 0.06107501 0.19548409
-0.015008551 0.12037643 0.050527137 0.23885095 0.14571093 0.036254495 0.24534859 0.110567704
0.20235765 0.23382433 0.0853598 0.16501646 0.1856476 0.0570922 0.20826757 -0.20116214
-0.018039748 -0.28174564 0.29629123 0.2277545 -0.2465496 0.02468083 0.021613767 -0.018692845
-0.088262275 -0.20477886 -0.06891416 -0.254976 0.18485191 0.025085902 0.057701286 0.07121034
0.09184973 0.24475601 0.078415744 0.30171487 -0.07018758 0.019055497 0.18320166 0.1341933
0.22381403 0.15950605 0.09987493 0.24040312 0.22846948 0.28871185 0.34355232 -0.06914695
0.049045354 -0.03523065 -0.13994993 -0.10436347 0.051417682 -0.0011669319 -0.016963307 0.102222376
-0.3588604 0.1718378 -0.2681254 0.101460434 0.4185955 -0.15859346 -0.09639185 -0.15567909
-0.2453739 -0.34636572 0.07444342 0.0042212475 -0.17961489 0.47513282 0.10619651 -0.004903343
-0.03210402 0.15648398 0.2373932 -0.060782876 -0.04012252 0.16213006 0.19713698 0.33358312
0.014586667 0.019884236 -0.1510844 -0.18426393 0.100693226 -0.07115661 0.03343134 0.04283968
-0.17552575 0.039909534 -0.029341985 -0.1563622 -0.023375379 0.2323095 -0.049868595 0.3429612
-0.027944123 -0.1741325 -0.15123941 0.4857052 0.0683025 0.23237394 0.035307985 0.048981216
-0.056585766 0.09331639 0.14104035 -0.16581972 -0.16365643 0.32030475 -0.084961064 0.4954781
-0.24608235 0.21707107 -0.02770466 -0.09425185 0.10362353 0.028582202 -0.3691578 -0.028426684
0.23173556 -0.0084189605 0.009298316 -0.11951754 -0.08401922 0.20799692 0.14002794 0.07678764
-0.11583673 0.28497598 -0.25852373 0.105675384 -0.21608259 0.32433748 0.076708704 0.105287775
-0.27496803 0.0008705385 -0.14049004 -0.17960595 0.0010640449 -0.02849081 0.36332983 0.1625168
-0.24757324 0.16702813 0.20072405 0.17448762 0.09967749 -0.35255092 0.10363058 -0.15859334
0.25345394 -0.15137833 0.07260777 0.047489673 -0.2202253 0.16218168 0.10574364 0.33206558
0.05751372 0.18204357 -0.21662852 0.31953517 -0.026526356 -0.1595289 -0.040859014 0.121961795
-0.023475505 0.020947304 -0.12580284 -0.13468851 0.1058716 -0.23832652 -0.1856433 -0.09164414
