final_models/Adam/SamplePools/9-RABBIT-FACE-train_05-05-2022_11-43-14/models/model_1000.pt (torch, 9699 bytes, 3 tensors)

update_module.0.weight f4 [32, 48, 1, 1]
00000000: 92a8 463d 702f 5c3d 7ad9 04be b9cf ba3b
00000010: d0f9 d33d 215d eabd a079 31bd 9853 1e3e
00000020: eff7 123d a287 ee3d bbab 2d3e 8db9 743b
00000030: 8e1e 4c3b a2dd 7c3c 91ab 9b3d 71a0 0b3e
00000040: 2f48 0cbe d3c5 973d 5b66 59be a565 e3bd
00000050: 257a e1bd 1027 5d3d fc0a 1abd a33f bf3d
00000060: b3c1 ea3d c86a 84bb 5122 913d 5c7d 8f3d
00000070: 0f33 a83d 43fa 123e df76 0b3e 2326 2bbe
00000080: 3895 bd3d 6a9f 66bd 4a7a 003e 66b6 aa3e
00000090: 6493 003d ac3d bdbc fe73 33bd 0e20 0cbe
000000a0: 278f 41bc 5a42 76bd 383d 0fbd ac6e 7a3e
000000b0: c10f a0bc 197e a63c bd4c 823e 900d 0a3e
000000c0: b386 28bd 4672 4d3d bdcf 75bd 7c5f a6bd
000000d0: 6d7a c4bd 6b3f f6bd 8503 b8bc d07f 20be
000000e0: aabe 9d3c 3d9f 3abd 88eb b2bc a6f4 b83d
000000f0: 66ac 17be 2512 e6bd 1719 b2bd 1844 553c
00000100: 7a12 47be ce2b 133d ef97 5a3d 76d0 573d
00000110: 7498 673e a1e9 fcbc e325 41bd 3a47 423c
00000120: 8baa f43c 6185 09be e73b 623d c6b0 d6bb
00000130: 8fdd 37be 5922 8fbe 386a 1c3e aeb9 37be
00000140: abe8 87be c618 783c 498f 78bc d810 90be
00000150: ecb1 ecbd d4a3 1cbe 4eb6 35be d5a8 a5bd
00000160: d8a4 8cbe 8dfa 67bd e8d9 f1bd 0b9a 673c
00000170: eae3 8abd 47cc c43b 9a27 bcbd 4a79 78bc
00000180: 5f23 b1bd 52e6 193e 5279 433c 5b9f afbc
00000190: c0ad 283d b2a4 a63d 4cf9 bf3d fa4d 47bd
000001a0: 3f41 febd 10f5 323d dbda 8fbd a14d 86bd
000001b0: 4dcb ba3a 5158 5abe 99e3 17be bf7d ea3c
000001c0: bf92 b43b 14cb debc bf08 843c fef4 8cbd
000001d0: 4320 20bd 3800 97bd d68c 063d d5b0 ce3d
000001e0: 26b8 ebbd 832e 903e 15fc 9f3d 3afd 023e
000001f0: 2163 1c3e 0c2e b83d eded 093e 40ca f33d
00000200: 354e 32be 6766 44bc b2c2 f93c 294d 1e3e
00000210: bcc7 933d 96a8 aebc cf88 a73d a33d 173c
00000220: cb85 e9bd 0811 df3d b465 d8ba dba4 283e
00000230: 1d08 633d 3af3 0a3e da66 b43d 5dc6 83bd
00000240: 94b4 58bb ef12 203d 6ccb 8f3c b9f1 18be
00000250: c073 babd fb51 063e af36 eebb 0a48 0dbe
00000260: bc8f 663d b3a1 203d 105f 6c3d 4111 9dbc
00000270: c0da 46bd bed4 e6bd b2cf a0be 2b3e c2bd
00000280: 0173 cdbd 9432 b5be 0f53 213e fd41 54be
00000290: d800 14be 31fd 2f3d edfd 6abe 981b 9dbe
000002a0: 6322 9cbd d720 893c 9385 2bbe a1e4 aebd
000002b0: 06a2 eb3d 0ffd 85be a4d1 4f3c 30f1 5f3d
000002c0: fb4b c9be 992d ecbd 5e80 3a3d d5f3 b7be
000002d0: f948 34bd 13cc 8a3c 3b30 78be f64c efbd
000002e0: 61bb e4bd a387 97be 3b4f cebc 18b8 0f3d
000002f0: 1ebd 1fbe 4039 c23c 8df3 2b3d 9552 cbbe
00000300: 8e35 39bd 1706 a3bd ed02 fe3c 2854 313c
00000310: 6198 a03b 0b2d 233d deec 503d a569 3f3d
00000320: 4fe5 e83d 0322 d53d a570 88be 4893 d13d
00000330: e96c 85be cd2e 1c3e 6c5e cd3d ec65 57bd
00000340: 3e1c f03d e888 bc3e 65c6 a73d 798d 7c3d
00000350: 8c33 203e 7c12 efbd 0e44 5abd 243e 063e
00000360: 6137 02bd b42a 1fbd 94ab 393d c9ea ce3c
00000370: a0b2 77be 886b 20bd 2a47 0abe 1783 4fbe
00000380: 85c7 d63e b81d 9cbd be41 3e3d 1a51 a63d
00000390: 5b15 44bd e257 4bbc ec26 343e 9145 d3bc
000003a0: a906 bc3d 7321 983e aa42 28be 3389 85be
000003b0: 09b0 183e bf0d 393e f874 3ebd 1e55 f83e
000003c0: c0d1 98bd b2ca 11be 0fe6 7bbd 18c2 fa3d
000003d0: f692 d8bc f3b1 093e ac85 873d baa3 373c
000003e0: 390b 96bd 92dc a8bd 03ec 0c3e 8795 4e3d
000003f0: e497 f7bd 09af 9d3e eb99 48be 807b 633d
0.048500605 0.053756177 -0.12973586 0.005701032 0.10350382 -0.11443544 -0.04332888 0.15461576
0.03588098 0.11646964 0.16960041 0.0037342042 0.0031146142 0.015433701 0.07601083 0.13635422
-0.13699411 0.07410779 -0.21230452 -0.111033715 -0.11009625 0.05399233 -0.03760813 0.093383096
0.114627264 -0.0040410496 0.070866235 0.07006332 0.08212864 0.1435328 0.13619564 -0.16713767
0.09256977 -0.056304373 0.1254665 0.33342284 0.031390563 -0.023100697 -0.04381179 -0.13684103
-0.011813915 -0.06012187 -0.034970492 0.2445628 -0.019538762 0.0203238 0.25449172 0.13481736
-0.041144084 0.050157808 -0.060012568 -0.08123681 -0.09593663 -0.12023815 -0.022462616 -0.15673757
0.019255955 -0.045562018 -0.021840826 0.09031038 -0.14811859 -0.112339295 -0.08696192 0.013016723
-0.19440642 0.035930447 0.05336755 0.05268904 0.2261675 -0.030873122 -0.047155272 0.011857802
0.029866477 -0.13429786 0.05523291 -0.0065518348 -0.17955612 -0.27955893 0.15274894 -0.17941925
-0.265447 0.015142625 -0.015170881 -0.2813785 -0.115573734 -0.1529687 -0.17745325 -0.08088843
-0.27469516 -0.05663543 -0.118091404 0.014135848 -0.067817524 0.006005797 -0.09187241 -0.015165636
-0.086493246 0.15029266 0.0119307805 -0.021438291 0.041181326 0.08136882 0.093737215 -0.04865835
-0.124147885 0.04369074 -0.07024165 -0.06557775 0.0014251262 -0.21322753 -0.14832915 0.028624414
0.0055106576 -0.027196445 0.016117452 -0.06882666 -0.039093267 -0.073730886 0.032849155 0.10092322
-0.11509733 0.28160486 0.07811753 0.12791911 0.1527219 0.08993158 0.13469668 0.119038105
-0.17412646 -0.011987305 0.030488346 0.15459122 0.07215831 -0.021320622 0.08180391 0.009231004
-0.11402472 0.1089192 -0.0016509802 0.16469137 0.05542766 0.13569346 0.0880868 -0.06434319
-0.0033066617 0.039080556 0.017553054 -0.1493596 -0.09104109 0.1311721 -0.0072697024 -0.13797012
0.05628942 0.03921671 0.057707846 -0.019173266 -0.04854846 -0.11271046 -0.3140846 -0.09484514
-0.10031701 -0.3539015 0.1575434 -0.20728298 -0.14453447 0.04296607 -0.22948427 -0.30685115
-0.07623746 0.016739292 -0.16750173 -0.08539701 0.11505513 -0.2616963 0.01268426 0.054673374
-0.3931578 -0.115321346 0.045532577 -0.35928217 -0.044014905 0.016943013 -0.24237148 -0.11684601
-0.11168552 -0.2959567 -0.025184264 0.035087675 -0.15599486 0.02370894 0.041980315 -0.39711443
-0.04521709 -0.07960146 0.031007254 0.010823287 0.0049009775 0.03983788 0.051007144 0.04673161
0.11371862 0.10406878 -0.2664844 0.1023317 -0.26059654 0.15252228 0.10027775 -0.052587435
0.11724137 0.368232 0.08192138 0.061658356 0.15644664 -0.116734475 -0.05328756 0.13109642
-0.031791095 -0.038859084 0.045329645 0.025258439 -0.24189234 -0.03916505 -0.1350371 -0.2026485
0.41949096 -0.07622856 0.046449415 0.08120938 -0.04787193 -0.01241109 0.17592973 -0.025790008
0.09180958 0.2971302 -0.1643168 -0.26081237 0.14910902 0.1807165 -0.04649827 0.4850244
-0.07461882 -0.14237478 -0.061498698 0.12244052 -0.026437264 0.13446788 0.06617293 0.011208469
-0.07326359 -0.082451954 0.13761906 0.05043557 -0.12089518 0.30797604 -0.19589965 0.0555377

update_module.0.bias f4 [32]
00000000: 76e0 bc3d 3998 d93c bacc 233e f5bd d5bd
00000010: 885f 59bd 05b7 613d 77fd 75be 9330 ad3d
00000020: bc39 b63d fc1d fc3d 0d4e 25be ca40 243e
00000030: 3b6e c63c 4e14 9c3c bf0a f1bd d84f 153e
00000040: 2b1d e33b 4453 c73d b819 ebbe 8128 90bd
00000050: d872 b33d 53fe d93c 14ab 9d3d 2bc6 b0bd
00000060: bf0f 48be 5b24 23be ab49 ff3d 28ce 86bc
00000070: 64cb 1abe 581a 95bc 3784 903c 415a f33d
0.092225 0.026561843 0.15996066 -0.10436622 -0.05306962 0.05510618 -0.2402247 0.084565304
0.08897731 0.123104066 -0.16143055 0.1604034 0.024222484 0.01905265 -0.11769628 0.14581239
0.0069309673 0.097326785 -0.4591806 -0.070389755 0.08762139 0.026610529 0.07698646 -0.086315475
-0.19537257 -0.15931837 0.12465223 -0.016455725 -0.1511665 -0.018201038 0.01764117 0.11882449

update_module.2.weight f4 [16, 32, 1, 1]
00000000: a862 8bbb ef00 8b3d b3a3 8cbb 27d2 e53c
00000010: de2d 9bbd d41a 363b c2ec 06bd 0776 613d
00000020: c8ce 163d 438d 633c de0a a73c e71b 4cbc
00000030: 931c 973d c552 fd3c fe2c b0bc 2c4e e83c
00000040: 9610 2c3c e2f7 343d e95f 7fbd 8eb8 d2bc
00000050: b3b7 40bc ce9f 903d 7578 a43c 3e7d b43c
00000060: f114 d4bb 8d2e 2abd 9316 bb3a 4700 2f3d
00000070: 1b62 06bc 02ad 743c c241 883c e925 8bbc
00000080: e461 edba 02d7 803d f1e6 73bb ff30 023d
00000090: 24d6 89bd 4513 4a3b 389c 19bd 7b91 513d
000000a0: f268 253d 3d3c 863c 66fb b63c 0ce6 61bc
000000b0: 653e 463d 4108 0b3d 93ce babc 93a3 fe3c
000000c0: b469 403c 3520 463d 67eb 8ebd 31d3 ecbc
000000d0: ec34 52bc 13e6 803d 5f1b b73c b191 7f3c
000000e0: 57ef c93a 4881 38bd 2467 d53b 0b87 483d
000000f0: 39f7 25bc 1d02 803c 4048 113c a6b7 9cbc
00000100: f097 f4ba 1246 803d c5ce 80bb b614 fc3c
00000110: dbfe 83bd c4ea 493b d22e 18bd d2cd 563d
00000120: 3928 223d e487 833c d83a ad3c 4d79 68bc
00000130: 736e 3a3d 245b 093d a0b5 b4bc 2090 f83c
00000140: 95ba 623c 36f4 423d aa5e 8abd 1731 e1bc
00000150: ad57 53bc eccd 7c3d d84e b13c c6ba 843c
00000160: fd61 283a 9915 3fbd 0add d83b 33fd 513d
00000170: 9861 0abc 8c99 7b3c 7ee9 183c fc0f 99bc
00000180: a9bb 1e3b b469 ac3d 0208 79bb a43c 283d
00000190: a5d6 a6bd 2641 153c c1b5 4abd b97d 8b3d
000001a0: 4f04 4f3d 6992 673c c833 b53c 22c5 91bc
000001b0: 9ab5 e23d 8b60 2e3d e329 cfbc 0f2c 213d
000001c0: e2b6 e13c 6636 073d e386 b6bd 3aa4 0cbd
000001d0: 6a13 89bc 5564 843d 8086 f13c 33bc b13b
000001e0: 0e0a 4a3b 8c30 80bd 9cff c73b b774 733c
000001f0: 2c23 10bc 77d2 b63c b62c b23c abd5 96bc
00000200: ccba b6bc e590 2e3c 52ff 2cbc 9f2e a73e
00000210: 6117 6d3e 1f98 a83d 43f8 84bc 8c89 08be
00000220: b014 f53b 92ba e83c e616 0d3d 9162 7d3c
00000230: 623d 82bd ad5b a2bd 38eb 4a3d 2af8 243c
00000240: 9b28 863d 50e6 8fbd 1905 a2bb a014 293d
00000250: 029e ccbc 1715 90bd 702c 3ebd 8044 3f3e
00000260: becf 173e 2262 a13d 5c51 793d d0bb a63d
00000270: 9d02 213d 06d7 703d 0f80 eabc 80f6 2ebd
00000280: e110 20bd f02e 50bc ab43 6ebd 309d 913d
00000290: f4dc 9a3e 8d65 f13c 5449 edbd 0962 3ebb
000002a0: 2522 303d f6a1 1dbd 54a4 ddbd 7ab6 dbbc
000002b0: 44cd 5e3e 8a57 713d eabb 85bd fe2e 0abd
000002c0: d718 0d3d 4ea7 71bc e62f 1b3d bb39 26bd
000002d0: af74 23bd 7308 683e 9592 8e3d cfb7 233d
000002e0: 5f05 02be 41f5 d2bc b03c 36bc 1b15 993d
000002f0: 8bfd 313e 1861 94bb 17ba 633d 70f8 1dbd
00000300: d225 6c3e f3ea 7dbd 75ac 9c3d 344b 37be
00000310: ad4e 12be 60c4 c7bd 2260 06bd 2db4 15be
00000320: e22a 06be a828 e9bd 46e4 dcbd e271 e33d
00000330: f106 8f3c 930c 09bd b6b0 a53d 6f6e c6bd
00000340: f6cb 4c3d 91df 14bd b213 9b3b fc15 12bd
00000350: a4cf bd3d eed4 9c3e 2b5d 613d 8a01 04bc
00000360: 5f21 08be b215 01be 7849 8c3d 70ed 843d
00000370: 097e cb3d 663c 55bd aafa 273e 5c71 d2bb
00000380: 457a f8bc eb5c 87bd ef85 3cbc d8df 6a3d
00000390: d3d3 873d 8559 1d3c 01ed f1bc e0b7 87bd
000003a0: 67ea 54bc 74c8 61bd 6c28 9cbd 5fa6 a43a
000003b0: d2e1 7fbc 926e 493d 0913 8a3d 637d ffbc
000003c0: 0500 023e a9e7 abbd d574 a9bd 4731 423d
000003d0: 5db6 8f3d 20fe c23d 276b 4c3c fa65 e53d
000003e0: 328c a13d e7ef 1c3d 5b0e 30bc e53a 7b3e
000003f0: 526d 283e 78e8 5fbc 8c1c 193c 6358 2dbd
-0.004253704 0.067872874 -0.0042919754 0.02805431 -0.07577108 0.0027786987 -0.032940634 0.0550442
0.036818296 0.01388866 0.020390924 -0.012457824 0.07378497 0.030923257 -0.021505829 0.028357588
0.010502001 0.044181712 -0.062347326 -0.025722768 -0.011762547 0.0706173 0.02007697 0.022032376
-0.006472223 -0.0415483 0.0014273695 0.042724874 -0.008202101 0.014933826 0.016632918 -0.01698585
-0.0018110839 0.062910095 -0.003721651 0.031785008 -0.06730297 0.003083424 -0.037502497 0.05116413
0.040383287 0.016386146 0.022336673 -0.013787758 0.048399348 0.03394342 -0.02280358 0.031083858
0.011743952 0.04837056 -0.06978493 -0.028909298 -0.01283 0.06293883 0.022351919 0.0155987
0.0015406412 -0.045045167 0.0065125395 0.048956912 -0.010129743 0.015626008 0.008867323 -0.01913054
-0.0018661004 0.06263365 -0.003930899 0.030771594 -0.06445094 0.0030810097 -0.037154026 0.05244238
0.03958914 0.016056009 0.021146223 -0.014189077 0.04551549 0.033534184 -0.022059262 0.030342162
0.01383843 0.04759618 -0.06756337 -0.027489228 -0.0128993215 0.06171982 0.021644041 0.016202342
0.0006423293 -0.046651457 0.006618147 0.05126686 -0.00844612 0.015356433 0.009333013 -0.01868438
0.002422074 0.08418599 -0.0037999158 0.041073456 -0.08146409 0.009109771 -0.04948974 0.06811089
0.05054122 0.014134028 0.022119418 -0.017794196 0.11069794 0.04257254 -0.025288528 0.03934866
0.027553026 0.033010863 -0.08912446 -0.034336306 -0.01673289 0.06464449 0.02948308 0.0054240464
0.0030828747 -0.062592596 0.006103469 0.01485937 -0.008797448 0.022317154 0.021749835 -0.018412432
-0.022305869 0.010654663 -0.01055892 0.32652757 0.2315345 0.0823214 -0.016231662 -0.1333372
0.007479273 0.028409276 0.034445666 0.015465395 -0.06359364 -0.07927642 0.04954073 0.010068933
0.06550714 -0.070263505 -0.0049444553 0.041279435 -0.024977688 -0.070352726 -0.046429098 0.18678474
0.14825341 0.078800455 0.060868606 0.08141291 0.039309133 0.058798812 -0.028625516 -0.04271555
-0.039078597 -0.012706503 -0.058170002 0.07110059 0.302467 0.029467368 -0.11586252 -0.0029050133
0.043001313 -0.038484536 -0.10822359 -0.02682041 0.2175799 0.058921374 -0.065299824 -0.03373622
0.034447517 -0.014749361 0.037887476 -0.0405824 -0.0399062 0.22659473 0.06961552 0.039970215
-0.12697361 -0.025751712 -0.011122867 0.07474729 0.17381875 -0.004528176 0.05559739 -0.038567007
0.23061302 -0.061991643 0.07650081 -0.17899781 -0.14287825 -0.097542524 -0.032806523 -0.14619513
-0.13102296 -0.11384708 -0.10785727 0.11105706 0.017459365 -0.033459257 0.080903456 -0.09689032
0.0499992 -0.036346022 0.0047325725 -0.035665497 0.0926812 0.30631202 0.055020493 -0.008057008
-0.1329398 -0.12605932 0.068499506 0.064906 0.09936149 -0.052059554 0.16404215 -0.006422205
-0.03033174 -0.066095196 -0.011506542 0.05734238 0.06632199 0.009603863 -0.029531958 -0.06626868
-0.012995339 -0.055122808 -0.07624897 0.001256179 -0.015617805 0.049177714 0.06741912 -0.031187719
0.1269532 -0.08393795 -0.08274237 0.047410276 0.07017205 0.09521127 0.012476719 0.11201091
0.07888068 0.038314726 -0.01074561 0.24534185 0.16447952 -0.013666265 0.009345185 -0.04232062
