final_models/Adam/SamplePools/9-RABBIT-FACE-train_05-05-2022_11-43-14/models/model_15000.pt (torch, 9699 bytes, 3 tensors)

update_module.0.weight f4 [32, 48, 1, 1]
00000000: bc62 18bd f1a5 163e e418 f1bd d2d4 7dbd
00000010: f910 7f3e 0cff 04be 929a e0bd b380 8c3e
00000020: df6d ae3c 3443 61bc 5f50 c13e a60e 0cbe
00000030: 55bf 48bd f9a9 9cbd d09c 1f3e e26b 123d
00000040: 5b77 9a3c f939 513d c4e4 abbe 337d 12bd
00000050: 13a8 203e 559b 803d e67d e2bd ef59 843e
00000060: 8789 dabd c84b 94bd 4d25 413e 0b98 0d3e
00000070: 0687 c33d ef92 583e fe7d 453e 8eea 2cbe
00000080: 1578 07bd efdf a93d 4f09 eb3d ee96 0f3f
00000090: 0a49 99bb 49d7 06be 2b5b 013e 02d6 f2be
000000a0: 8f0b 02bc 23f8 c13c f922 a8be e4d8 3b3e
000000b0: c3dc 62be 397c 74bd 3ce9 9e3e 8a5d 633e
000000c0: 9507 76be fc81 ba3d 0c87 eebd ae65 51be
000000d0: 70c0 f6bd 94e8 08be 5fd7 22be fe9b 1fbe
000000e0: 481a c2bb b54d 33be abaa 19bd 6e8a fe3d
000000f0: 8542 5fbe 4c54 2abe 33b2 96bd ce4e 673d
00000100: 6e35 8fbe fd3b b13c 182b 6d3d efaf e13c
00000110: 0d32 853e 275a 833e 8331 9a3e 5970 593c
00000120: 7e74 18be 1e04 97be 00f4 05bd 37c7 f83d
00000130: 054a a9bd 0e92 a6be 75d4 9a3e 806c 28be
00000140: 830a 70be 312b c6bc 4715 a03d 97dc 9abe
00000150: 901a 7dbe 5c2e 18be 37f1 5cbe 7787 8fbe
00000160: 1ab7 9cbe 3f1b 0a3e 79f9 38be fd14 313d
00000170: 19ff 51bd a4a5 173e be14 c6bd a337 9f3d
00000180: 3764 a3be 2db0 1a3e 0b56 96bc feb4 60be
00000190: 0ba6 6dbc bb6e 913d 193d e7bd 028c abbd
000001a0: 213b 03be e93d 67be 37a2 50be 26e8 01be
000001b0: 2fc5 8bbd 8dd7 a0be 3719 e9bd d19c 9a3e
000001c0: fc06 903d 0238 cb3d 4172 78be d520 4a3d
000001d0: f900 3ebe cbb7 293d c8e4 73bd e1f9 9c3e
000001e0: 9038 48be d296 3e3e 22f3 d4bb 989f 183e
000001f0: d9d6 31be fd48 153e 7c7c 9d3e aefb 203e
00000200: 082a eebd 053b da3c 9e3d b8bd bb21 af3d
00000210: 3c57 23be 03b4 05be e851 2ebc cf58 99be
00000220: 6a72 d63c 12c7 9ebc 0f5d a6bd df3a 353e
00000230: a4f6 003e 8158 b93e c588 e9bd 7f2e 903e
00000240: 4f0c 16bd 19e4 bebc 9e3a a53d e30b 4fbe
00000250: 2cce c3bd f086 2a3e 0556 47bd 29ef 11be
00000260: 34f2 ba3d 2e6e cebd 6457 f33d 582f afbe
00000270: 6df9 6bbe 9a92 80be f099 8fbe 94a9 94bd
00000280: 9310 06bd 7a7a d8be 8161 253c 378a 65be
00000290: da74 75be c3c5 20bd a50e 55be d6aa 07bf
000002a0: 8a3b 14be 1e07 14be a0ec 40be d57d 6fbe
000002b0: 1fde 043e f217 eabe 3e90 123e f859 78bd
000002c0: c0e4 50be 59e8 f5bd 1bfc 18bd fec4 bfbe
000002d0: ed42 c0bd a419 1bbe 34b2 d0be 0301 d2be
000002e0: 6e65 cfbd 25f5 07bf fedd 17be 76d2 1f3e
000002f0: cb05 dfbe 7846 673c bca2 6c3b a003 18bf
00000300: 22d3 88be 5e24 16be b571 143d a3f6 4ebe
00000310: 45cb 1fbd e9d2 e03d ed6e 3dbe 21f5 163c
00000320: cb63 293e 47c5 16be 04f3 4dbe 3095 083e
00000330: 2a50 08bf c1d4 ce3e dc07 843e fac5 b2bd
00000340: 35c8 f43c 1006 0f3f 043c f93c f25e 6f3e
00000350: 62b0 763e ca6c d0bc ba32 bebd 435c e13e
00000360: 838f 26be 7da6 ccbc 663b 4b3e 7ac9 d8bd
00000370: 5e41 b6be 0eeb 613c ec24 53be 6b3d 7bbe
00000380: 459d 0a3f 284c 113e b444 ac3e 9c1f 743e
00000390: 7c09 00be d0f4 f83c 41b2 f33e 5d78 0fbe
000003a0: b544 c43e 5f89 d83e d08e 0abe 1a2d 79be
000003b0: f9e6 a73e 79f6 313e c51e 9e3e 3ccc b13e
000003c0: dae1 33be 880c 44be a545 773d 47ab 9f3c
000003d0: cee2 2cbd 7baa 933e 9d61 1dbd 8cdb 45bd
000003e0: bbcb bf3d 14d5 bcbe cedf a03e f5d4 063e
000003f0: 9937 1ebe e0b5 ea3e 85c0 99be 6aa8 e9bc
-0.037203535 0.14711739 -0.11772326 -0.06197054 0.24908818 -0.12987918 -0.10966982 0.2744194
0.021292625 -0.013748933 0.3775663 -0.13677463 -0.049010593 -0.07649607 0.15587163 0.035747416
0.018855741 0.051080678 -0.33572972 -0.03576393 0.15689115 0.06279627 -0.110591695 0.25849864
-0.106707625 -0.072410166 0.18861885 0.13827531 0.09547238 0.211498 0.19286343 -0.1688635
-0.033073504 0.08294665 0.11476385 0.56089675 -0.0046778964 -0.13168062 0.12632434 -0.474289
-0.007937326 0.023677891 -0.32839182 0.18344456 -0.22154526 -0.05968878 0.3103732 0.22203651
-0.2402633 0.09106824 -0.11646852 -0.20448944 -0.12048423 -0.13369972 -0.1590247 -0.1558685
-0.005923543 -0.17510112 -0.037516277 0.12428747 -0.21802719 -0.16633719 -0.073582076 0.05647164
-0.2797045 0.02163505 0.057902426 0.027549712 0.26014748 0.25654718 0.301159 0.013271415
-0.14888188 -0.2949533 -0.0327034 0.12147372 -0.08266071 -0.32533306 0.30240217 -0.1644764
-0.2344151 -0.024190517 0.07816558 -0.30246422 -0.24717164 -0.14861435 -0.21576391 -0.2803304
-0.30608445 0.13486956 -0.18063916 0.043232907 -0.05126867 0.1480928 -0.09671925 0.07774284
-0.31912395 0.15106268 -0.018351575 -0.21944043 -0.01450492 0.07101198 -0.1129095 -0.08376314
-0.12815525 -0.2258221 -0.2037438 -0.12686214 -0.06824719 -0.31414452 -0.113817625 0.30197766
0.07032582 0.09922792 -0.24262334 0.049347717 -0.18555059 0.041435044 -0.059544355 0.30659392
-0.19552827 0.18612221 -0.0064987103 0.1490463 -0.17367114 0.14578624 0.30759037 0.15721008
-0.116291106 0.02663947 -0.089961275 0.085513555 -0.15951246 -0.1305695 -0.010639645 -0.29950568
0.026177604 -0.019382033 -0.08123218 0.17698239 0.12594086 0.36200336 -0.1140304 0.28160474
-0.036632832 -0.023302125 0.08067821 -0.20219378 -0.095608085 0.16653037 -0.04866602 -0.14251389
0.09128228 -0.10079609 0.11881903 -0.34215808 -0.23044367 -0.25111848 -0.28047132 -0.07258907
-0.03273065 -0.42280942 0.0100940475 -0.22416006 -0.23970357 -0.0392511 -0.20806368 -0.5299505
-0.14475837 -0.1445584 -0.18840265 -0.23387845 0.12975357 -0.45721394 0.14312837 -0.060632676
-0.20399761 -0.120072074 -0.0373498 -0.3745498 -0.09387765 -0.151465 -0.40760958 -0.41016397
-0.10126768 -0.53108436 -0.14830777 0.15607628 -0.43559107 0.014115922 0.003610774 -0.5938053
-0.26723582 -0.1466231 0.036241252 -0.20211272 -0.039012212 0.10977728 -0.18499346 0.009213717
0.16541974 -0.14723693 -0.20112234 0.1333816 -0.5324732 0.40396693 0.25787246 -0.08729167
0.029880622 0.55868626 0.030424125 0.23376063 0.24090722 -0.0254425 -0.09287019 0.44015703
-0.16265683 -0.024981732 0.19846877 -0.105853036 -0.35596746 0.013788952 -0.20619553 -0.24535148
0.54146224 0.14189208 0.33646166 0.23840183 -0.12503618 0.030390173 0.47596934 -0.14010759
0.3833367 0.42292306 -0.13531041 -0.24333611 0.32793406 0.17379178 0.3088285 0.3472613
-0.17566624 -0.19145405 0.060369153 0.019490851 -0.042208485 0.28841004 -0.03842317 -0.04830508
0.093650304 -0.36881316 0.3142075 0.13167174 -0.15450896 0.45841885 -0.30029693 -0.028522689

update_module.0.bias f4 [32]
00000000: 5db0 5bbd ca0d 17bd 48f2 153c 3b71 76be
00000010: 0a14 b4bd 7b2d ccbd 0d1d 28bf 5864 bf3b
00000020: 124b ed3c 6e97 19be f672 7fbe 6b16 953c
00000030: b198 9dbb 4785 9cbd 0856 cbbe 6275 1d3d
00000040: 1282 eabc 8401 933b cd8b 62bf 0248 2ebe
00000050: 60cc 843c 1ec6 6abb d10b 19bc 0ea1 97bd
00000060: 2c60 9fbe 4dd4 dcbe 23d9 47bd 2576 76bd
00000070: 231d febd 7ed6 2cbe be49 62bb 3a89 98bd
-0.05363499 -0.036878385 0.009152003 -0.24066631 -0.08792885 -0.09969612 -0.6566933 0.0058408193
0.02896646 -0.14999172 -0.24946198 0.018199166 -0.004809462 -0.07642608 -0.39714074 0.038442023
-0.028626475 0.0044862647 -0.8849457 -0.17019656 0.016210735 -0.0035823653 -0.009341196 -0.074037656
-0.3112806 -0.43130723 -0.048791062 -0.060171265 -0.12407901 -0.16878697 -0.0034528817 -0.07448049

update_module.2.weight f4 [16, 32, 1, 1]
00000000: f486 34bc 02bb 3b3e 4c1c 553d c31e 303d
00000010: 7d93 70bd ac20 0abc 9a78 f8bd 527c f93d
00000020: 02c1 543d 2188 c83d c4b4 aa3d d12a efbc
00000030: 0288 233e 86fa a33d 0c17 38bd 2228 893d
00000040: a97a 873d 39cf ef3d 05ce 71be 7e5b 21bd
00000050: 7433 41bd eace 273e 155d 5e3d 2e31 de3d
00000060: 4801 0fbd eaf9 bdbd ef9f 333d 7cfd bd3d
00000070: 971a 6fba b0dc f13d b3e8 ab3d 076b d3bc
00000080: 2c17 febb 1b66 113e 9498 173d 301e 033d
00000090: 45b4 36bd 2489 3ebc 8339 05be 3714 083e
000000a0: e4d2 2f3d 69be 473d 1a30 923d 1e0d cebc
000000b0: 1eac 0a3e dcc3 b53d eff0 7abd de97 8f3d
000000c0: 8731 993d 4df3 f43d c57e 75be 761c c8bc
000000d0: 861f 35bd 8547 173e 8d85 7b3d 13fa cd3d
000000e0: 769f 05bd 3208 84bd 2ccb a53d 323f d73d
000000f0: c3d3 61bc 3aa9 e33d a7c1 c53d 6f82 0abd
00000100: eb67 3dbc 34ed 0c3e 6732 163d 4901 fd3c
00000110: 2f75 4abd 5bee adbc 7817 0dbe c0d6 123e
00000120: 3fd4 403d 635a 3a3d fd7d 9b3d d00f cfbc
00000130: 88a7 0b3e 6419 bf3d b79f 69bd 7c69 8f3d
00000140: 7842 9e3d c902 f23d 298c 6fbe b501 b5bc
00000150: c18d 37bd fbca 1a3e fa66 833d b83c c83d
00000160: 6edc c2bc f901 59bd 9803 ae3d 367d e13d
00000170: 6ca2 c4bc 358c e43d dcec cf3d 239e ecbc
00000180: 5305 4dbc 4ea3 203e 6147 753d 35b5 973d
00000190: 20ad 82bd 737a c23d f087 2ebe f61e 353e
000001a0: b703 463d f185 a53d 28a6 9a3d af62 01bd
000001b0: b95f 533e 95d1 d93d 21b2 8abd 2d1f a83d
000001c0: 137c 183e 01fe b73d a7f3 93be da6e eebc
000001d0: 1919 65bd 65ef 3a3e 361e b03d 114b 21bd
000001e0: e714 863d 82d4 f0bd 5906 c33d 7d5c 913c
000001f0: e2ad d6bc bc56 5c3e 9fb6 203e 875d 15bd
00000200: 64d2 7abe cfb9 04bd 3ad8 22bd 2e21 0b3f
00000210: 674c 013f b001 bf3e 11d0 5fbc 43dc 1cbf
00000220: 4be7 27be a011 083d 3d4f 493e 4cb8 693d
00000230: 426c efbd e567 4abe 1518 fb3c 2cad 983c
00000240: 23ed c63d a78e 033e 923c 7a3c 3e0e 83bc
00000250: 08a1 863d 164b 04be 963a 50be ff6f 873e
00000260: 90d7 86bd e080 e93e 129b 2e3e 72da 6c3c
00000270: 7921 c9bd a64c 1bbd 5c01 f2bd 6aa6 98bd
00000280: a069 65bc 8856 203e 79f8 3fbe 8ec4 f63d
00000290: 023b 0a3f 5cdc 503e 3be2 b6be b13d 37bd
000002a0: f746 1dbe 0d7b 4fbd 0f34 6cbe f439 d1bc
000002b0: 74e7 913e 956c 4b3e e17e 63be 69bc 40bd
000002c0: 8870 d1bd bf11 f53c 82c1 863d 4eba 26be
000002d0: d10f b13d 260c cc3d 90b6 c5bc e6f6 86bd
000002e0: d51d 15be 9224 babc a0e4 02be 44cb 4f3d
000002f0: bb5e 933e 2644 c9bc 2340 c63d 34dd 9bbc
00000300: f9a1 a73e 34f0 3abe d5e2 8b3e d8e5 00bf
00000310: cca4 5fbe 59b6 5cbe 27be 1d3d 61d7 b5be
00000320: f492 d3be 3b9b 80bd bcc1 a23d bd53 743e
00000330: 6005 16be 12d4 fb3d 4586 babb 815a 96bd
00000340: 5687 cf3b a8e4 62be b443 9a3d 6664 a6bd
00000350: 6b9c 233e 7166 d63e ccb6 ad3e 800f 09bb
00000360: 0f32 30bc abe9 3bbe 489e d03d 4c06 cd3d
00000370: f461 103e b9a2 2ebe ec8c 563e afd6 d0ba
00000380: b0ae 89bd debc 313d 990f 07bd e4a1 523e
00000390: 5c54 58be bab7 82bd b2fa bcbc 1789 4dbe
000003a0: 5f11 2ebe 6b65 4fbe 2350 9bbe 4905 3abe
000003b0: 58ef c13d 8c74 8d3e f151 e2bd 61db 88bd
000003c0: 6f5d 3e3e 51f9 4dbe 1b6a 1f3e 9d13 1f3e
000003d0: 246c 3f3c 6ff2 4b3e a8c6 473d 8106 2cbc
000003e0: f9fb 203e 49f4 8dbe 5847 9fbd 3b41 633f
000003f0: 5b06 0abd c3a5 ee3d 02a0 063d 42bd 31be
-0.011018503 0.18333057 0.05202894 0.042998087 -0.058734406 -0.008430641 -0.12132378 0.12181915
0.05194188 0.097915895 0.083352596 -0.029195221 0.15969852 0.08006768 -0.044943854 0.06697108
0.066151924 0.117094465 -0.23613746 -0.039393894 -0.04716821 0.16387525 0.05428799 0.10849224
-0.03491333 -0.09276183 0.043853696 0.09276864 -0.00091210887 0.11809671 0.08393993 -0.02580787
-0.007754227 0.14199106 0.037010744 0.03201121 -0.044605512 -0.011629377 -0.1301022 0.13288961
0.04292573 0.048765574 0.07138081 -0.02515274 0.1354222 0.08875248 -0.06126493 0.07011388
0.0748015 0.119604684 -0.2397414 -0.024427634 -0.044219516 0.14773376 0.06140666 0.100574635
-0.032622777 -0.06446876 0.080953926 0.105101004 -0.013783398 0.11116262 0.09656077 -0.033815797
-0.0115604205 0.13762361 0.03666916 0.030884402 -0.04942816 -0.02123182 -0.13778484 0.14339733
0.047077414 0.045496356 0.0759239 -0.025276095 0.13638127 0.09331015 -0.05703708 0.070025414
0.07727522 0.118169375 -0.2339331 -0.02209554 -0.04481292 0.15116493 0.064161256 0.09777206
-0.02378675 -0.052980397 0.08496779 0.1101021 -0.02400323 0.11159555 0.10152599 -0.028884
-0.012513476 0.15687296 0.059882525 0.074076094 -0.06380677 0.094960116 -0.17044044 0.17687592
0.048343387 0.08082188 0.07551223 -0.031588253 0.20641984 0.10635678 -0.06772257 0.08209071
0.1489108 0.08983994 -0.2889683 -0.029105593 -0.055932138 0.18255384 0.08599512 -0.03937823
0.065469556 -0.11759283 0.09522695 0.017744297 -0.02620596 0.21517462 0.15694664 -0.036466148
-0.2449432 -0.032403763 -0.03975699 0.54347503 0.50507206 0.37305975 -0.013660447 -0.6127359
-0.16396825 0.033219934 0.19659133 0.057060525 -0.116905704 -0.19766195 0.030651132 0.018637262
0.09713199 0.12847386 0.01527323 -0.015998002 0.06573683 -0.12919268 -0.20334849 0.26452634
-0.06584084 0.45606136 0.17051342 0.014456378 -0.098208375 -0.037914895 -0.118166655 -0.07453616
-0.014002234 0.15658009 -0.18747129 0.120492086 0.5399629 0.2039656 -0.35719475 -0.044736568
-0.15359102 -0.05065446 -0.23066734 -0.02554033 0.28496897 0.1986564 -0.22216369 -0.047054682
-0.10226542 0.029915689 0.065798774 -0.16282007 0.08645595 0.09963255 -0.024134904 -0.06590061
-0.14562161 -0.022722516 -0.12782526 0.05073096 0.2878321 -0.024568629 0.09680202 -0.019026376
0.32740763 -0.18255693 0.27321497 -0.50350714 -0.21840209 -0.21553935 0.03851142 -0.35515884
-0.41323054 -0.06279608 0.07947108 0.23860069 -0.14650488 0.122963086 -0.0056922757 -0.07341481
0.006333272 -0.22157538 0.075324446 -0.08124618 0.15977637 0.41875032 0.33928525 -0.002091378
-0.010754122 -0.18350856 0.1018644 0.10010967 0.14099866 -0.17054261 0.20952195 -0.0015933121
-0.06722772 0.04339301 -0.03297386 0.20569569 -0.2112593 -0.06382699 -0.02306876 -0.20071827
-0.16998814 -0.20253532 -0.30334577 -0.18166079 0.09469479 0.2762798 -0.11050785 -0.06682468
0.1859033 -0.20114638 0.1556782 0.15534826 0.011683498 0.199167 0.048773438 -0.0104995975
0.1572112 -0.27725437 -0.077772796 0.8877141 -0.033697467 0.1165271 0.03286744 -0.17357352
