final_models/Adam/NonSamplePools/9-RABBIT-FACE-train_05-05-2022_16-07-21/models/model_4000.pt (torch, 9699 bytes, 3 tensors)

update_module.0.weight f4 [32, 48, 1, 1]
0	0xbdd4c829	-0.1038974
1	0xbe877f55	-0.26464334
2	0x3ca517b1	0.020152899
3	0x3cb40623	0.021975582
4	0xbca3687c	-0.019947283
5	0x3de03e88	0.10949427
6	0xbcada848	-0.021198407
7	0xbd6ae5e6	-0.057348154
8	0x3c876a40	0.016530156
9	0xbda2c203	-0.07947161
10	0xbdd6051e	-0.10450195
11	0x3cf6bbcb	0.030118844
12	0xbd475e17	-0.048673715
13	0xbc24ed1d	-0.010066298
14	0x3d35124f	0.044206914
15	0xbde175aa	-0.11008771
16	0x3e82ff5c	0.2558545
17	0x3ebb14d1	0.3653932
18	0x3e14f1ce	0.14545366
19	0x3e64ff28	0.2236296
20	0x3e9dcc04	0.30819714
21	0x3d6578db	0.05602346
22	0x3e3ee453	0.18641786
23	0x3ea8bf6e	0.3295855
24	0x3cda87c0	0.026676059
25	0x3daa51ce	0.08316384
26	0x3de455ea	0.11149199
27	0x3e74f95b	0.23923247
28	0x3e8e49e7	0.27790758
29	0x3e296363	0.1654182
30	0x3e1fadaa	0.15593591
31	0x3d6044ff	0.0547533
32	0x3da2e8dc	0.07954571
33	0xbe44caa1	-0.19217922
34	0x3e9c1141	0.30481914
35	0x3ec7c6de	0.3901891
36	0xbd3d9494	-0.046284273
37	0x3e52aaa3	0.20572905
38	0x3dcf61ac	0.10126051
39	0x3d741300	0.059588432
40	0x3bdb6b6d	0.0066961558
41	0x3e88b7f3	0.26702842
42	0xbdb5d19c	-0.088778704
43	0x3e379ee1	0.17931701
44	0x3ebd125b	0.36928067
45	0xbdafdbb6	-0.085868284
46	0x3e24edcf	0.16106342
47	0xbd9c6fff	-0.07638549
48	0x3dfd5def	0.12371432
49	0xbd1a30f2	-0.037644334
50	0xbd8ddf3f	-0.069273464
51	0x3e0e837a	0.13917342
52	0xbe1bbe4c	-0.15209311
53	0xbdd15d23	-0.102228425
54	0xbd160102	-0.036622055
55	0xbe1a78dd	-0.15085168
56	0xbdaca392	-0.08429636
57	0x3e04faa4	0.12986237
58	0xbdacdc93	-0.08440509
59	0x3e0631dd	0.13104959
60	0x3cf034b5	0.029322008
61	0xbcc23f69	-0.023711877
62	0xbde4348d	-0.11142836
63	0x3da6fd20	0.081537485
64	0xbd6040b9	-0.054749224
65	0x3e0c6e7e	0.13714024
66	0xbe1d20e6	-0.15344581
67	0xbe1de886	-0.15420732
68	0xbd78bf2e	-0.0607292
69	0xbe0eb8b9	-0.13937654
70	0xbe1a9510	-0.15095925
71	0xbd264be1	-0.040599708
72	0x3d188db4	0.037244514
73	0x3e129af7	0.14316927
74	0xbddd39a7	-0.10802012
75	0x3dda9375	0.106726564
76	0xbe3882f1	-0.180187
77	0x3db364f1	0.087594874
78	0xbdca91fb	-0.09891125
79	0xbe69ce5e	-0.22832629
80	0xbe36f379	-0.17866315
81	0x3bd83513	0.006598124
82	0x3df310cd	0.11868439
83	0xbdafdb03	-0.08586695
84	0xbdfd6390	-0.12372506
85	0xbe04d2e5	-0.12971075
86	0x3ca12bf6	0.019674283
87	0x3d5c0fb2	0.053725906
88	0x3e9520ad	0.29126492
89	0x3d201432	0.03908176
90	0xbe2a750c	-0.16646212
91	0x3b50a268	0.0031835083
92	0xbda1a136	-0.07892077
93	0xbd206369	-0.039157305
94	0x3d227ef4	0.039671853
95	0x3da971e5	0.08273677
96	0xbc199f61	-0.009376378
97	0xbe328529	-0.17433609
98	0xbdab0f7e	-0.08352564
99	0x3d4208c1	0.04737163
100	0xbd888216	-0.06665437
101	0x3db1b2ce	0.086766824
102	0x3dbc9a40	0.09209108
103	0xbc180d6e	-0.009280546
104	0x3e120da7	0.1426302
105	0xbe320683	-0.17385297
106	0xbd928b8e	-0.07155524
107	0xbd9961d4	-0.07489362
108	0xbe42de0c	-0.19030017
109	0x3e1ed1ce	0.15509722
110	0xbd29ecd6	-0.04148563
111	0x3db1744b	0.08664759
112	0x3ea6b2a9	0.32558182
113	0x3de58c45	0.11208395
114	0x3db2d81d	0.087326266
115	0x3cf2eed9	0.029654907
116	0x3ceb860b	0.02875044
117	0xbe2d1594	-0.16902763
118	0x3e8654e6	0.26236647
119	0x3e3a0a88	0.1816808
120	0x3a02bd06	0.0004987273
121	0x3dd74203	0.105106376
122	0x3e25a388	0.16175663
123	0x3e32ea54	0.17472202
124	0x3e1ee149	0.15515627
125	0x3ebb32e2	0.36562258
126	0x3e7675c1	0.24068357
127	0x3c36ef79	0.011165493
128	0xbd4b2332	-0.04959411
129	0xbe2b62c7	-0.167369
130	0x3e8788c0	0.2647152
131	0x3e557a54	0.20847446
132	0xbe86c14b	-0.26319346
133	0x3e868ab3	0.26277694
134	0x3e87c257	0.26515457
135	0xbd650329	-0.055911217
136	0x3db55ff0	0.08856189
137	0x3e914a30	0.28376913
138	0xbe587ac2	-0.21140578
139	0x3e96a73a	0.2942446
140	0x3e45e626	0.19326076
141	0xbce29fda	-0.027664114
142	0x3dee3683	0.11631491
143	0x3ea70044	0.3261739
144	0xbccb188e	-0.024791982
145	0x3d4cabd4	0.049968556
146	0xbe0a0f10	-0.13482308
147	0xbce6082a	-0.028080065
148	0xbdca0d4d	-0.09865818
149	0xbd6c36ee	-0.057669573
150	0xbdd8fdbc	-0.10595271
151	0x3d538762	0.051642783
152	0xbc613fd0	-0.013748124
153	0xbd742dad	-0.059613872
154	0x3bf8f73c	0.007597832
155	0xbd48931e	-0.048968427
156	0xbd6122c6	-0.054964803
157	0x3e67e854	0.2264722
158	0xbda5aa65	-0.08089141
159	0x3daacc8b	0.08339795
160	0xbdcb9af9	-0.09941668
161	0x3db64bb0	0.08901155
162	0xbd672fa6	-0.056441925
163	0xbe1230c9	-0.14276423
164	0x3e7caad2	0.24674538
165	0x3d0bfd6d	0.034177233
166	0xbea8a4e7	-0.3293831
167	0x3dcdb9ef	0.1004523
168	0xbca9178f	-0.020641116
169	0xbe45ef3a	-0.19329539
170	0xbe6a5a73	-0.22886066
171	0xbc90a5ab	-0.017657122
172	0xbe0539bb	-0.13010304
173	0xbe8939f4	-0.26802027
174	0x3e4c6285	0.19959457
175	0xbe921db2	-0.2853828
176	0x3e3558d7	0.17709671
177	0xbdbca03c	-0.0921025
178	0xbe62b49a	-0.22139207
179	0x3b0ffb23	0.0021969758
180	0xbe156592	-0.14589527
181	0xbe996f62	-0.2996779
182	0xbe0faa16	-0.14029726
183	0x3da9367c	0.08262345
184	0x3c91c255	0.01779286
185	0xbe9ad288	-0.30238748
186	0x3d9fc96a	0.078020886
187	0xbe71ed2c	-0.2362563
188	0x3d90a8ce	0.07063447
189	0xbcb2a0ef	-0.021805255
190	0xbe3bb4f6	-0.1833075
191	0xbdf5f4d8	-0.12009591
192	0x3d6c28d5	0.057656128
193	0x3d906fc6	0.07052569
194	0x3de18826	0.110122964
195	0x3de01ade	0.109426245
196	0x3d459039	0.048233245
197	0x3d7bbcab	0.061459225
198	0x3d32b294	0.043627337
199	0xbe2339fd	-0.1594009
200	0x3cfa50dd	0.030556137
201	0x3e75440f	0.23951744
202	0x3dd28996	0.10280149
203	0x3e63f21f	0.2226033
204	0x3d31bde1	0.043393973
205	0x3ddd42ff	0.10803794
206	0x3c311f78	0.010810725
207	0xbe129f0d	-0.14318486
208	0xbbdcc375	-0.0067371675
209	0xbdc4f3b7	-0.096167974
210	0xbe09d5d6	-0.13460478
211	0xbabb64c7	-0.0014297002
212	0x3e31d392	0.17365864
213	0x3d0380b2	0.032105155
214	0xbd8c0c2d	-0.0683826
215	0x3d1ddd3b	0.03854106
216	0xbd04cb1d	-0.032420266
217	0x3d9518bd	0.07280109
218	0x3d870739	0.065931745
219	0xbda15939	-0.07878346
220	0xbd7f1b64	-0.06228198
221	0x3e27ddf4	0.16393262
222	0x3c277e8c	0.010223042
223	0xbd44c627	-0.048040535
224	0x3eac0185	0.3359491
225	0xbe0ccd08	-0.13750088
226	0xba3b6e94	-0.00071499613
227	0x3df1a79d	0.11799548
228	0xbd15f0a7	-0.036606457
229	0x3da47edb	0.08032008
230	0x3c8f9ece	0.017531779
231	0xbe067428	-0.13130248
232	0xbd33f85b	-0.043938022
233	0x3dc2af21	0.095060594
234	0xbe0796bf	-0.13241099
235	0xbd8565f7	-0.06513589
236	0x3e75ab4d	0.23991127
237	0xbd475c0a	-0.04867176
238	0x3e708c92	0.23491123
239	0x3e00f16a	0.12592092
240	0x3dce03e6	0.10059337
241	0x3e7bbd66	0.24583969
242	0xbd00507c	-0.031326756
243	0x3d8eb1f1	0.069675334
244	0xbd0125bf	-0.031530138
245	0x3e0b5f8c	0.13610667
246	0x3db07b77	0.08617299
247	0x3e1ec0f1	0.15503289
248	0xbda56ca4	-0.08077362
249	0x3d9f3efd	0.07775686
250	0x3df8246e	0.121163234
251	0x3c8134d7	0.015772266
252	0xbe0e898c	-0.13919657
253	0x3e44a1e3	0.1920238
254	0xbdd71041	-0.10501147
255	0xbdc915a3	-0.0981858

update_module.0.bias f4 [32]
0	0xbbc07afa	-0.005874035
1	0xbe9818c2	-0.2970639
2	0xbbf6efc7	-0.007535908
3	0xbc2c65fd	-0.010522363
4	0xbe86b144	-0.26307118
5	0x3da9ba9c	0.08287546
6	0x3d38b715	0.045096476
7	0x3d9d0093	0.07666125
8	0xbe0e312a	-0.13885942
9	0xbe43de9c	-0.19127887
10	0x3b99ddcf	0.004695631
11	0xbe36e7aa	-0.1786181
12	0x3cf6f201	0.030144693
13	0xbd654b0d	-0.055979777
14	0x3d8b0902	0.067888275
15	0xbc3675dd	-0.011136499
16	0x3c48b24e	0.012249542
17	0x3c07a526	0.008279121
18	0x3cff05b2	0.031130645
19	0xbcc528d3	-0.024067318
20	0xbc27b280	-0.010235429
21	0x3b95663d	0.004559307
22	0xbb1f3f24	-0.002429911
23	0x3d0024cb	0.03128509
24	0xbb47d408	-0.003049137
25	0xbbd6fc6c	-0.0065608528
26	0xbcd646d9	-0.02615683
27	0xbc588d16	-0.013217231
28	0xbc4d9877	-0.0125485575
29	0xbd7979ed	-0.060907293
30	0xbd59b071	-0.053146783
31	0xbd2baef8	-0.04191491

update_module.2.weight f4 [16, 32, 1, 1]
0	0xbbf09384	-0.007341804
1	0xbd91bdcb	-0.07116278
2	0x3da9a63b	0.08283659
3	0x3e19acc7	0.15007316
4	0xbda9a965	-0.082842626
5	0xbc5f4cbb	-0.013629134
6	0x39f55cb0	0.000467991
7	0xbbe09ca6	-0.0068546114
8	0xbd2dbe8a	-0.04241804
9	0xbdd057be	-0.101729855
10	0xbd2443d2	-0.04010374
11	0xbdacd9c0	-0.0843997
12	0x3d985fce	0.07440148
13	0xbbe65c51	-0.007030048
14	0x3cdcc082	0.026947264
15	0x3d770e61	0.060316447
16	0x3c4fd858	0.012685858
17	0x3dad3fdd	0.084594466
18	0x3b98c3df	0.0046620215
19	0x3e2bb346	0.16767606
20	0x3dc39711	0.09550298
21	0x3d6c1da6	0.057645462
22	0x3db0e9cd	0.08638344
23	0x3cc9a9b0	0.024617046
24	0x3dd83fd8	0.10559052
25	0x3e01c335	0.12672122
26	0x3d8a5b75	0.06755725
27	0x3e15d64f	0.14632533
28	0x3e092385	0.13392456
29	0x3cea5b99	0.02860813
30	0x3e10b0f2	0.1413
31	0xbe0427ab	-0.12905757
32	0xbca64cc1	-0.020300271
33	0xbdd1c1cd	-0.10242043
34	0x3d9807e9	0.07423384
35	0x3e1a0e52	0.15044525
36	0xbdb8e1d3	-0.090274476
37	0xbc867c12	-0.016416583
38	0x3a4662b4	0.00075678085
39	0x3a0b51dd	0.0005314628
40	0xbd0e3518	-0.034718603
41	0xbdb773ee	-0.08957659
42	0xbd0c6c8b	-0.034283202
43	0xbde81286	-0.11331658
44	0x3dade4e4	0.08490923
45	0x3c0cdd64	0.0085977055
46	0x3ce0f243	0.02745927
47	0x3da433f1	0.080177195
48	0x3bbf082a	0.0058298307
49	0x3d5c812d	0.05383413
50	0x3c815460	0.015787303
51	0x3e1a0e52	0.15044525
52	0x3dcda8ff	0.10041999
53	0x3d34dc48	0.04415539
54	0x3dd2653d	0.10273216
55	0x3d449de8	0.048002154
56	0x3db3b908	0.08775526
57	0x3df5c6c6	0.12000804
58	0x3d860323	0.06543567
59	0x3ddf1ba7	0.10893946
60	0x3df29b86	0.1184607
61	0x3d3764aa	0.044773735
62	0x3e1ba14e	0.15198252
63	0xbda7cf43	-0.08193829
64	0xbcbca98c	-0.023030065
65	0xbdde8eca	-0.108670786
66	0x3da82ecf	0.08212053
67	0x3e191471	0.14949204
68	0xbdbfe3b3	-0.09369602
69	0xbc8c80a6	-0.017151188
70	0x3b384e7a	0.0028122948
71	0x39f19e3f	0.00046085005
72	0xbd067864	-0.032829657
73	0xbdb4f28f	-0.08835327
74	0xbd0ba70d	-0.03409486
75	0xbdf28481	-0.11841679
76	0x3db66562	0.08906056
77	0x3c951ea3	0.018203085
78	0x3ce34d03	0.027746683
79	0x3da9ff6d	0.08300672
80	0x3b424930	0.0029645674
81	0x3d5c3544	0.053761736
82	0x3c881eb5	0.016616205
83	0x3e25c452	0.16188172
84	0x3de4aa1f	0.111652605
85	0x3d4a3a40	0.049371958
86	0x3de28286	0.110600516
87	0x3d4668f3	0.04843993
88	0x3da70f93	0.081572674
89	0x3dee8f1d	0.116483904
90	0x3d8830b2	0.06649913
91	0x3dd04124	0.101686746
92	0x3df23e74	0.11828318
93	0x3d4c5175	0.04988237
94	0x3e193bc8	0.14964211
95	0xbdba577a	-0.09098716
96	0xbd254de7	-0.040357497
97	0xbddd3822	-0.10801722
98	0x3e39815e	0.18115756
99	0x3e2a0071	0.16601731
100	0xbe126618	-0.14296758
101	0xbc7f6635	-0.015588333
102	0xbb983568	-0.0046450384
103	0xb98c0649	-0.00026707564
104	0xbd136ec7	-0.035994317
105	0xbdeb09a5	-0.11476449
106	0xbd5911ba	-0.05299542
107	0xbe05dd07	-0.13072596
108	0x3e07ba8d	0.13254757
109	0x3c270292	0.010193484
110	0x3d02a318	0.03189382
111	0x3d65a1a9	0.056062374
112	0x3d324074	0.0435185
113	0x3e196966	0.14981613
114	0x3cc62152	0.02418581
115	0x3e4282a9	0.18995155
116	0xbc0850c1	-0.0083200345
117	0x3d527d08	0.05138877
118	0x3d61acb1	0.055096332
119	0x3d3715f9	0.04469869
120	0x3da15bb5	0.0787882
121	0x3d99ccde	0.075097784
122	0x3d86058e	0.06544028
123	0x3e1e6b74	0.15470678
124	0x3e1c3769	0.15255512
125	0x3e18bcd1	0.14915778
126	0x3e6b44f6	0.22975525
127	0xbd145ae3	-0.03621949
128	0xbb2d8a07	-0.0026479976
129	0xbd12238d	-0.035678435
130	0xbd7e7636	-0.062124453
131	0x3d433212	0.047655173
132	0x3dad62f4	0.084661394
133	0xbcae91c2	-0.021309737
134	0xbd1527ab	-0.036414783
135	0x3d98c6c2	0.07459785
136	0xbe5b28fd	-0.21402355
137	0x3d5fa53a	0.05460093
138	0xbe0d3d7f	-0.1379299
139	0x3d587d91	0.052854124
140	0x3e7f7a9d	0.24949117
141	0xbdc4e30f	-0.096136205
142	0xbe24b2a6	-0.16083774
143	0xbd90fd4a	-0.07079561
144	0xbe1742df	-0.14771603
145	0xbe831fc8	-0.25610185
146	0x3cd5e3f2	0.02610967
147	0x3c602cbd	0.013682541
148	0xbbda40ad	-0.006660542
149	0x3ee47985	0.44623962
150	0x3dab3c72	0.083611384
151	0xbc0560a4	-0.008140717
152	0xbe2194a9	-0.15779366
153	0x3e1699ca	0.14707103
154	0x3e505956	0.20346579
155	0x3d8f1646	0.0698667
156	0xbcdc8e7a	-0.026923407
157	0x3dbb1e40	0.09136629
158	0x3e43fc4d	0.19139214
159	0xbc4ab0bc	-0.012371238
160	0x3d2cea65	0.042215724
161	0x3ce3cda1	0.027808012
162	0xbd67677c	-0.056495175
163	0xbdd4cae7	-0.10390263
164	0x3d340ade	0.043955676
165	0xbd0eaf90	-0.0348354
166	0xbcc809c8	-0.024418727
167	0x3c536717	0.0129029965
168	0xbdd9231c	-0.106024
169	0x3d2e5380	0.0425601
170	0x3c3b884c	0.01144607
171	0xbd9c331e	-0.07626937
172	0xbc00787a	-0.007841224
173	0x3d71c2ac	0.059023544
174	0x3cb2b48e	0.02181461
175	0x3be436a8	0.0069645233
176	0xbcce6f50	-0.025199562
177	0xbd1d65b0	-0.038427055
178	0xbdad043f	-0.084480755
179	0x3e903870	0.28168058
180	0x3d93d05c	0.07217476
181	0x3dfe140e	0.12406169
182	0xbcfe0688	-0.031008974
183	0xbcb445ed	-0.022006
184	0xbd06dfd1	-0.03292829
185	0x3df7a17e	0.12091349
186	0x3dad38fb	0.08458134
187	0xbd729b99	-0.05923042
188	0xbd0b44d7	-0.034001198
189	0x3d6d7090	0.057968676
190	0xbdaa24cb	-0.08307799
191	0x3e85cdd4	0.26133597
192	0xbdb64b10	-0.08901036
193	0x3e3d394a	0.18478885
194	0xbe1f278e	-0.15542433
195	0xbd3ca797	-0.046058264
196	0x3d6bfe12	0.057615347
197	0x3cd1f4cb	0.025629422
198	0xbdc8790e	-0.09788714
199	0xbd45de03	-0.04830743
200	0x3db128fe	0.08650397
201	0x3bcf2cf1	0.006322496
202	0x3d137833	0.036003303
203	0xbd6c979f	-0.057761785
204	0xbd5b5f87	-0.0535579
205	0x3dcb397a	0.09923072
206	0x3d862f15	0.06551949
207	0x3d1bdc09	0.03805164
208	0xbdbeea43	-0.093220256
209	0x3e0fead6	0.14054427
210	0xbda0445f	-0.07825541
211	0x3e2c9a3f	0.16855715
212	0xbda80f6a	-0.08206065
213	0x3e51fe9a	0.20507279
214	0xbd41d5a6	-0.04732289
215	0x3cca6a35	0.024708847
216	0xbe3848de	-0.17996547
217	0xbc2556c5	-0.010091488
218	0xbdb8993f	-0.090136044
219	0xbe53bef4	-0.20678312
220	0xbc939563	-0.01801557
221	0xbd158163	-0.036500346
222	0x3e885d7f	0.26633832
223	0x3e017909	0.12643827
224	0xbd5433fe	-0.051807396
225	0x3e0d53d0	0.13801503
226	0x3c76683b	0.015039499
227	0x3d9ea7c0	0.077468395
228	0x3d80c4bb	0.06287523
229	0xbe28c903	-0.1648293
230	0xbce73878	-0.028225169
231	0xbdc527d0	-0.09626734
232	0x3e2ea211	0.17054011
233	0xbdcfb776	-0.10142414
234	0x3ce00da6	0.027350258
235	0x3c75366c	0.0149665885
236	0xbe0616e6	-0.13094673
237	0x3e7a347b	0.24434082
238	0x3e2a2b11	0.16617991
239	0x3e5b992d	0.2144515
240	0xbd0e304b	-0.034714025
241	0x3e47a4fa	0.19496527
242	0xbe214f70	-0.15752959
243	0x3e8d791f	0.2763147
244	0xbcacdff8	-0.02110289
245	0xbdb472c6	-0.08810954
246	0xbdecb842	-0.11558582
247	0x3d9edaa5	0.07756547
248	0x3d4d2e0a	0.050092734
249	0xbd666ede	-0.056258075
250	0xbdbd9e79	-0.09258742
251	0xbe2c93d7	-0.16853271
252	0x3dce0270	0.10059059
253	0xbda732e4	-0.081640035
254	0xbe1b677a	-0.15176192
255	0x3c234767	0.009965754
