final_models/Adam/NonSamplePools/9-RABBIT-FACE-train_05-05-2022_16-07-21/models/model_17000.pt (torch, 9699 bytes, 3 tensors)

update_module.0.weight f4 [32, 48, 1, 1]
00000000: d177 0cbe f088 8dbe e273 873d fc4f d0bb
00000010: 7f58 dbbc 714b 263e ab9d 7abd d413 74bd
00000020: 491a a43d 878d 39bc 6401 0dbe 202c a5bd
00000030: 2c2e f6bc 92b8 86bc c9b9 2c3e a28f 173d
00000040: 09ab 863e 6e0c 0a3f 7116 533e ba11 3f3d
00000050: 9df6 273e 40a8 a23d 3a38 303e 9b7b a73e
00000060: 91f6 14bd 140c c13d d822 573e b283 503e
00000070: c5a7 15be 4c93 d33d 15a3 fc3d 6a4e 433e
00000080: 9541 95be ddb7 c4be 504f b63e 4d59 a73e
00000090: dbba 22be e3af db3d 9f72 6a3d 2ca4 843d
000000a0: 078c 02be 4aa3 ef3d b3d6 97be bb44 6f3e
000000b0: 2f96 073f 9879 11be 50d8 103d bb5f 4bbe
000000c0: 52b2 f43d 0163 79bd d71b 12bd 698d 323e
000000d0: 4175 39be f731 aabd be3b 6d3c b283 18be
000000e0: 356c a7bd 430d 053e 318b 01bd c024 c93d
000000f0: 7906 edba 4748 b5bd 1674 97bd 7c17 a83c
00000100: 62c0 0dbe cf99 803d 186f 1abe 0ae5 a5be
00000110: 1f8f b2bd fb6e 15be b6f2 12be 765a debd
00000120: d08a d4bd 0fd6 b53d 8534 d7bd 24b6 ce3d
00000130: 8c15 9cbe 6d41 bb3d ca6e 47be 09c5 c5bd
00000140: 33e0 d4bd c56c 1ebd 67b0 a43d 6ef9 0cbe
00000150: ee65 5ebe b88b b93c 7471 8cbd cf52 483d
00000160: 24fb 813e d884 b73c 6eda 5cbe abd3 723d
00000170: d734 4b3d c7c4 eabc 11d6 df3d 85d1 d0bc
00000180: a689 2c3b 9e3a 33be 0c0f 8abd d7eb 873d
00000190: 6292 edbd 4e91 143e e870 d93d f3ed 73bd
000001a0: 09b8 533e 77ef bcbe 171e dabc f6fa febd
000001b0: b018 3ebe 18dd 803e f6a0 db3d bebf 223e
000001c0: 5d51 d23e 275d ca3d c572 7dbd de3c d73c
000001d0: 5295 07be 296d 71be a286 813e 5fba ae3e
000001e0: f680 48be e480 2abe 2ecf 18bb 10ab 813e
000001f0: 76b9 9c3d 1e36 003f dda4 9d3e 46cf 20bc
00000200: 3c8d b0bd 9b81 a7bd 65c3 e83e c5d8 a23e
00000210: 3b60 acbe c81e 883e aab7 9f3e ac6a 30be
00000220: 38d7 883d 3e2a b13e 1e90 46be 7b6a f13e
00000230: 2f11 5a3e 1a78 df3b 9b0c 673e 2e15 953e
00000240: f4a7 fcbd fd7c a63d c9b9 18be 29c1 edbd
00000250: c0e7 a4bd 014c 7fbd bf57 3cbe 387e 4b3d
00000260: 7a45 8c38 4245 93bd bea8 243d 43fe 7ebd
00000270: b1b6 583d 1975 b73e 8db6 5dbe 72af 5c3e
00000280: d2a1 23be 25dc 5c3d 8930 b2bd 6af6 8abe
00000290: 952f e03e 58eb 28bc dae1 e1be 803c 7e3e
000002a0: c355 a2bd d380 38be 9364 09be 12ef 09bd
000002b0: 2906 5ebd cb68 8ebe 6fa1 843e 1d03 bcbe
000002c0: c9b5 a63e b29a 57be c88b a8be 515b a73d
000002d0: e5d2 44be 8433 a8be b57e 31be 91fa 003e
000002e0: 028c f63d d9e0 debe 9cb0 1b3d f86b 81be
000002f0: 195d 363e 84cd 79bc 5be3 0abe c249 ff3c
00000300: 3340 7e3d dff3 4c3d 4dfe c33d 8ffc 143e
00000310: f852 063c 6dc6 b53d b6b9 be3d e1b1 20be
00000320: b128 463d 63dd 723e d846 343e da4c 413e
00000330: 9a86 8abd 29f2 d73d ec6f 933d 9b2a 69be
00000340: ebc9 4dbd 8e6d 34bc 58f1 90be 3c18 e23c
00000350: 2388 5b3e a70a 2bbd 456e f0bd 77ec 0d3d
00000360: d896 37bd 829e 773d 2e9a a13d 50eb 05be
00000370: 4be2 0abc 75da 383e 9784 bdbc 0508 5bbd
00000380: 815a 073f ad02 2dbe aee6 6abd ae23 6c3d
00000390: 2051 f2bd 314f 33bd 8cab 7c3d c527 c8bc
000003a0: d803 6e3d c61b ad3e 973b 3bbe 207c e5bc
000003b0: 4b2e 1d3e 2fb2 dbbd 4e72 8a3e f970 103e
000003c0: d73c 71bd 1c6d 523e 86f7 653d 5f3b 62bd
000003d0: 09d7 d8bd 11ca 173e cd9c 4ebd 5bcf 813d
000003e0: 4dd8 94bd 7bfa a63c 0363 183e f320 7e3d
000003f0: b5ad 6abd cb22 3c3e 6940 59bd 457a 2bbe
-0.13717581 -0.27643538 0.066139 -0.006357191 -0.026775597 0.16239716 -0.06118552 -0.059589222
0.08012826 -0.011325247 -0.13770062 -0.08065057 -0.030051313 -0.016445432 0.16867746 0.037002213
0.26302364 0.53925216 0.2061403 0.046647765 0.16402669 0.079422474 0.17208949 0.3271149
-0.036367957 0.09426132 0.21009386 0.20362738 -0.1461478 0.10330829 0.12335793 0.19072881
-0.29151598 -0.38421527 0.35607386 0.3268532 -0.15891592 0.10726907 0.057238217 0.06476626
-0.12748729 0.11701067 -0.2965599 0.23366062 0.52963537 -0.1420654 0.03536254 -0.19860737
0.119480744 -0.060885433 -0.03567108 0.17436756 -0.18111135 -0.08310311 0.014479576 -0.14893988
-0.08174936 0.1299334 -0.031626884 0.09821463 -0.0018083594 -0.088516764 -0.073951885 0.02051901
-0.1384292 0.06279337 -0.15081441 -0.32401305 -0.087187044 -0.14593117 -0.143504 -0.10857098
-0.10378039 0.08878719 -0.10508064 0.10093334 -0.3048519 0.09143338 -0.19475856 -0.09656722
-0.10394325 -0.03867795 0.080414586 -0.13767025 -0.2171857 0.02264963 -0.06857577 0.048907097
0.25386918 0.022402212 -0.215677 0.059283894 0.04961094 -0.028658284 0.10929502 -0.025490532
0.0026327162 -0.1750283 -0.06741151 0.0663678 -0.11600186 0.14508554 0.10617238 -0.059553098
0.20675673 -0.36901447 -0.026625676 -0.12450211 -0.18564105 0.2516868 0.1072406 0.15893456
0.410777 0.09881049 -0.06187703 0.02627414 -0.13240555 -0.23576798 0.2529803 0.34126565
-0.19580445 -0.1665073 -0.0023316848 0.25325823 0.07652561 0.50082576 0.30789843 -0.009815043
-0.08620688 -0.08179017 0.45461574 0.31806007 -0.33667168 0.26585984 0.31194812 -0.17228192
0.06681675 0.3460254 -0.19390914 0.4715155 0.21295618 0.006819737 0.22563402 0.2911772
-0.12336722 0.081293084 -0.14914621 -0.11609108 -0.08052015 -0.062328342 -0.18392847 0.04968092
6.688661e-05 -0.07190944 0.040199988 -0.0622542 0.052908603 0.35831526 -0.21651669 0.21551302
-0.15979698 0.053920884 -0.087006636 -0.27141124 0.43786302 -0.010310017 -0.44117624 0.24827766
-0.07926514 -0.18017893 -0.13417272 -0.03367526 -0.054205094 -0.27814326 0.25904414 -0.36721125
0.32560566 -0.21055105 -0.32919145 0.08171714 -0.19221075 -0.32851803 -0.17333491 0.12595583
0.12038423 -0.4353092 0.038010225 -0.25277686 0.17808951 -0.015246753 -0.13563292 0.0311631
0.062072944 0.05003726 0.095699884 0.14549468 0.008198492 0.08875737 0.09312765 -0.15692855
0.04837865 0.23717265 0.1760515 0.18876973 -0.067639545 0.10544235 0.07199082 -0.22770159
-0.050241392 -0.011012448 -0.2830913 0.027599446 0.21438651 -0.041758206 -0.11739782 0.03464934
-0.04482159 0.0604539 0.078907356 -0.13078046 -0.008476804 0.18052085 -0.023134513 -0.053474445
0.52872473 -0.16895552 -0.0573489 0.057651214 -0.118318796 -0.043776695 0.061687037 -0.024433026
0.058109134 0.33810252 -0.1828445 -0.028013289 0.1534969 -0.10727345 0.27040333 0.14105596
-0.058895912 0.20549434 0.05614426 -0.055232402 -0.1058789 0.14823176 -0.050442506 0.06338378
-0.072678186 0.02038311 0.1488152 0.06204314 -0.057294566 0.18372647 -0.053039942 -0.16745861

update_module.0.bias f4 [32]
00000000: dc59 11bb 9c87 d0be ae74 47bd cc82 6bbc
00000010: fad2 bbbe 46d5 8c3c a66e 623c 6629 99bb
00000020: 920e 8abe 2c3a 92be a27a 333b 7b93 72be
00000030: 4fad cdbc 7023 f4bd acf8 643c ad08 69bc
00000040: 9fd6 47bc a1cb f8bc 6bdc 453b 94c9 32bd
00000050: cf8d 1fbd f790 ea3a d9af aabc 8e5d 43bb
00000060: 2c8c 14bd 6a57 44bc b8d5 a8bc 96d1 1abd
00000070: 43a8 6ebc ce30 d1bd 703b 7ebd 77e1 2abd
-0.0022178805 -0.40728462 -0.04869526 -0.014374446 -0.366844 0.01719154 0.013820326 -0.0046741245
-0.2696424 -0.28560007 0.0027386327 -0.23689072 -0.025107054 -0.11920822 0.013975304 -0.01422326
-0.012197166 -0.030370535 0.0030191194 -0.04364927 -0.0389536 0.0017895986 -0.020835804 -0.0029810402
-0.03626649 -0.011983732 -0.020609722 -0.037797533 -0.014566484 -0.10214387 -0.062068403 -0.041718926

update_module.2.weight f4 [16, 32, 1, 1]
00000000: 5bd5 883b c1d6 4abe 9e4c 293e 1138 653e
00000010: 8f4b 28be 1cec 343c afdf 5a3d f402 85bd
00000020: df22 a8bd dd69 1ebe 207e 90bd 6626 e8bd
00000030: 1d18 bf3d 872b b1bd 38da f43c acbd a33d
00000040: fa1a e73c 15d2 133e ee5d 4e3d 3efd 913e
00000050: b638 093e 4cf8 8d3d e74f 463e 1bb7 813d
00000060: 4070 5b3e b2e9 5e3e e1e8 ec3d 7724 613e
00000070: 0d31 823e 64ea b93c c6f4 373e f385 49be
00000080: cd04 8dbb e742 50be c68d 123e 29f1 573e
00000090: 69c1 2cbe 3a0b 693b 00ab 263d ce45 3abd
000000a0: a7f1 68bd c1c4 05be 31a0 84bd 20a4 20be
000000b0: 939d 013e bde5 04bd 2239 503d 2c30 373e
000000c0: 9134 16bc 936a d93d 6081 543d 72e2 603e
000000d0: 3b54 0b3e 4258 273d 9c93 6a3e 4133 cf3d
000000e0: b7d1 463e b7d6 623e 5772 af3d b5a1 263e
000000f0: 56a5 343e ecb2 563d e0f2 4d3e 4d6f 27be
00000100: a37c 16bc 1c15 4bbe ea12 173e e444 513e
00000110: 2c17 31be a241 213c 67e9 2d3d 7da4 41bd
00000120: e47c 4cbd 8026 08be e869 8fbd 077b 2fbe
00000130: 2c28 043e 2ea2 89bc 13b1 6a3d 4870 3f3e
00000140: 7ca9 48bc 7a09 f03d 5b9e 4f3d 819f 6d3e
00000150: 01ba 133e 4033 323d 9821 723e acd2 db3d
00000160: e044 423e 34a0 613e f83f b03d 5245 1d3e
00000170: aa34 343e f493 693d 19ba 503e ac5b 39be
00000180: a28f 70bc a093 86be 1b20 8d3e 7df4 623e
00000190: 8241 71be c430 bf3c 5ca3 b33c 1e3a afbc
000001a0: 6c51 acbd 152d 4bbe 7ff1 85bd 082b 77be
000001b0: 8ccb 373e 2fc6 963c df77 5c3d 651c 973d
000001c0: dfad b63d 038e 753e e0c4 913d ec28 983e
000001d0: 5333 83bd d5b6 0a3d 883d 323e ae26 fc3d
000001e0: 6ead 4c3e 9e45 1c3e 17d7 dc3d 1d04 6f3e
000001f0: 78fe 6c3e b44d 893e eee6 ab3e a022 87bd
00000200: 4e11 673d 14dd 07bd 1203 10be 0f43 b1bd
00000210: 910d 2f3d cdf0 87bb 3070 9fbb b9cf c23d
00000220: 2a82 b1be 0bdb 253e da19 89be 39ab da3d
00000230: 180d c43e 9e2e 28be d4b5 f3bd 952d 1fbe
00000240: eab3 6fbe 28a0 aebe aba9 893d 8845 ee3a
00000250: f96e 29be 655b 023f 1f93 f63d 5d7a 85ba
00000260: efdf e2bc 74d2 213e f752 6f3e e422 03bd
00000270: 3ad4 36bd 027f 243e 457f 463e 507b 983e
00000280: 1c9e 1c3c 89b1 c83c 9b4b 13be 3701 45be
00000290: 492b bf3d 315a 82bd 85f1 073d 4125 203d
000002a0: 0985 1ebe 333c 253d 0321 98bc 9129 09be
000002b0: df3a 6dbc b6c7 6e3e 7124 48bd 0641 8f3e
000002c0: 1384 f8bc c9e4 23be 1e6f 17be 939f f63e
000002d0: e94f a33d 0416 603e 21a1 1e3d c620 4c3d
000002e0: 6dc2 84bd 1e1f bf3d 754d 0a3e b158 22be
000002f0: e5b8 25be 7730 933e a1af c1bd 9f39 f13e
00000300: 698f 68be b09f 603e 8e5f 30bd 25f3 b1bd
00000310: 385d c53d 2d72 193d c912 b3be a50d 1bbd
00000320: 4a78 4e3e d039 b2b9 7ed3 1b3b fd76 f3bd
00000330: cd6a a6bd bd2a 363e bbf8 0e3e 1506 a13d
00000340: 5179 f2bd 99ba 8f3e b463 76be ba45 e13d
00000350: e53d 4fbe edfc a53e 6a44 7d3d 8daf cb3d
00000360: abc5 8abe dc7f 8c3b e68f 0fbe 9754 41be
00000370: 04fd 063c 7ff5 49bd d845 b53e eb76 223e
00000380: 3261 81be 7ecc 2d3e dcf7 273e e031 2e3e
00000390: 6e47 d73d 6912 adbe 23fc ab3d 3bfa 11be
000003a0: e9d4 673e 2041 16be 6a2d 903d 7cf7 b23c
000003b0: a137 5abe 9a26 1e3e c9d4 cb3d 0e04 af3e
000003c0: 8b93 693d 2f20 383e 5963 52be a980 aa3e
000003d0: 27df eabc d5c1 06be e1ef 72bd 5acc f73d
000003e0: 4a9a 79bc 4eb8 d33b 618d fbbd f6b4 23be
000003f0: 03fd fd3d 96f4 66be bcac 2dbe 2cb5 b6bd
0.0041758246 -0.19808485 0.16533133 0.22384669 -0.16435073 0.011042621 0.053435978 -0.06494704
-0.08209776 -0.15470071 -0.070553064 -0.11335449 0.09330771 -0.0865088 0.029889211 0.079951614
0.028211106 0.14435609 0.050382547 0.2851352 0.1340054 0.069321245 0.19366418 0.06333753
0.21429539 0.21768835 0.115678556 0.21986566 0.25428048 0.022694774 0.17964467 -0.19680004
-0.004303551 -0.20338021 0.14311895 0.21088089 -0.16870655 0.003555967 0.040690422 -0.045476727
-0.056871083 -0.13063337 -0.064758666 -0.15687609 0.12657766 -0.032445658 0.050835736 0.1788947
-0.009167806 0.106160305 0.051881194 0.21961382 0.1360635 0.040855654 0.22907871 0.10117198
0.19415937 0.2215222 0.085667305 0.16272624 0.17641196 0.052416727 0.2011218 -0.16351052
-0.009184989 -0.19832271 0.14753309 0.20436436 -0.17293996 0.009842308 0.042458918 -0.04727601
-0.049923792 -0.13295937 -0.07002622 -0.17136775 0.1290595 -0.016800966 0.057297777 0.18695176
-0.0122474395 0.117205575 0.05068813 0.23205377 0.14426424 0.043505907 0.23645627 0.10733542
0.18971586 0.22033769 0.08605951 0.15358475 0.17598215 0.057025865 0.2038349 -0.18101376
-0.014682682 -0.26284504 0.27563557 0.22163577 -0.23560145 0.023338683 0.021928482 -0.021390017
-0.084139675 -0.19841416 -0.06540202 -0.24137509 0.1794874 0.018405048 0.053825255 0.07378463
0.08919882 0.23979954 0.07117629 0.2971872 -0.06406274 0.03386577 0.17406285 0.12312065
0.19988033 0.15260932 0.10783213 0.23341413 0.23143947 0.26817095 0.33574623 -0.06598401
0.056412987 -0.03316982 -0.14063671 -0.086553685 0.042737547 -0.0041485787 -0.0048656687 0.09512276
-0.3466962 0.1619684 -0.26777536 0.106771894 0.3829124 -0.16424033 -0.11899915 -0.15544732
-0.23408476 -0.34106565 0.06721815 0.0018178681 -0.16546239 0.50920707 0.1203978 -0.0010183562
-0.02769467 0.15802938 0.23371492 -0.032015696 -0.04463599 0.16064075 0.19384487 0.2978158
0.009559181 0.024498718 -0.1438431 -0.19238745 0.09334428 -0.06364859 0.033189315 0.039098028
-0.15480436 0.040340614 -0.018570429 -0.13394763 -0.014479368 0.23318371 -0.04886288 0.27979296
-0.030336415 -0.16005243 -0.14788482 0.4816862 0.07974226 0.21883398 0.038727883 0.049835943
-0.06482396 0.09332107 0.1350611 -0.15854146 -0.16183813 0.28747913 -0.09457327 0.47114274
-0.22710957 0.21935916 -0.043059878 -0.08688954 0.09636921 0.037462402 -0.3497527 -0.03785481
0.20163074 -0.0003399388 0.0023777182 -0.118879296 -0.081258394 0.17789741 0.1396207 0.07862488
-0.118395455 0.2807205 -0.24061471 0.109996274 -0.20238455 0.3241953 0.061832823 0.09945593
-0.27103934 0.004287703 -0.14019737 -0.18879925 0.008239035 -0.04930639 0.3540485 0.15865676
-0.25269467 0.16972539 0.16403145 0.17011213 0.10511671 -0.33803108 0.08397701 -0.14255612
0.22639813 -0.1467328 0.07039912 0.021846525 -0.21310283 0.15444413 0.09952695 0.3418278
0.057025474 0.17981027 -0.2054571 0.33301285 -0.02867086 -0.13159879 -0.059310798 0.12099524
-0.015234539 0.00646118 -0.12282825 -0.15987 0.12401774 -0.2255424 -0.16960424 -0.089212745
