automata_ex/logs/withoutPool/9-CARROT-train_05-05-2022_17-55-17/models/model_18000.pt (torch, 9699 bytes, 3 tensors)

update_module.0.weight f4 [32, 48, 1, 1]
000000 1e dd 71 3e 44 a4 11 3d 44 29 76 bc 0f e0 93 3e
       0.23619506 0.035557047 -0.015024487 0.2888188
000010 11 2e 58 bd f4 d7 30 be 45 2a 8e 3d ac c8 25 be
       -0.052778307 -0.1726988 0.06941656 -0.16189831
000020 40 40 c6 bc 8f 0d 7c 3e 34 89 cc bd 54 90 e0 bc
       -0.024200559 0.24614547 -0.09987107 -0.027412571
000030 ac 42 04 bd 96 83 77 bd 43 d9 45 3d f7 0d ff 3d
       -0.032290146 -0.060428225 0.0483029 0.124538355
000040 3c c2 24 bd 2a 57 c5 3d 0c 51 6a bc ee 38 05 bd
       -0.0402243 0.09635766 -0.01430155 -0.032524996
000050 2f 99 7b bd 9d b2 fd bd 80 48 13 be 3f d7 01 bb
       -0.061425384 -0.123875834 -0.14383125 -0.0019812135
000060 ea 08 89 3d 3e fd 04 be 33 e3 85 3e ed c1 61 3d
       0.06691153 -0.12987229 0.26149902 0.055116583
000070 02 8a 81 3c af 1a 08 3e 17 9a f1 3d f5 ab 85 3d
       0.015812878 0.13291429 0.117969684 0.06526939
000080 e2 22 37 bc 63 6c d0 bd 10 a1 c5 3c 2a c6 60 bd
       -0.01117775 -0.10176923 0.024124652 -0.054876484
000090 21 5d 3b bd 28 82 f9 bc db b0 08 3e 48 39 3b 3d
       -0.04574311 -0.030457571 0.13348715 0.045708925
0000a0 5c 56 d6 3c 02 65 58 3e ba ff 5a 3d 70 8a 3c bc
       0.026164226 0.21132281 0.053466536 -0.011507615
0000b0 52 24 f4 bd b3 9f fe bd 89 ef 05 3e 4c 74 21 3e
       -0.1192099 -0.12432804 0.13079657 0.1576702
0000c0 db e1 8e be 4d d2 95 bd 46 fe 49 bd af c7 84 bd
       -0.2790669 -0.07315502 -0.04931476 -0.06483399
0000d0 af 1a 54 3e f9 7c 7d bc 78 fc 23 be b2 ef 26 3e
       0.20713304 -0.01547169 -0.16014278 0.16302374
0000e0 d8 b2 f1 3e 32 0d ae 3d 95 e9 17 3e 1c 25 ef bd
       0.4720676 0.084986106 0.14835198 -0.11677
0000f0 f4 2d ec bd dd d6 1f be 18 11 05 be f9 68 d2 bd
       -0.11532202 -0.15609308 -0.12994802 -0.10273928
000100 6f 31 5b 3c f0 7e b7 bd d2 62 1f 3e d7 a1 2a 3e
       0.013378485 -0.08959758 0.1556504 0.166633
000110 f2 e2 e4 3c 26 79 72 bd b2 3f c5 3d 77 36 34 be
       0.027940247 -0.059197567 0.096312895 -0.17598902
000120 2b 5c 53 3e db b3 ee bd 0e 09 6b 3d f0 6c 8d 3d
       0.20640628 -0.116553985 0.057381682 0.06905544
000130 89 a6 7f 3e f3 a7 8d 3e 10 61 73 bd a6 ea 55 3e
       0.24965872 0.27667198 -0.059418738 0.20890293
000140 34 a4 48 be 91 e5 1b bd ea 54 e5 3d c1 d5 50 be
       -0.19593889 -0.03806073 0.11197837 -0.2039404
000150 89 44 6b be e6 b6 8f 3e 6b 20 93 3c 2c d1 9f 3d
       -0.22975363 0.28069228 0.017959794 0.07803568
000160 87 4b 3a 3e 92 39 8e bd ab d6 62 3d 35 df 78 3d
       0.18192874 -0.069445744 0.055380505 0.06075974
000170 5a 92 1f be 25 52 2a be 5d 97 e6 3d 8a 18 87 3d
       -0.15583172 -0.16632898 0.11259339 0.06596477
000180 45 90 9d 3c 95 a2 05 3e 06 23 7c 3d c5 fd b4 bd
       0.019233832 0.13050301 0.06155684 -0.08837465
000190 61 86 46 3d 69 c7 0c bc 81 be 9a 3d e1 37 b6 be
       0.048467997 -0.008592465 0.07555867 -0.35589507
0001a0 0b 64 7f 3e ee 2d fe bd 34 d7 ad bb b5 5b a2 3d
       0.24940507 -0.12411104 -0.005305195 0.07927648
0001b0 9a 72 71 be b3 f5 e1 bd 52 82 8f be 45 a3 2c be
       -0.23578873 -0.110331915 -0.28029114 -0.16859157
0001c0 52 04 1c be 8f d2 40 3d 1e 7f 1d 3d a6 6e 7d 3e
       -0.15236023 0.047075804 0.038451307 0.2474924
0001d0 cd d9 08 be f0 0d ee 3c 78 f7 a8 bc cc ec 6e 3e
       -0.13364334 0.02905938 -0.020625815 0.23332518
0001e0 00 b8 b8 3d 4a 51 ce be de 7e 61 3e 21 a5 82 3d
       0.0901947 -0.40296394 0.22021052 0.06379152
0001f0 2c 24 6c bc e1 aa a2 3e b6 fc b1 3e 21 e7 32 3e
       -0.014412921 0.31770995 0.34763116 0.17470981
000200 87 3d 08 be de 3c 07 3a c0 c6 d7 3d d6 82 ac bd
       -0.13304721 0.0005158911 0.105359554 -0.084233925
000210 5f 58 4d be 74 92 34 3e 45 26 c9 bd 0b 7c 8e 3e
       -0.20053242 0.17633992 -0.098217525 0.27829012
000220 1e 7c 49 3d ce 08 84 bd 20 2c 57 be 52 11 8c 3e
       0.049190633 -0.06446992 -0.21012926 0.27356964
000230 75 0f 90 be 16 8e 97 be 8d 87 05 be f2 0d 63 3e
       -0.28136793 -0.2960059 -0.1303999 0.22173288
000240 c6 f9 58 be 3e 14 43 3c 62 65 2e bc ce 1e b1 bd
       -0.21189031 0.011906682 -0.010644289 -0.08648454
000250 c3 5e 6b 3e 98 a4 c8 bc c9 4c 2a 3e 7b 7e 09 3d
       0.22985367 -0.024492547 0.16630854 0.033567887
000260 12 16 e8 3d e2 e4 e5 bd 63 ba 81 3d c7 b5 f3 bd
       0.113323346 -0.112252966 0.063343786 -0.11899906
000270 d8 5b 7c be 32 9b 29 bd 17 90 b3 be 86 ea 8b be
       -0.2464441 -0.04140777 -0.3507087 -0.27327365
000280 08 46 7c 3d 97 23 ae be b2 e4 09 be f5 4c c1 3e
       0.061590225 -0.34011528 -0.13466147 0.37754026
000290 28 19 55 bd d7 5b c0 be 29 85 b5 bc bc 1b 9f be
       -0.052025944 -0.37570068 -0.022158222 -0.31075847
0002a0 9a dd f8 3d 65 f2 30 3e fa 42 3e be eb 93 71 be
       0.12151642 0.17279966 -0.18580237 -0.23591582
0002b0 2c 37 13 3f 4f ec db 3c fd 75 13 be 56 55 aa 3e
       0.5750606 0.02684608 -0.14400478 0.3326823
0002c0 1d 76 82 be c8 59 b7 3c 92 6d 5c 3e 80 cd 30 be
       -0.25480738 0.022381678 0.21526173 -0.17265892
0002d0 9f ea b1 bd 6e a6 aa 3e 55 f3 01 be f1 a2 57 be
       -0.086873285 0.333301 -0.1269048 -0.21058251
0002e0 9d b8 49 3e a4 45 8d be 6f 0f 9a bd c2 92 ec 3d
       0.1969933 -0.27592194 -0.07522475 0.11551429
0002f0 9a 49 05 be 61 bb ae be 37 40 5e 3e 34 b3 0a be
       -0.13016358 -0.34127334 0.21704184 -0.13544923
000300 a0 65 40 3e 56 46 cb be 5c 9e 2f be 13 0c fb 3d
       0.18788767 -0.397021 -0.17150253 0.12258162
000310 0b 70 ae bd 16 39 c8 3c 38 55 e9 3d 63 c6 d2 3c
       -0.08517464 0.024441283 0.11393207 0.025729364
000320 20 7d bb 3d 19 2b 17 3e bb 38 8f 3d c7 f3 3c bd
       0.09154725 0.14762534 0.06993242 -0.04613092
000330 59 dc 23 be bc e8 4f 3b 37 3e 27 3e ef 12 dd 3b
       -0.16002025 0.0031724414 0.16332327 0.006746642
000340 1c bb 53 3d 37 25 51 3d 33 3b 31 bd 27 87 65 3d
       0.051692113 0.05106088 -0.043269347 0.056037094
000350 c2 26 60 be e5 04 f8 3d 1a 6c 64 bd e0 41 37 3c
       -0.21889785 0.121103086 -0.055767156 0.011185139
000360 97 cb 5a be 9a b2 a6 3e 05 d5 da 3d d5 a3 a7 3d
       -0.21366726 0.32558137 0.106851615 0.08185545
000370 97 97 6a bb e8 e2 57 3d d9 46 d7 bd 87 5d 08 3d
       -0.003579592 0.05270663 -0.1051156 0.03329232
000380 75 55 62 be 7b ad 96 bd e4 d6 3d 3e 8d 09 8c be
       -0.22102912 -0.073573075 0.18539006 -0.27351037
000390 99 5e 6f 3c e9 f5 c3 3d b6 46 db 3c 5c 72 61 3e
       0.014609956 0.09568388 0.026767116 0.22016281
0003a0 c3 0e 14 3d 73 72 83 3d ca f4 02 3e 7e ee 19 3e
       0.03614689 0.06418314 0.12788692 0.15032384
0003b0 0a 10 af bd 2f c9 4a be 45 6d a8 3d 2a b8 ab 3c
       -0.08547981 -0.19803308 0.082239665 0.02096184
0003c0 3f 41 d1 3c 4b e2 89 3c 6b 25 07 3d 1d 1b 82 3d
       0.025543807 0.016831538 0.03299467 0.06352828
0003d0 b1 ef 2f bd 13 65 18 bd f2 61 c3 3c 71 91 f9 bd
       -0.042953197 -0.037205767 0.023850415 -0.12185944
0003e0 4c 39 0c 3e b6 50 3d bd d3 2b 11 be 3d ba e3 bd
       0.13693732 -0.04621955 -0.14176874 -0.111195065
0003f0 c3 c6 a8 be e7 03 7f bc d2 c1 28 be 50 e0 81 3d
       -0.32964143 -0.015564895 -0.16480187 0.06341612

update_module.0.bias f4 [32]
000000 b4 47 b6 be 56 ad 26 bd 84 bb 46 bc 38 70 38 bd
       -0.3560158 -0.04069265 -0.012129668 -0.045028895
000010 a9 ff b8 be 8d 18 16 bc 79 59 7b bc d9 eb 1f bc
       -0.36132553 -0.009161127 -0.015341156 -0.00976082
000020 89 dd e9 3a 22 79 01 bd e2 c8 a5 bc b9 ba 0b 3c
       0.0017842512 -0.031609662 -0.02023739 0.008528405
000030 32 4f a8 bc 4d 45 83 bc d5 21 74 bc 7e 03 52 bc
       -0.020545576 -0.016024256 -0.014900644 -0.012818215
000040 8b ff 33 3a ea 97 03 3b f1 de 1f bb 72 d6 a9 bc
       0.0006866387 0.0020079562 -0.0024394358 -0.020732138
000050 8e 97 0d bd f5 15 36 bd d6 bd 06 3c c3 35 48 bd
       -0.034568362 -0.044454534 0.008223971 -0.048879396
000060 01 e0 63 bc 1a a7 d5 bc 68 bb 97 be 65 28 95 3c
       -0.013908387 -0.026080657 -0.29635167 0.018207738
000070 f4 14 0b 3c 8f 8a c1 bb 99 65 0e 3d 4e e6 1c 3b
       0.008488882 -0.00590641 0.03476486 0.0023940983

update_module.2.weight f4 [16, 32, 1, 1]
000000 f6 7e 6c be cb f2 38 3e ee e9 53 3e 48 79 a7 3e
       -0.23095307 0.18061368 0.20694706 0.32709718
000010 a7 78 63 be de 92 87 bb 5a f1 b8 bd 18 e2 c4 bb
       -0.22213994 -0.004137381 -0.09030409 -0.006008398
000020 66 63 8d bd ef 9a 63 bd 34 eb df bd c7 15 12 3e
       -0.06903724 -0.055567678 -0.10933533 0.1426612
000030 bd ca 81 3e 1f b4 df 3d 38 07 ac bd b0 a3 e7 3c
       0.2534999 0.10923027 -0.08399814 0.028276294
000040 9a 77 65 3e fb fe 61 3e 26 36 9f 3c 59 c5 b9 3d
       0.22408906 0.22069924 0.019435 0.09070844
000050 ae 6e d3 3d f4 35 fe bb ea e6 5d 3d 86 95 01 3e
       0.10323845 -0.0077578966 0.054175295 0.12654695
000060 78 3d a5 bd c9 56 76 bb 0a 62 0a bd 15 75 e0 3d
       -0.08068365 -0.003758835 -0.033784904 0.109598316
000070 80 37 ae b8 c5 5e 14 3e c3 eb 84 3c 01 26 7b 3e
       -8.307304e-05 0.14489277 0.016225701 0.24526216
000080 b9 56 ff bd 97 97 40 3d e3 d4 1c 3e 93 c6 33 3e
       -0.12467713 0.047019567 0.15315585 0.17556219
000090 4d 3a 6e be c4 62 8f bc 76 fa 4f bd 97 51 a4 3d
       -0.23264427 -0.01750315 -0.050775968 0.080233745
0000a0 bc 0d 4b bd f1 7a c7 3d 1f b9 1b bd a2 25 bd 3d
       -0.049573645 0.09740246 -0.038018342 0.092356935
0000b0 45 ae 2c 3e e3 5d 3f 3d 37 48 bb bd a4 8c 5d 3d
       0.16863354 0.046720397 -0.09144633 0.054089203
0000c0 d2 df 25 3e 03 33 fb 3d 42 6c 19 3d 01 88 5c bc
       0.16198662 0.12265589 0.03745676 -0.01346016
0000d0 05 8d 39 3e 32 08 06 3e 13 1a 47 3d 9e f4 79 bc
       0.18120201 0.13089064 0.04860885 -0.015256075
0000e0 2c 07 5b bd 77 4d d7 3d 71 41 58 bd 20 90 95 3d
       -0.053473637 0.10512822 -0.052796785 0.0730288
0000f0 84 3c d2 bc ff fa 8f 3d 44 11 c7 3c 50 b8 87 3d
       -0.025663622 0.070302956 0.024300225 0.06626952
000100 d2 27 26 bd 72 60 9c 3c 5b 79 94 3c 99 a1 9a bb
       -0.04056532 0.019088957 0.018124273 -0.004718971
000110 6c c2 7a bd ab 8d 14 bc 00 c4 00 bd e6 1f a7 3c
       -0.06122057 -0.009066979 -0.03143692 0.020400953
000120 0f 8e 9a 3b 08 3a cb 3c 7a 4e 73 bb b9 45 40 3d
       0.0047166417 0.024807945 -0.0037125633 0.046941493
000130 2a 82 40 3c 3a 47 d3 3a 34 ec 90 bc 46 a7 ea 3c
       0.0117497835 0.001611925 -0.017690755 0.028644215
000140 5d 2f 11 3d d0 66 fc 3c 19 65 35 3d cb 8b da 3b
       0.03544556 0.030810744 0.044285867 0.0066694967
000150 55 00 84 3d eb b6 3d 3d d5 49 76 ba 33 68 e1 bc
       0.06445376 0.046317022 -0.0009395157 -0.027515506
000160 6c 07 66 bc 6b 58 aa 3c 0d 97 6f bd cc 70 fd 3b
       -0.014039855 0.020794114 -0.058493663 0.0077343937
000170 f1 b8 f3 3c d4 75 2a 3b 82 6d ad 39 7f 7a 5c bb
       0.029751273 0.0026010172 0.0003307872 -0.003364235
000180 9b 7f 96 be 14 71 61 3d 5b ec 8d 3e 31 23 9e 3e
       -0.2939423 0.05503948 0.27719387 0.30886224
000190 fa 87 d0 be 9a 66 0a 3d ef 55 fc bd d5 46 c8 3d
       -0.40728742 0.033789255 -0.12321078 0.09779135
0001a0 fb bb 97 bd c7 9e 17 3e 78 8e b6 bd 22 62 5b 3e
       -0.07408901 0.14806662 -0.089138925 0.21424153
0001b0 d3 8b ac 3e b6 a5 ce 3d ea 69 13 be 77 7c 05 3e
       0.33700427 0.100902006 -0.14395872 0.13035761
0001c0 1b 9b 72 3d 31 10 7c 3e 7d 5b d9 3d a5 4e e2 3b
       0.05922995 0.24615552 0.10613153 0.006906348
0001d0 13 93 b7 3e 78 5d 4a 3e 6d 98 94 3d 11 80 64 bc
       0.35854396 0.19762218 0.072556354 -0.013946549
0001e0 74 45 e2 bd 83 17 5b 3e 13 b8 88 be fe dc 04 3e
       -0.110484034 0.21395688 -0.26702937 0.12974927
0001f0 a3 a0 b4 bb 73 36 12 3e 9b 92 0e 3d 13 cf 26 3e
       -0.0055123135 0.14278583 0.034807783 0.1628993
000200 0a 34 2b bd 7d 1f 6b 3d a3 b0 87 bd b0 d8 bd 3e
       -0.041797675 0.057403076 -0.06625488 0.37079382
000210 cd 7e 6f 3f 02 e8 35 3e 6e 61 e9 3e 8f 60 74 3e
       0.9355286 0.17764285 0.45582145 0.23864959
000220 68 b2 00 bd 33 c3 07 3e f6 08 0e 3d 53 89 9b be
       -0.03142014 0.13258056 0.034676515 -0.30378208
000230 2d 95 54 be d5 ee c0 3e 39 ea d9 3e 70 d6 85 bd
       -0.20760031 0.37682214 0.4256151 -0.06535041
000240 95 b4 e3 3d d3 4f 16 be dd e7 be be b3 ec 9e 3a
       0.11118428 -0.14678888 -0.37286273 0.0012124985
000250 6f 74 47 be 83 c0 37 3d e9 22 79 3c 21 c1 88 3d
       -0.1947801 0.044861328 0.015206077 0.066774614
000260 55 22 86 bc 7e d6 b3 3e ff fd a6 3d 01 46 9e bc
       -0.016373793 0.35124582 0.08153915 -0.01932049
000270 e5 94 a3 be 84 d2 09 3e 8b 44 94 bd 3f 20 1c 3d
       -0.31949535 0.13459212 -0.07239636 0.03811669
000280 c0 ce d7 bd 67 df c6 3d 6f 56 72 3e 7c f1 4f 3e
       -0.10537481 0.09710579 0.23665784 0.20306963
000290 bb 6a 90 3d 0b 91 0a bc 4d a4 aa 3e 82 ea f2 bd
       0.07051607 -0.0084574325 0.33328477 -0.11861135
0002a0 3e ca 76 3c d3 46 bb 3d 96 66 b3 3c 47 e5 24 be
       0.015062867 0.09144368 0.021899503 -0.16103087
0002b0 82 22 58 3e d5 17 6f 3e 86 d9 cf bd ff ce 38 3d
       0.21106914 0.23348935 -0.10148911 0.04511928
0002c0 3b 78 76 bd ac 45 be 3d 90 49 06 be 20 18 48 3e
       -0.060173254 0.092906326 -0.13114 0.19540453
0002d0 1e 5b 12 3e bc c5 44 be 33 73 89 be 25 64 d5 3d
       0.14292571 -0.19216055 -0.26845703 0.10419492
0002e0 17 26 fd bd 4c ba 1a bc 24 56 81 be e6 0a b4 3d
       -0.12360781 -0.009443831 -0.25261033 0.08791141
0002f0 f6 a4 1f be bf 8b 10 3d f6 71 a4 bc cd a2 e0 bd
       -0.15590271 0.035289522 -0.020073872 -0.10968552
000300 d1 4a 21 be 07 7f f4 bd 8a e0 92 bc 78 aa 5e 3e
       -0.15751196 -0.11938291 -0.017929334 0.21744716
000310 58 d4 c4 bd 98 00 22 3e ca b5 ab bd 1c 05 88 3d
       -0.09610814 0.15820539 -0.08384283 0.066415995
000320 c9 96 0c bb a3 43 9a be e2 15 d8 bd 5b 0f 81 3e
       -0.002145218 -0.30129728 -0.10551049 0.25207028
000330 c1 6e 3d bc f3 7e 7b bd 3f 46 fd bd ce 06 f0 bd
       -0.01156205 -0.061400365 -0.12366914 -0.11720048
000340 41 17 1c be 50 6c ef 3d 2d 0d 92 3d ea 73 a1 3d
       -0.15243246 0.11690581 0.07131419 0.07883437
000350 5d 5e d5 be 32 51 87 3e 66 75 ae 3e 40 7f 93 3e
       -0.41673556 0.26429135 0.34073943 0.28808022
000360 89 9a 84 bd 8d a3 48 3c f0 7f 0a 3e 7c 0e 4b be
       -0.06474788 0.012246025 0.13525367 -0.19829744
000370 3b fc 32 3e ca e8 99 3d e6 be f8 39 96 fb d0 3e
       0.17479031 0.07515104 0.00047444477 0.40816945
000380 03 2d 3f 3e dd c8 f1 bc 9e 6f bf bc c7 5e 27 3e
       0.18669514 -0.029514724 -0.023368653 0.16344748
000390 75 e2 06 3e d7 e5 30 be fb 37 81 3e a1 35 07 3e
       0.13172324 -0.17275177 0.25238022 0.13204052
0003a0 5d 54 29 bd 99 79 9f 3c e8 70 37 3e 8a b4 e0 bd
       -0.04134022 0.019467162 0.17914164 -0.10971935
0003b0 f1 47 fc 3d b6 39 92 3d 1b fb 04 be 19 12 4e 3e
       0.12318409 0.07139914 -0.12986414 0.20124091
0003c0 3b 77 aa 3c dd b7 c1 bd a9 ed b1 bd 47 5a 22 3e
       0.020808807 -0.09458897 -0.08687908 0.1585475
0003d0 1c e7 09 3e 42 17 30 3e 62 c5 fd be 70 75 f8 bd
       0.13467067 0.17196372 -0.49564654 -0.121317744
0003e0 d5 40 c7 bc bd 9b f5 3d 0f f2 2d bd 43 72 76 be
       -0.024322907 0.11992595 -0.042467173 -0.24067025
0003f0 da 8e 25 be 9b 64 a9 bc a5 25 6c bc 50 00 ba be
       -0.16167775 -0.020677855 -0.014413272 -0.36328363
