automata_ex/logs/withoutPool/9-CARROT-train_05-05-2022_17-55-17/models/model_18500.pt (torch, 9699 bytes, 3 tensors)

update_module.0.weight f4 [32, 48, 1, 1]
0	0x3e727821	0.23678638
1	0x3d104bef	0.035228666
2	0xbc8a9e2e	-0.01692113
3	0x3e93cfdf	0.2886953
4	0xbd56b595	-0.052419264
5	0xbe32afa4	-0.17449814
6	0x3d8d605a	0.06903143
7	0xbe22ce20	-0.15898943
8	0xbcd5d502	-0.026102547
9	0x3e7d8866	0.24759063
10	0xbdcd1633	-0.10014
11	0xbcf0f49d	-0.029413516
12	0xbd07c040	-0.03314233
13	0xbd7583c6	-0.059940122
14	0x3d4698cf	0.048485573
15	0x3e01b692	0.12667301
16	0xbd243006	-0.04008486
17	0x3dc50b7a	0.096213296
18	0xbc80972e	-0.015697088
19	0xbd05d1d8	-0.032670826
20	0xbd80fb38	-0.06297916
21	0xbe0042e6	-0.1252552
22	0xbe149928	-0.1451155
23	0x3a791a75	0.00095025386
24	0x3d8d02eb	0.06885322
25	0xbe06ccc1	-0.13164045
26	0x3e833760	0.25628185
27	0x3d5fd922	0.054650433
28	0x3c78d8dd	0.015188423
29	0x3e0a35f3	0.13497142
30	0x3df6dc44	0.12053731
31	0x3d851ca9	0.06499607
32	0xbbcc40ed	-0.0062333257
33	0xbdd26355	-0.10272852
34	0x3cc1cfaa	0.023658592
35	0xbd6c62d6	-0.057711445
36	0xbd39c41f	-0.04535305
37	0xbce8e64d	-0.028430128
38	0x3e08cb0d	0.13358708
39	0x3d3397d7	0.043845978
40	0x3cee9d4a	0.029127736
41	0x3e59ce82	0.21270183
42	0x3d585ced	0.052822996
43	0xbc3aa78e	-0.011392487
44	0xbdf3cc7f	-0.11904239
45	0xbe031aa3	-0.1280313
46	0x3e04fc40	0.1298685
47	0x3e244c1f	0.16044663
48	0xbe8fa304	-0.2805406
49	0xbd951315	-0.0727903
50	0xbd4c2b63	-0.049846064
51	0xbd87b019	-0.06625385
52	0x3e5620ef	0.20911
53	0xbc6fb8b5	-0.01463144
54	0xbe2af371	-0.16694428
55	0x3e2a407d	0.16626163
56	0x3ef3b278	0.47597098
57	0x3dacdae0	0.084401846
58	0x3e199927	0.14999829
59	0xbdef94da	-0.11698313
60	0xbdee11b1	-0.11624468
61	0xbe214ef4	-0.15752774
62	0xbe049e4b	-0.12951009
63	0xbdcdb07d	-0.10043428
64	0x3c51f650	0.012815073
65	0xbdbe10a6	-0.09280519
66	0x3e1fd9d8	0.15610445
67	0x3e286931	0.16446377
68	0x3cf295ba	0.02961241
69	0xbd75c0f3	-0.059998464
70	0x3dc36dff	0.095424645
71	0xbe369206	-0.17829141
72	0x3e5613d6	0.20906004
73	0xbdeea8de	-0.116533026
74	0x3d6e6739	0.05820391
75	0x3d92f56e	0.07175718
76	0x3e80f062	0.25183398
77	0x3e8ea108	0.27857232
78	0xbd786f6e	-0.060653143
79	0x3e511cd3	0.20421152
80	0xbe48e13d	-0.19617172
81	0xbd2af4e4	-0.041737452
82	0x3dea463a	0.11439176
83	0xbe4f1c30	-0.20225596
84	0xbe6fe69d	-0.23427816
85	0x3e909a50	0.2824273
86	0x3ca21926	0.019787382
87	0x3d99c7e7	0.075088315
88	0x3e410fb3	0.18853645
89	0xbd92d7ee	-0.071700916
90	0x3d41ffb9	0.047363017
91	0x3d69012b	0.05688588
92	0xbe1e8d5d	-0.15483613
93	0xbe306dee	-0.17229435
94	0x3ded9c29	0.11602051
95	0x3d759e85	0.05996563
96	0x3c7f2b55	0.015574296
97	0x3e08f811	0.1337588
98	0x3d72249f	0.059116956
99	0xbdbbec4b	-0.09175929
100	0x3d4d2217	0.05008134
101	0xbc3fa319	-0.0116966
102	0x3d98682c	0.07441744
103	0xbeb7fa4d	-0.35933152
104	0x3e7d7a48	0.24753678
105	0xbe0282f2	-0.12745264
106	0xbb452056	-0.0030079088
107	0x3d9d73a3	0.076880716
108	0xbe6847ff	-0.22683714
109	0xbde7174e	-0.11283742
110	0xbe91daa3	-0.2848712
111	0xbe29708a	-0.16546836
112	0xbe11cc21	-0.14238025
113	0x3d18e10b	0.037323993
114	0x3cedfea8	0.029052094
115	0x3e7cb024	0.24676567
116	0xbe01d71f	-0.12679718
117	0x3cb4abef	0.02205464
118	0xbb1e2c5a	-0.0024135322
119	0x3e6a4b0e	0.22880194
120	0x3db26142	0.08709957
121	0xbed59933	-0.41718444
122	0x3e609b88	0.2193433
123	0x3d781e4e	0.060575776
124	0xbc95fd5d	-0.01830929
125	0x3ea2d551	0.31803373
126	0x3eb840a1	0.35986808
127	0x3e3f29b2	0.18668249
128	0xbe06d663	-0.1316772
129	0x3c4632ef	0.012097104
130	0x3dc28665	0.0949829
131	0xbda68c0e	-0.08132182
132	0xbe50fd48	-0.20409119
133	0x3e368025	0.17822321
134	0xbdd6b7f7	-0.10484307
135	0x3e93100e	0.28723186
136	0x3d3960c4	0.0452583
137	0xbd8937e7	-0.06700116
138	0xbe5acfd0	-0.21368337
139	0x3e90c3c4	0.28274357
140	0xbe913050	-0.28357172
141	0xbe94872a	-0.29009372
142	0xbe00481e	-0.1252751
143	0x3e6488ae	0.22317764
144	0xbe5a0e57	-0.21294533
145	0x3c87c132	0.016571615
146	0xbc655340	-0.013996899
147	0xbdb59f8e	-0.08868323
148	0x3e6dddd2	0.23229149
149	0xbcd9a281	-0.026566746
150	0x3e2bc430	0.16774058
151	0x3d2500f1	0.0402841
152	0x3ddc023b	0.10742613
153	0xbdeb520c	-0.114902586
154	0x3d84b51f	0.064798586
155	0xbdfb0919	-0.122575946
156	0xbe81aff1	-0.25329545
157	0xbd29c93b	-0.041451674
158	0xbeb5168e	-0.3536877
159	0xbe8e5c58	-0.27804828
160	0x3d7c8f51	0.061660115
161	0xbeb345ed	-0.35014287
162	0xbe090eda	-0.13384572
163	0x3ec66c99	0.38754728
164	0xbd5b6b19	-0.053568933
165	0xbec11363	-0.37710103
166	0xbca1c3fa	-0.01974677
167	0xbe9ec48d	-0.3100933
168	0x3df21a47	0.11821418
169	0x3e30a739	0.1725129
170	0xbe3fd0a2	-0.18731931
171	0xbe738337	-0.23780523
172	0x3f1567ca	0.58361495
173	0x3ccddd64	0.025129981
174	0xbe18129c	-0.14850849
175	0x3eaa7eb7	0.332998
176	0xbe86be43	-0.26317033
177	0x3cd338a5	0.025783846
178	0x3e601c13	0.2188571
179	0xbe350d2e	-0.17680809
180	0xbdb6c906	-0.08925061
181	0x3ead2a14	0.33821166
182	0xbe005594	-0.12532645
183	0xbe617a06	-0.22019204
184	0x3e4829ae	0.1954715
185	0xbe8f9a13	-0.28047237
186	0xbd959c13	-0.073051594
187	0x3df16acd	0.11787949
188	0xbe059086	-0.13043413
189	0xbeaef11d	-0.3416833
190	0x3e5818c4	0.21103197
191	0xbe08e6be	-0.13369271
192	0x3e3fedab	0.18743007
193	0xbecc1ec4	-0.39867222
194	0xbe304055	-0.1721204
195	0x3dfb6a69	0.122761555
196	0xbdab6a6d	-0.083699085
197	0x3cc21027	0.023689343
198	0x3de7ad5e	0.11312364
199	0x3ce42c6c	0.027853213
200	0x3dbf1197	0.09329527
201	0x3e17ff66	0.1484352
202	0x3d8f9ae2	0.070119634
203	0xbd3f480b	-0.046699565
204	0xbe26d1b8	-0.16290939
205	0xbadce681	-0.0016853363
206	0x3e281566	0.16414413
207	0x3ba3d93b	0.005000261
208	0x3d5c7590	0.053823054
209	0x3d4cafbb	0.049972277
210	0xbd35b8cf	-0.0443657
211	0x3d55db58	0.052211136
212	0xbe60ba4c	-0.21946067
213	0x3df77563	0.120829366
214	0xbd5582b6	-0.05212661
215	0x3c3065bb	0.010766442
216	0xbe5f909a	-0.21832505
217	0x3ea72024	0.3264171
218	0x3ddf501e	0.10903953
219	0x3dacdfa8	0.084410965
220	0xbb9a2e0c	-0.0047051962
221	0x3d57db60	0.052699447
222	0xbdd7fc83	-0.1054621
223	0x3d0f2ef7	0.0349569
224	0xbe615cdb	-0.22008078
225	0xbd922292	-0.071355
226	0x3e3f3164	0.18671185
227	0xbe8beac8	-0.2732756
228	0x3c5e9e29	0.013587513
229	0x3dc524df	0.09626173
230	0x3cdf61e1	0.027268352
231	0x3e60e310	0.21961617
232	0x3d0f357f	0.034963127
233	0x3d86d2a0	0.06583142
234	0x3e044c2d	0.12919684
235	0x3e1a1fe0	0.15051222
236	0xbdb041a7	-0.08606272
237	0xbe4a959c	-0.19783634
238	0x3da99b97	0.082816295
239	0x3cbb0b46	0.022832524
240	0x3ceb3e92	0.02871636
241	0x3cc438da	0.02395289
242	0x3d072ff8	0.03300473
243	0x3d8432be	0.06454991
244	0xbd349ad0	-0.044092953
245	0xbd12b7e7	-0.035819914
246	0x3cb56fbf	0.022148011
247	0xbe030f2d	-0.12798758
248	0x3e0a88f8	0.13528812
249	0xbd3d7d89	-0.046262298
250	0xbe1115b4	-0.14168435
251	0xbde0cd50	-0.1097666
252	0xbeab7b2d	-0.33492413
253	0xbc7dd486	-0.015492564
254	0xbe28b91f	-0.16476868
255	0x3d742428	0.059604794

update_module.0.bias f4 [32]
0	0xbeb79fe4	-0.35864174
1	0xbd247500	-0.040150642
2	0xbc2e42c8	-0.010636039
3	0xbd3657e1	-0.0445174
4	0xbeba9ff5	-0.36450163
5	0xbc08e143	-0.008354488
6	0xbc5dfa55	-0.013548453
7	0xbc1d0131	-0.009582804
8	0x3995b77c	0.000285562
9	0xbcee2779	-0.029071556
10	0xbcab5d24	-0.020918436
11	0x3c115d46	0.008872336
12	0xbc9fc3f7	-0.019502623
13	0xbc8ca02c	-0.01716622
14	0xbc76bd15	-0.015059729
15	0xbc2ef14e	-0.010677649
16	0x3a9d4afa	0.0012000494
17	0x3b27607e	0.0025539692
18	0x38fcc248	0.00012052484
19	0xbca67500	-0.020319462
20	0xbd09480d	-0.03351598
21	0xbd3a0644	-0.04541613
22	0x3c137adc	0.00900146
23	0xbd629c11	-0.055324618
24	0xbc6262c1	-0.01381749
25	0xbcd62790	-0.026141912
26	0xbe98b55a	-0.2982586
27	0x3c891ffa	0.01673888
28	0x3c1cc0eb	0.00956748
29	0xbbb5640e	-0.005535609
30	0x3d077a8c	0.033075854
31	0x3b46aea0	0.0030316487

update_module.2.weight f4 [16, 32, 1, 1]
0	0xbe7010cc	-0.23443907
1	0x3e3d1158	0.18463647
2	0x3e54ff39	0.20800485
3	0x3ea94752	0.33062226
4	0xbe671239	-0.22565545
5	0xbbb5c20e	-0.0055468148
6	0xbdb8c725	-0.09022359
7	0xbc0925fa	-0.008370871
8	0xbd951ed6	-0.07281272
9	0xbd6580eb	-0.05603115
10	0xbde33a6b	-0.11095127
11	0x3e153258	0.14569986
12	0x3e834a52	0.2564264
13	0x3ddf1cfe	0.10894202
14	0xbdb258bb	-0.0870833
15	0x3cea31f2	0.028588269
16	0x3e67845d	0.22609086
17	0x3e652d7f	0.22380637
18	0x3ca18a06	0.019719135
19	0x3dc377f7	0.09544366
20	0x3dd68d72	0.10476197
21	0xbbf10836	-0.007355715
22	0x3d6b9fa2	0.057525285
23	0x3e029426	0.12751827
24	0xbda93502	-0.082620636
25	0xbbb587a0	-0.0055398494
26	0xbd128c61	-0.035778407
27	0x3dec4bd4	0.115379006
28	0xba5d64ac	-0.0008445482
29	0x3e18523d	0.14875121
30	0x3c8601d7	0.0163583
31	0x3e7f9f9d	0.24963231
32	0xbe006ade	-0.12540767
33	0x3d4158ab	0.0472037
34	0x3e1c16a1	0.15243007
35	0x3e3474dd	0.17622705
36	0xbe71d147	-0.23614989
37	0xbc957239	-0.018242942
38	0xbd53bd1e	-0.051694028
39	0x3da45698	0.08024329
40	0xbd51cce8	-0.051220804
41	0x3dc9304c	0.09823665
42	0xbd1dbb79	-0.038508866
43	0x3dbfa887	0.09358316
44	0x3e2ca39b	0.16859286
45	0x3d44b50e	0.04802423
46	0xbdbe9e50	-0.093075395
47	0x3d5f9aa6	0.054590844
48	0x3e27c111	0.16382243
49	0x3dfde686	0.123974845
50	0x3d18bc46	0.037288927
51	0xbc624b82	-0.013811948
52	0x3e3a2692	0.18178776
53	0x3e06be9a	0.13158646
54	0x3d47a605	0.048742313
55	0xbc72c30a	-0.014817009
56	0xbd5f7eee	-0.05456441
57	0x3ddb458a	0.10706623
58	0xbd5b83ad	-0.053592373
59	0x3d9c410f	0.076295964
60	0xbcd46632	-0.025927637
61	0x3d94228f	0.07233154
62	0x3cc24d6c	0.023718558
63	0x3d87595f	0.06608843
64	0xbd22688f	-0.039650496
65	0x3c99e65d	0.018786604
66	0x3c98e09d	0.018661791
67	0xbba1083c	-0.0049143117
68	0xbd77a51f	-0.060460206
69	0xbc127835	-0.008939792
70	0xbd00966d	-0.031393457
71	0x3ca9ee4a	0.020743508
72	0x3bbef3bd	0.0058273957
73	0x3cc842a5	0.024445841
74	0xbb54b762	-0.0032457937
75	0x3d3f18c4	0.046654478
76	0x3c4a88ce	0.012361718
77	0x3af87ce4	0.0018958119
78	0xbc868299	-0.016419696
79	0x3ce95d80	0.028486967
80	0x3d14e4af	0.036350902
81	0x3cf55f29	0.029952602
82	0x3d37782e	0.044792347
83	0x3bb44190	0.0055009797
84	0x3d84871d	0.06471083
85	0x3d3b84e4	0.04578103
86	0xbaa6c79c	-0.0012724283
87	0xbcdf5f43	-0.027267104
88	0xbc6876ed	-0.01418851
89	0x3cac50a2	0.021034542
90	0xbd73f567	-0.059560206
91	0x3bfa9418	0.0076470487
92	0x3d000750	0.031256974
93	0x3b1f7bce	0.0024335268
94	0x3a0f1548	0.0005458188
95	0xbb5c89a5	-0.0033651378
96	0xbe97fde9	-0.29685906
97	0x3d61f337	0.05516359
98	0x3e8e8e82	0.278431
99	0x3e9efdc4	0.31052983
100	0xbed2b7fe	-0.41156
101	0x3d0b9dd1	0.034086052
102	0xbdfd9966	-0.12382774
103	0x3dc7a98c	0.097491354
104	0xbd9d8b2b	-0.0769256
105	0x3e16f192	0.1474059
106	0xbdbd4ad7	-0.0924279
107	0x3e5d0cd9	0.21586932
108	0x3eadafc8	0.33923173
109	0x3dcfd440	0.10147905
110	0xbe169d57	-0.14708458
111	0x3e0634af	0.13106035
112	0x3d745999	0.05965576
113	0x3e7e181f	0.24813889
114	0x3ddb425e	0.10706018
115	0x3bfac66b	0.007653048
116	0x3eb85b4d	0.36007157
117	0x3e49d62f	0.19710611
118	0x3d947287	0.07248407
119	0xbc6a3e7e	-0.014297126
120	0xbde6eaf0	-0.112752795
121	0x3e5d54f9	0.21614446
122	0xbe8ab8fb	-0.27094254
123	0x3e09b051	0.13446166
124	0xbb71f43b	-0.0036919254
125	0x3e14abbe	0.1451864
126	0x3d096743	0.033545744
127	0x3e26baa8	0.16282141
128	0xbd3d07d2	-0.046150036
129	0x3d67545f	0.056476947
130	0xbd9e8843	-0.077408336
131	0x3ebf98a4	0.37421143
132	0x3f734028	0.9501977
133	0x3e3ce97f	0.18448447
134	0x3eec37d0	0.46136332
135	0x3e75974f	0.23983501
136	0xbd0f0b92	-0.034923144
137	0x3e08ba7b	0.13352387
138	0x3d12c87d	0.03583573
139	0xbe9b2f2a	-0.3030942
140	0xbe5f9025	-0.2183233
141	0x3ec126ce	0.37724918
142	0x3edab3da	0.4271534
143	0xbd848f57	-0.064726524
144	0x3deaaef3	0.1145915
145	0xbe14830b	-0.14503114
146	0xbec120c1	-0.37720302
147	0x3a7eaa5c	0.00097147166
148	0xbe480391	-0.1953261
149	0x3d17c237	0.037050452
150	0x3c900d50	0.017584473
151	0x3d863601	0.06553269
152	0xbc8af283	-0.016961342
153	0x3eb479c8	0.35249162
154	0x3d9b6603	0.075878166
155	0xbc9f3146	-0.019432675
156	0xbea57e69	-0.32323006
157	0x3e016192	0.12634876
158	0xbd98f6e3	-0.07468965
159	0x3d2f2602	0.042760856
160	0xbdda7ac2	-0.106679454
161	0x3dce516c	0.10074124
162	0x3e73f46b	0.23823707
163	0x3e51ac2f	0.20475839
164	0x3d92f113	0.071748875
165	0xbba2b92c	-0.004965922
166	0x3eabd508	0.33560967
167	0xbdfc4c05	-0.12319187
168	0x3c8b459d	0.017000968
169	0x3db5bed0	0.08874285
170	0x3ca3826e	0.019959655
171	0xbe26ac0b	-0.16276567
172	0x3e59364b	0.21212117
173	0x3e6b7dbd	0.22997184
174	0xbdd79849	-0.10527093
175	0x3d41c0cd	0.04730301
176	0xbd7875c0	-0.06065917
177	0x3dc17d6e	0.09447752
178	0xbe09e9d9	-0.13468112
179	0x3e4cdc9e	0.20006034
180	0x3e168f9d	0.14703222
181	0xbe4a16f7	-0.19735323
182	0xbe89bee0	-0.2690344
183	0x3dd64df8	0.1046409
184	0xbdff2d3f	-0.12459802
185	0xbc4d6e45	-0.012538497
186	0xbe81c732	-0.25347286
187	0x3db644e0	0.088998556
188	0xbe252739	-0.16128244
189	0x3d199a55	0.037500698
190	0xbc9e1716	-0.019298118
191	0xbde15fff	-0.11004638
192	0xbe1fc5bf	-0.15602778
193	0xbdfb6b3a	-0.12276311
194	0xbcbd996a	-0.023144443
195	0x3e6191c0	0.22028255
196	0xbdcc7451	-0.09983123
197	0x3e23d3ac	0.15998715
198	0xbda873a9	-0.082251854
199	0x3d9160f8	0.070985734
200	0xbb631a6b	-0.0034653198
201	0xbe9cb5cd	-0.30607453
202	0xbddae901	-0.10688973
203	0x3e80165d	0.25017062
204	0xbc716056	-0.014732441
205	0xbd614157	-0.054993954
206	0xbe00fdee	-0.12596866
207	0xbdebeb09	-0.11519439
208	0xbe1e6f08	-0.15472043
209	0x3df3ff25	0.11913899
210	0x3d965192	0.07339777
211	0x3da4420b	0.08020409
212	0xbed7d0df	-0.42151543
213	0x3e8a559f	0.2701845
214	0x3ead61ce	0.33863682
215	0x3e9a41fb	0.30128464
216	0xbd8cc940	-0.06874323
217	0x3bee7fde	0.0072784266
218	0x3e0a65f2	0.13515452
219	0xbe4ea761	-0.20181037
220	0x3e389f44	0.18029505
221	0x3d986be7	0.07442456
222	0x3a52601e	0.0008025187
223	0x3ed1e5be	0.40995592
224	0x3e409d61	0.18810035
225	0xbd0c304f	-0.03422576
226	0xbcd4f977	-0.02599786
227	0x3e27e65c	0.16396469
228	0x3dfc7812	0.12327589
229	0xbe353ed3	-0.17699747
230	0x3e82dc0c	0.25558507
231	0x3e0cb124	0.13739449
232	0xbd25ebb6	-0.040507995
233	0x3c91e9f1	0.017811747
234	0x3e37d65c	0.17952865
235	0xbde34fbc	-0.110991925
236	0x3dfb4415	0.12268845
237	0x3d906cac	0.070519775
238	0xbe098cdb	-0.13432638
239	0x3e53975f	0.20663212
240	0x3c9b5cd0	0.018965155
241	0xbdc81cf5	-0.09771148
242	0xbdb6b0a7	-0.089204125
243	0x3e222f8a	0.15838447
244	0x3e11ae99	0.1422676
245	0x3e31803a	0.17334071
246	0xbeff5a8d	-0.49873772
247	0xbdfd0deb	-0.1235617
248	0xbce1c45c	-0.027559452
249	0x3df40f49	0.11916978
250	0xbd28ae80	-0.04118204
251	0xbe763a11	-0.24045588
252	0xbe246712	-0.16054943
253	0xbcd0057c	-0.02539324
254	0xbc850edc	-0.016242437
255	0xbebb586a	-0.36590892
